models_m3/model_agg_num_6.pt (torch, 43983 bytes, 4 tensors)

weight f4 [40, 91]
0.13108958 0.05926388 -0.16103598 -0.01678216 -0.04745025 0.079649836 0.009586032 -0.04977587
0.016466048 -0.036082715 0.06558822 0.012519715 -0.011676584 -0.017326692 0.16638723 -0.18620308
-0.023615457 0.11777768 -0.209319 -0.19187364 -0.040940538 -0.19839312 -0.05224952 -0.12284672
-0.07059855 -0.15032786 0.023906857 0.16633426 -0.060415752 -0.15891366 -0.063856125 0.03323938
-0.07321448 -0.12606859 -0.076359615 -0.080797106 -0.19793066 -0.036256514 -0.22014901 -0.03518978
-0.17801148 0.048918523 0.18011326 -0.1496758 -0.015891813 0.24135101 0.12668325 -0.040894188
-0.042917028 0.029728122 0.086993076 -0.031 -0.05635933 0.102070026 -0.11416514 0.068887666
-0.1085171 0.11756827 -0.047884632 0.07618745 -0.012005617 -0.09498493 -0.048756935 -0.07136036
-0.19311894 -0.24052247 -0.08735353 -0.21237032 -0.10430558 -0.14845511 -0.0411747 -0.10905878
0.0962784 -0.1943837 -0.013300344 -0.04677291 0.00897274 -0.026212707 -0.19838598 -0.20778117
-0.1332747 -0.1654414 0.06652774 -0.07461647 -0.07386704 -0.13932718 0.056883655 0.17155333
0.1276235 -0.03212982 -0.10014535 -0.1442237 -0.17521727 -0.051219504 -0.13944186 -0.118872985
-0.22995007 -0.24635148 -0.19492859 -0.19860668 -0.11346947 -0.19028959 -0.13286237 -0.046718653
-0.17463765 -0.11705004 -0.14260337 -0.060220946 -0.036360417 -0.14874338 -0.086553216 -0.14920312
-0.16168681 -0.18471304 -0.22934978 -0.056328986 -0.209981 -0.24309221 -0.16902986 -0.122606486
-0.15333705 -0.095438726 -0.08401336 -0.08238366 -0.2317848 -0.101159975 -0.09201867 -0.20200974
-0.14355187 -0.12816937 -0.13068834 -0.08762502 0.23264036 0.24437141 -0.119542174 -0.08253578
-0.09902491 -0.20039701 -0.07378536 -0.15122859 -0.10105557 -0.21320046 -0.05999235 -0.12043386
-0.12007073 -0.23688702 -0.15291016 -0.18033686 -0.044888027 -0.23956496 -0.16961227 -0.19529301
-0.21894924 -0.1035119 -0.21622925 -0.09433288 -0.13128096 -0.1993489 -0.15578985 -0.13477443
-0.19030295 -0.21090238 -0.20253767 -0.11018046 -0.23561811 -0.07783754 -0.07458898 -0.04751132
-0.055165473 -0.20266938 -0.1892896 -0.06715421 -0.15739639 -0.17859416 -0.19401802 -0.07002657
-0.20306018 0.18079516 0.0564288 -0.061440967 -0.11493769 -0.071602814 0.05522852 0.07357882
0.20374516 0.052055757 0.048434116 0.040681545 0.16405246 0.077321135 0.018351767 -0.031157799
-0.10962703 0.0049916822 -0.05103018 -0.042855244 0.19409281 0.06850609 -0.11883154 -0.022286939
0.05768378 0.06208455 0.1588857 0.1770419 0.040641006 0.23599534 -0.09532857 -0.020149235
0.027155256 -0.026599437 0.17642659 0.048401967 -0.115970574 -0.05949929 0.07991773 0.20827629
0.19636488 0.059811547 0.16320793 0.061703704 0.08597031 0.09189175 0.10067965 -0.12872109
-0.06495416 0.21652934 0.040976033 0.13474303 0.02607154 0.11721004 -0.03703478 0.0832788
0.15483947 0.06744749 0.10967447 0.062052567 0.122008696 0.017653532 -0.10529875 -0.009716888
0.072196595 0.0747475 -0.055196583 -0.025605444 -0.05877675 0.13058202 0.04502331 0.10887813
0.19607837 0.12843418 0.21796426 -0.012885132 -0.0073752953 0.017945476 -0.07292874 0.025969144
00000000: 593c 063e afbe 723d 9ee6 24be be7a 89bc
00000010: 315b 42bd 741f a33d bb0e 1d3c c8e1 4bbd
00000020: cee3 863c 78cb 13bd 1e53 863d 7e1f 4d3c
00000030: 254f 3fbc b5f0 8dbc 6a61 2a3e 05ac 3ebe
00000040: 3475 c1bc 6d35 f13d b857 56be 867a 44be
00000050: 44b1 27bd 9127 4bbe 9803 56bd 1097 fbbd
00000060: f995 90bd 8cef 19be 50d8 c33c 8753 2a3e
00000070: 8276 77bd 43ba 22be 00c7 82bd 0426 083d
00000080: 79f1 95bd 2018 01be 6e62 9cbd f478 a5bd
00000090: 56ae 4abe b681 14bd be6e 61be 2923 10bd
000000a0: a448 36be ca5e 483d 9c6f 383e 9d44 19be
000000b0: 8c2f 82bc b824 773e 41b9 013e aa80 27bd
000000c0: c4c9 2fbd 6488 f33c 6d29 b23d b6f3 fdbc
000000d0: 0ad9 66bd 170a d13d 6acf e9bd fa14 8d3d
000000e0: 373e debd a2c7 f03d ad22 44bd 2a08 9c3d
000000f0: 35b3 44bc 7587 c2bd 5ab5 47bd 6125 92bd
00000100: f9c0 45be 864b 76be 68e6 b2bd 9b77 59be
00000110: 2a9e d5bd 9e04 18be cda6 28bd 365a dfbd
00000120: 9c2d c53d 850c 47be b0e9 59bc f394 3fbd
00000130: 6602 133c 08bc d6bc b225 4bbe 96c4 54be
00000140: 2a79 08be 7869 29be b23f 883d 85d0 98bd
00000150: 9a47 97bd c9ab 0ebe d6fe 683d adab 2f3e
00000160: bcaf 023e 8f9a 03bd 0119 cdbd 61af 13be
00000170: 286c 33be 8bcb 51bd d9c9 0ebe ae73 f3bd
00000180: 0878 6bbe 9043 7cbe 5c9b 47be 8d5f 4bbe
00000190: ae62 e8bd 46db 42be 130d 08be 0f5c 3fbd
000001a0: 36d4 32be eeb7 efbd 9e06 12be 3daa 76bd
000001b0: a9ee 14bd 2f50 18be d042 b1bd b4c8 18be
000001c0: 3a91 25be 6a25 3dbe abda 6abe 39b9 66bd
000001d0: 4205 57be 2aed 78be 2a16 2dbe 1c19 fbbd
000001e0: 6304 1dbe 6175 c3bd 320f acbd c4b8 a8bd
000001f0: ff58 6dbe f62c cfbd 4974 bcbd a4db 4ebe
00000200: 43ff 12be d53e 03be 2ad3 05be bf74 b3bd
00000210: 4639 6e3e 803c 7a3e 87d2 f4bd 8508 a9bd
00000220: 92cd cabd e034 4dbe c71c 97bd abdb 1abe
00000230: 39f6 cebd 3951 5abe 8aba 75bd 07a6 f6bd
00000240: a5e7 f5bd 8392 72be 7b94 1cbe 3aaa 38be
00000250: 82dc 37bd 8450 75be d7ae 2dbe e4fa 47be
00000260: 3b34 60be 0cfe d3bd 336b 5dbe 9931 c1bd
00000270: 846e 06be 1e22 4cbe 6087 1fbe 4f02 0abe
00000280: c7de 42be cbf6 57be 0966 4fbe 4ba6 e1bd
00000290: e045 71be 4a69 9fbd 1bc2 98bd 3b9b 42bd
000002a0: 31f5 61bd 9088 4fbe 22d5 41be 2588 89bd
000002b0: 852c 21be 63e1 36be a9ac 46be 176a 8fbd
000002c0: 02ef 4fbe 5e22 393e e321 673d 86a9 7bbd
000002d0: 7464 ebbd 7fa4 92bd 4d37 623d 7eb0 963d
000002e0: 92a2 503e 6b38 553d da62 463d b1a1 263d
000002f0: 5efd 273e 8b5a 9e3d 7256 963c a43e ffbc
00000300: 2384 e0bd 4491 a33b 0605 51bd fb88 2fbd
00000310: 44c0 463e ec4c 8c3d f35d f3bd 1993 b6bc
00000320: d445 6c3d 5e4c 7e3d efb2 223e 794a 353e
00000330: 2f77 263d c3a8 713e a03b c3bd 0210 a5bc
00000340: b374 de3c 10e7 d9bc 2ca9 343e 2441 463d
00000350: fb81 edbd 87b5 73bd e8ab a33d 6146 553e
00000360: e013 493e f4fc 743d fb1f 273e 06bd 7c3d
00000370: 3411 b03d be31 bc3d 2231 ce3d 76cf 03be
00000380: b006 85bd deb9 5d3e 7cd6 273d 14fa 093e
00000390: fb93 d53c d10b f03d c8b1 17bd 138e aa3d
000003a0: 3d8e 1e3e e921 8a3d 029d e03d d52a 7e3d
000003b0: b2df f93d 249e 903c dfa6 d7bd 9533 1fbc
000003c0: cfdb 933d 3815 993d d015 62bd 82c2 d1bc
000003d0: e4bf 70bd 4bb7 053e 5d6a 383d 7ffb de3d
000003e0: c5c8 483e 4084 033e 0632 5f3e 291c 53bc
000003f0: 76ac f1bb 6402 933c aa5b 95bd 3ebd d43c

bias f4 [40]
-0.01423234 0.06107519 0.12537943 0.089142725 0.1913216 -0.16523804 0.12511086 0.19968982
0.09712746 0.059727423 0.100167006 0.17623137 0.13725519 0.23220457 0.10433941 0.15926324
0.19637468 0.053538725 0.14391907 0.093002126 0.15870872 0.2457145 0.23217799 0.07487565
0.19531132 0.15499121 -0.16259626 0.17051646 0.04967423 -0.085821375 0.12413802 0.23983367
0.21724916 0.07032828 0.09756685 0.06147166 0.04702671 0.04872839 0.17341048 0.1494627
00000000: c32e 69bc fa29 7a3d 7763 003e 7690 b63d
00000010: cfe9 433e 2934 29be 101d 003e 7d7b 4c3e
00000020: c3ea c63d bea4 743d 5c24 cd3d ff75 343e
00000030: a08c 0c3e 09c7 6d3e e7af d53d e715 233e
00000040: 7216 493e 6c4b 5b3d 855f 133e e677 be3d
00000050: 8a84 223e 959c 7b3e 11c0 6d3e 6858 993d
00000060: b1ff 473e 04b6 1e3e a27f 26be de9b 2e3e
00000070: 3577 4b3d 1ec3 afbd 133c fe3d f596 753e
00000080: 9076 5e3e 4608 903d 21d1 c73d b5c9 7b3d
00000090: 149f 403d 6c97 473d 8492 313e c00c 193e

weight f4 [27, 40]
-0.1435733 0.08298758 -0.16035087 -0.09661671 -0.0054805526 0.08521964 -0.19748409 -0.08165656
-0.22326487 -0.27943742 0.010644382 -0.025141701 -0.02709085 -0.12603417 -0.052348863 -0.0622683
-0.2852199 -0.16215493 -0.24364755 0.10286878 0.1672055 -0.22704566 -0.1142676 0.028467316
0.09169979 -0.08282797 -0.08024888 -0.0054913554 -0.19616973 0.14524731 -0.14830807 -0.11455559
0.08153496 0.13742748 0.14672096 0.04069151 -0.09038005 -0.094741605 -0.1224597 -0.11687335
0.14632455 0.056368083 0.084928595 0.08081764 0.11796791 0.03993517 0.23562203 0.13987884
0.26545858 0.042290345 0.18782155 0.09210374 0.22770904 0.08062922 0.06550162 0.15639529
0.05319325 0.25309312 0.13784872 0.2325138 0.09754618 0.10495534 -0.005611 0.18809982
0.1978729 0.24770118 0.16489473 0.1288661 0.122559965 0.20849171 0.29506493 0.15412113
0.010579882 0.0028154163 0.20445107 0.28464147 0.060280524 0.22344075 0.2762188 0.2822932
-0.04345139 -0.24635032 -0.01656263 -0.08291191 -0.2388972 -0.30100447 -0.20597136 0.0395349
0.021682985 0.029311597 -0.25556466 -0.052708317 -0.031643003 0.030593036 -0.23679101 0.029473146
-0.12037343 -0.08073503 -0.24252553 -0.16834486 -0.24392247 -0.18897322 -0.16023324 -0.20049812
-0.073765606 0.06899367 -0.07080472 -0.21359333 -0.110830605 -0.1928098 -0.101503365 -0.15796179
-0.051424086 -0.1317252 -0.2856878 -0.20042117 -0.19555858 -0.040098164 -0.002165526 -0.015531604
0.042984277 -0.08308567 0.13848811 0.16847488 0.14707324 0.15312044 0.12821467 0.09528681
0.08525309 0.16216765 0.028128562 0.025617506 -0.008500448 -0.0044842814 0.17103913 0.29800758
0.0052520656 -0.10336807 0.12083264 -0.074638925 -0.13734196 0.19283767 -0.03814059 0.082162045
-0.0736969 0.13563998 0.09370903 -0.019223407 0.07534601 -0.13281895 0.2719252 0.014559602
-0.060691394 0.15413432 0.042729493 -0.01906864 0.18979661 0.13412614 0.055037014 0.2766075
0.05701032 0.17976588 0.1776307 -0.13298956 0.1310816 0.061067086 0.21556863 -0.16157477
0.22291404 -0.15794705 0.21232897 0.1436657 0.23122351 -0.21539792 0.03368735 0.0035180359
-0.1302927 0.015589547 -0.21305145 -0.056140855 0.20725755 0.050613716 0.06584296 -0.034847498
-0.027101433 0.20245886 0.17494653 -0.00026362142 -0.07409239 0.21350148 0.16318624 0.23060587
0.22239904 0.08875316 0.11630592 0.10638463 -0.20700935 -0.16226856 0.18785208 0.2751017
0.0017275438 -0.0474334 0.2812352 0.073515125 0.13789146 0.006009967 -0.024312304 0.023333402
0.29802153 0.28251112 0.06623958 -0.048413184 0.09229665 0.2365114 0.14669609 0.3017988
0.21771523 -0.06814301 0.07461892 0.14449775 -0.11375882 0.010818122 0.08459973 -0.0017748175
0.08320177 0.036452472 0.107924365 -0.12513024 0.2516222 -0.0011032427 0.06489555 -0.033782974
0.10855139 0.09428766 -0.15068132 -0.092023514 0.17101464 0.18384728 -0.10641047 0.20426078
-0.13638096 -0.23154646 -0.2648619 -0.14533456 -0.09460303 -0.07188686 -0.08434068 -0.03266852
-0.00282373 -0.2389568 -0.19993074 -0.27669948 -0.02092561 -0.29430428 -0.2203345 -0.2869802
00000000: e104 13be 64f5 a93d 0533 24be fbde c5bd
00000010: 3596 b3bb a287 ae3d 4539 4abe 8e3b a7bd
00000020: 8c9f 64be 6c12 8fbe c665 2e3c f8f5 cdbc
00000030: a1ed ddbc 1a0f 01be c36b 56bd 0c0d 7fbd
00000040: 5808 92be f10b 26be be7e 79be deac d23d
00000050: eb37 2b3e a87e 68be 2205 eabd 4a34 e93c
00000060: 19cd bb3d b6a1 a9bd 8659 a4bd d4f0 b3bb
00000070: b8e0 48be b6bb 143e 12de 17be 1f9c eabd
00000080: cdfb a63d cab9 0c3e 053e 163e 24ac 263d
00000090: 2d19 b9bd e307 c2bd 27cc fabd 4c5b efbd
000000a0: 1ad6 153e 38e2 663d 0bef ad3d b883 a53d
000000b0: 2999 f13d 1093 233d e746 713e 663c 0f3e
000000c0: 30ea 873e a438 2d3d 4b54 403e e3a0 bc3d
000000d0: 8f2c 693e ef20 a53d b725 863d 1626 203e
000000e0: 2ae1 593d 6c95 813e 3728 0d3e 1918 6e3e
000000f0: 4bc6 c73d d3f2 d63d 7bdc b7bb 3d9d 403e
00000100: 329f 4a3e 61a5 7d3e 2ada 283e 7af5 033e
00000110: b800 fb3d da7e 553e c012 973e eed1 1d3e
00000120: 3e57 2d3c d982 383b 9f5b 513e 87bc 913e
00000130: b6e8 763d a7cd 643e 8d6c 8d3e bc88 903e
00000140: 16fa 31bd 4243 7cbe 5aae 87bc b8cd a9bd
00000150: 78a1 74be 421d 9abe 28ea 52be 59ef 213d
00000160: 84a0 b13c e01e f03c 5fd9 82be ade4 57bd
00000170: 189c 01bd 3f9e fa3c 5879 72be ab71 f13c
00000180: 5886 f6bd 6858 a5bd 9d58 78be 9862 2cbe
00000190: d0c6 79be 3282 41be 2f14 24be 614f 4dbe
000001a0: 6c12 97bd 8e4c 8d3d 1102 91bd 36b8 5abe
000001b0: 28fb e2bd ef6f 45be ffe0 cfbd bcc0 21be
000001c0: 10a2 52bd f9e2 06be ac45 92be 353b 4dbe
000001d0: 8240 48be f93d 24bd 7feb 0dbb 4578 7ebc
000001e0: 4810 303d d228 aabd d4cf 0d3e ae84 2c3e
000001f0: 5e9a 163e 9bcb 1c3e b54a 033e bb25 c33d
00000200: 2c99 ae3d 470f 263e df6d e63c cedb d13c
00000210: 7745 0bbc e1f0 92bb e224 2f3e 7394 983e
00000220: 8519 ac3b a4b2 d3bd 1a77 f73d 4bdc 98bd
00000230: 5fa3 0cbe 3d77 453e 4f39 1cbd 9344 a83d
00000240: 66ee 96bd 35e5 0a3e 85ea bf3d 687a 9dbc
00000250: 024f 9a3d b101 08be c839 8b3e 668b 6e3c
00000260: 8a97 78bd 63d5 1d3e 1f05 2f3d d635 9cbc
00000270: 0b5a 423e 5d58 093e 7e6e 613d 809f 8d3e
00000280: a783 693d 8c14 383e d2e4 353e 6a2e 08be
00000290: 413a 063e 7b21 7a3d 06be 5c3e db73 25be
000002a0: 9443 643e dfbc 21be c46c 593e 1a1d 133e
000002b0: dbc5 6c3e 4691 5cbe bffb 093d d98e 663b
000002c0: 736b 05be 4d6b 7f3c 292a 5abe f4f3 65bd
000002d0: 533b 543e 5450 4f3d acd8 863d 40bc 0ebd
000002e0: d303 debc 6051 4f3e 2f25 333e ab36 8ab9
000002f0: c0bd 97bd 22a0 5a3e 4b1a 273e f223 6c3e
00000300: 93bc 633e 37c4 b53d cc31 ee3d 2fe0 d93d
00000310: 42fa 53be bb29 26be 4c5c 403e 21da 8c3e
00000320: c06e e23a 8649 42bd 0ffe 8f3e 198f 963d
00000330: 6b33 0d3e 42ef c43b 992a c7bc b125 bf3c
00000340: 4796 983e 4ca5 903e 9ea8 873d e74c 46bd
00000350: 0706 bd3d 0b30 723e 8037 163e 5f85 9a3e
00000360: bef0 5e3e 908e 8bbd ced1 983d 38f7 133e
00000370: 62fa e8bd 7e3e 313c a042 ad3d fea0 e8ba
00000380: b165 aa3d 304f 153d 7307 dd3d 2422 00be
00000390: a0d4 803e af9a 90ba f5e7 843d 0460 0abd
000003a0: 3150 de3d e419 c13d 344c 1abe d376 bcbd
000003b0: 761e 2f3e 7642 3c3e bced d9bd bd29 513e
000003c0: 73a7 0bbe 841a 6dbe fb9b 87be 95d2 14be
000003d0: 3cbf c1bd 6b39 93bd ceba acbd 6dcf 05bd
000003e0: 540e 39bb 17b1 74be a5ba 4cbe 8eab 8dbe
000003f0: 2f6c abbc 0daf 96be 5e9f 61be 12ef 92be

bias f4 [27]
-0.07137316 0.26513466 -0.0001593898 0.19472745 0.10610877 0.17781812 0.0058519766 0.29422063
-0.30104953 -0.0012457086 0.09521643 -0.1980718 -0.24463063 -0.061531175 -0.09687448 -0.034519624
-0.22524744 -0.03854175 -0.29202035 -0.027931139 -0.03228822 -0.28506884 -0.26907492 -0.11333276
-0.068785794 0.01073631 -0.06355749
00000000: 172c 92bd bbbf 873e e021 27b9 a266 473e
00000010: 8e4f d93d f415 363e f0c1 bf3b 16a4 963e
00000020: 2a23 9abe 0b47 a3ba d500 c33d 55d3 4abe
00000030: 7480 7abe 1d08 7cbd 2166 c6bd 7364 0dbd
00000040: 44a7 66be f4dd 1dbd b183 95be d8cf e4bc
00000050: a740 04bd 8bf4 91be 30c4 89be 021b e8bd
00000060: 91df 8cbd 59e7 2f3c 6e2a 82bd
