models_m3/model_agg_num_6.pt (torch, 37839 bytes, 4 tensors)

weight f4 [40, 91]
000000 b0 a2 9f bd 7b 14 64 be 41 69 4a be 73 df cb bd
       -0.07794702 -0.22273438 -0.19766714 -0.09954729
000010 dc 7e 72 be ce cd b6 bd 42 44 0f be 0b 4e 6d be
       -0.23681206 -0.08925973 -0.13990882 -0.23174302
000020 cc ce 05 be 29 54 69 be 12 f7 15 be b0 38 e0 bd
       -0.13067168 -0.22786011 -0.14645031 -0.10948312
000030 1c 50 7a be c3 02 6f be a2 38 4e be 48 8e d4 bd
       -0.24444622 -0.23340897 -0.20138791 -0.103787005
000040 b5 ad b1 bd 5b 13 77 be b7 8f 3e be be 1a 14 be
       -0.0867571 -0.24128477 -0.1860951 -0.14463326
000050 e0 7b 88 bd 38 ba ba bd c9 24 36 be 04 fb 35 be
       -0.06664252 -0.0911755 -0.1778747 -0.17771536
000060 a6 2a 77 bd cc ac 37 bd 7c 2a e1 bd 92 b4 38 be
       -0.060343407 -0.044842526 -0.109944314 -0.18037632
000070 5f 13 d9 bd 69 25 58 be 43 3b 03 be d5 12 63 be
       -0.10599398 -0.21108021 -0.12815575 -0.22175153
000080 15 a8 92 bd e9 c2 1c be 4c ab 70 be 71 e9 62 be
       -0.07160965 -0.15308727 -0.23502845 -0.22159363
000090 d6 d0 30 be 20 f4 36 be 52 12 f8 bd cf a4 f6 bd
       -0.17267165 -0.17866564 -0.12112869 -0.120431535
0000a0 a6 15 24 be 54 60 0d be 20 6a ca 3c 8b e7 5f be
       -0.16023883 -0.13806278 0.024708807 -0.2186567
0000b0 d0 ad 43 be b4 aa 5a be 42 f8 2e be 50 e6 44 be
       -0.19109273 -0.2135418 -0.1708689 -0.19228482
0000c0 cd 16 54 be 22 3e 1a be 28 2c 5a be 9f bb 48 bd
       -0.20711823 -0.15062764 -0.21305907 -0.049007054
0000d0 34 b6 c9 bd 95 17 57 be 2e 51 04 be af ad 14 be
       -0.098492056 -0.2100509 -0.12921593 -0.1451938
0000e0 dc d9 64 be 00 2a 40 bd ca 5b 6a be 37 16 1a be
       -0.22348732 -0.046915054 -0.22886577 -0.15047537
0000f0 36 10 6d be e5 98 68 be 77 e0 a1 bd 3c 3e 28 be
       -0.23150715 -0.22714575 -0.079041414 -0.1642999
000100 81 c9 c2 bd 1c e2 69 be 56 00 4c bd 1e 08 35 be
       -0.0951109 -0.2284016 -0.049805008 -0.17678878
000110 a0 1b b3 bd 65 d4 63 be 94 90 02 be 80 a9 30 bd
       -0.087455034 -0.22248991 -0.12750465 -0.043130398
000120 a9 e8 37 bd d8 81 59 be 53 43 3d be 1e 2a 52 be
       -0.044899616 -0.21240938 -0.18482713 -0.20523879
000130 dd 6c a1 bd a9 4a 17 be dc db 2c be 32 64 6b be
       -0.07882092 -0.14774574 -0.16880745 -0.2298744
000140 02 75 73 be c1 e9 b2 bd 6f 76 c7 bd b5 d9 27 be
       -0.23775104 -0.08735991 -0.09739386 -0.16391642
000150 a3 e7 4b be bb 8f 11 be 2c 20 fa bd 25 e0 3e 3d
       -0.19912581 -0.14214985 -0.122131675 0.04660048
000160 9c 22 ea bd e1 2d 10 be 20 5a 13 be e9 82 68 be
       -0.114323825 -0.14080001 -0.14389849 -0.22706188
000170 61 50 96 bd e4 a9 69 be 61 b3 b8 bd 69 7b 72 be
       -0.0733955 -0.22818714 -0.09018589 -0.2367989
000180 d6 ef c8 bd 47 33 7f bd e2 66 2c 3e f9 02 61 be
       -0.0981137 -0.06230476 0.16836122 -0.2197379
000190 15 16 53 be 4e 16 14 be 21 07 4e be 43 ae d0 bd
       -0.20613892 -0.14461634 -0.20119907 -0.10189488
0001a0 ab cf 43 be 25 6c f6 bd ca 9b 4a be 67 9b 41 bd
       -0.19122188 -0.12032346 -0.19785991 -0.047267344
0001b0 ba e1 3f be cc a1 63 3e fb e1 50 3e 9d 40 0a 3e
       -0.18738452 0.2222969 0.20398705 0.1350121
0001c0 b1 d6 59 3e c7 a5 28 3e b5 84 b4 3d 1e 89 76 be
       0.21273305 0.16469489 0.08814374 -0.24075744
0001d0 0a 1d 0b be 9c f7 70 be f6 26 ea bd 74 9b 06 3d
       -0.13585296 -0.23531955 -0.114332125 0.032863095
0001e0 4d c3 b0 3d e8 c8 70 be 55 22 e6 bd d0 f2 2a be
       0.08631001 -0.2351414 -0.11237017 -0.16694188
0001f0 54 c5 65 3e aa 45 0c 3d b6 9e 65 3e c8 b5 49 3e
       0.22438556 0.034246124 0.22423825 0.1969825
000200 5f b5 f1 3d 0c d0 8e 3d 72 80 40 be 40 b4 51 be
       0.11802172 0.069732755 -0.18798998 -0.20478916
000210 e8 95 6b be 0a 7b 21 be b5 8a 08 3e cf 88 82 3d
       -0.23006403 -0.15769592 0.13334163 0.063737504
000220 71 71 0a be fa 28 55 bd 96 b8 b7 bd dd 62 87 bd
       -0.13519837 -0.05204103 -0.08970754 -0.066106535
000230 04 94 0f bd 1b 25 60 be 49 84 13 be 04 91 27 3e
       -0.035053268 -0.21889155 -0.14405932 0.16363913
000240 67 7f e7 bd 6b f9 1c be 71 4f 76 bd 1f 89 45 be
       -0.11303597 -0.1532952 -0.060134355 -0.19290589
000250 d3 8b 61 be 3c 70 45 bd 15 40 d5 bd 61 a6 2e be
       -0.22025995 -0.04820274 -0.10412613 -0.17055656
000260 d3 78 2a be ac 46 2d be 59 10 b8 3d 21 e6 64 3e
       -0.16647653 -0.1692149 0.08987493 0.22353412
000270 93 0f 1d 3e 4f 13 52 3d 09 60 04 3e e7 b2 a6 3d
       0.15337972 0.051287945 0.1292726 0.08139592
000280 83 cd b6 bd 28 97 65 bd c9 b2 03 be da 5b 75 be
       -0.08925917 -0.056052357 -0.1286117 -0.2396082
000290 83 68 ea bd dd 7e 16 3e b2 a5 ab bd 6d e0 13 be
       -0.11445715 0.14696832 -0.08381213 -0.1444108
0002a0 f6 c2 2c be e9 6e 02 3e 2f 5f 57 3e 5c a5 4d 3e
       -0.16871247 0.12737621 0.21032403 0.20082611
0002b0 6f 7e dc 3d 58 d0 d9 bd 9e b7 4c 3e bd ca 17 be
       0.10766303 -0.106354415 0.1999192 -0.14823432
0002c0 53 02 b1 bd 1f c4 96 bc b2 23 0c be c9 0a 72 3d
       -0.086430214 -0.018404065 -0.13685492 0.059092317
0002d0 11 46 03 3e 17 41 27 3e 8f bf 2a 3e 95 0d 73 3e
       0.12819697 0.16333424 0.16674636 0.2373565
0002e0 36 b3 53 3d e5 f9 1b 3e a2 4b 99 3d 57 00 3f 3e
       0.05168458 0.15232046 0.07485129 0.18652473
0002f0 01 56 2f 3e 48 21 98 bd 7a e1 2e 3e fe e5 f9 3d
       0.17122652 -0.07428223 0.170782 0.12202071
000300 92 00 b8 3d 61 8b 54 3e 6f 99 11 3e d0 a3 10 3e
       0.08984484 0.20756294 0.14218687 0.1412499
000310 4b fc fe 3d e4 5e 29 be 2e eb f8 bd 1c 5e 31 be
       0.12450465 -0.16540104 -0.12154232 -0.17321056
000320 e5 a7 27 be be 7a c5 bd 92 56 2d be ec 0e 0d be
       -0.1637264 -0.09642552 -0.16927555 -0.13775223
000330 52 21 52 be d6 20 76 be 07 7b 3e be 0d 63 e4 bc
       -0.20520523 -0.24035963 -0.18601619 -0.027879262
000340 96 db 5d bd 25 f4 e8 3d 2e ce 39 be c1 b4 97 bd
       -0.05416449 0.11374692 -0.18145058 -0.07407523
000350 c7 1d 56 be 74 b7 c4 bd cb d3 73 be 96 60 49 bd
       -0.20909797 -0.096053034 -0.23811261 -0.049164377
000360 54 41 78 be 67 9e 5f be de 9a 63 bd 03 fc 20 be
       -0.2424367 -0.2183777 -0.055567615 -0.15721135
000370 36 46 d6 bd 1c 14 43 be 1a 6f d3 bd c8 9d c0 3d
       -0.104626104 -0.1905064 -0.10323925 0.094050944
000380 14 e6 48 3d a4 53 f2 bd 15 29 76 bd e2 38 90 3d
       0.049047545 -0.118323594 -0.060097773 0.070420995
000390 00 80 71 3e ba 9c 72 3e 19 8b e9 3d 1d 0b 43 3e
       0.23583984 0.23692599 0.11403484 0.19047208
0003a0 b3 38 eb 3d 5e 48 4a 3e 92 59 45 bd ff a0 0b 3e
       0.11485424 0.19754168 -0.048181124 0.13635634
0003b0 a6 72 76 3d 84 99 bb 3d 49 f4 26 3e 86 d1 37 3e
       0.06016793 0.0916014 0.16304125 0.1795102
0003c0 54 82 49 3e 31 f5 d6 3d 1f c2 20 bd e8 62 71 3e
       0.19678622 0.10495985 -0.03924763 0.23572886
0003d0 56 b0 f6 3d 4b 32 7d be 08 af bb bd 47 8e 8e bd
       0.12045352 -0.24726216 -0.09164244 -0.06960731
0003e0 06 e2 08 be 1c bc 72 bd e3 26 08 be b4 e8 09 3d
       -0.13367471 -0.059261426 -0.13296084 0.03366919
0003f0 73 6e b4 3c 10 11 65 3d c0 78 5b 3e 96 69 df bd
       0.022025323 0.055924475 0.21432781 -0.10908811

bias f4 [40]
000000 8d 30 a6 3d 98 40 5b 3e e5 4e 02 3e 7d fe d0 3d
       0.08114729 0.2141136 0.12725408 0.1020479
000010 9b 99 c0 3d e5 f5 57 be ad 39 5a 3e 5f 79 24 3e
       0.09404298 -0.21089895 0.21311064 0.16061924
000020 06 a0 28 3d 3a c2 ad 3d 41 b4 c8 3d 9c b2 b7 3d
       0.041168235 0.084843114 0.09800006 0.08969614
000030 fc 29 53 3e 2e b0 6a 3e 97 ca be 3b ae 95 02 3e
       0.20621485 0.2291877 0.0058224904 0.12752411
000040 18 97 69 3e 96 c0 26 3e 92 c4 d6 3d 35 66 ac 3d
       0.22811544 0.16284403 0.104867116 0.08417932
000050 d5 e9 40 3e 29 e8 c5 3d 2a e5 01 3e 32 aa b6 3d
       0.188392 0.09663422 0.12685075 0.08919181
000060 62 11 eb 3d 19 75 65 3e ca 73 1c be 6b d4 89 3d
       0.11477925 0.2240795 -0.15278545 0.06729969
000070 ea b8 2f 3e 16 b0 3a 3e af 3a 65 3e bb 73 20 3e
       0.17160383 0.18231234 0.22385667 0.15669148
000080 85 6b 19 3e 12 dc 82 3d 5f b4 bb 3d 7c 9e 72 3d
       0.14982422 0.06389631 0.091652624 0.059233174
000090 e9 50 bb 3d 2f 38 d9 3d c9 2b 3e 3e 7a 9f 8f 3d
       0.09146292 0.10606419 0.1857139 0.070128396

weight f4 [27, 40]
000000 6e 03 28 3e 1e 0f 6e be 38 1f ff 3d c2 8e dd bd
       0.16407558 -0.23247954 0.124571264 -0.108182445
000010 5f 8c 60 be e0 fe 08 bd 28 08 b6 bc 7f 1f c9 bc
       -0.21928547 -0.033446193 -0.022220686 -0.024551151
000020 66 87 b0 3c dd a3 8c bd dd f1 85 be 70 ac b6 3d
       0.021548938 -0.06867192 -0.2616109 0.089196086
000030 57 4c 58 be 58 bb ed bb 67 f3 60 3d 51 16 0b be
       -0.21122871 -0.007254999 0.054919627 -0.13582732
000040 3c 37 18 be ae b5 22 bd ab 44 4f bb fd bc 13 be
       -0.1486482 -0.039724045 -0.0031626623 -0.14427562
000050 16 08 74 be 53 9c bf 3d 79 64 aa bc c3 e1 ae bd
       -0.2383121 0.09355988 -0.020799862 -0.085391544
000060 2a 86 8e be 82 3f 98 bd 2f 45 b6 3d 46 06 36 be
       -0.27836734 -0.07433988 0.088999145 -0.1777583
000070 90 34 d8 bc d0 4d a8 bc 7a ed 9b 3c d5 2e a5 3c
       -0.026392251 -0.020544916 0.019034136 0.020163933
000080 b6 90 16 3e 97 24 06 be da 4e 0e 3e 97 9c 07 be
       0.1470364 -0.13099895 0.13897267 -0.13243328
000090 69 58 34 be e9 df 14 be e5 42 69 bd 50 20 8a be
       -0.17611851 -0.1453854 -0.05694856 -0.26977777
0000a0 89 e0 4b 3e 29 b1 7a 3e ba 45 f9 38 30 2c 7b 3d
       0.19909872 0.24481644 0.00011886233 0.061321437
0000b0 f1 d6 14 3e 03 8a 7c 3d 23 19 d2 3c ab 31 b3 bb
       0.14535119 0.061655056 0.025646752 -0.0054685674
0000c0 d4 e4 96 3d 13 ef 2c 3e 42 d2 97 3e 52 73 1b 3d
       0.07367864 0.16888075 0.296526 0.037951775
0000d0 9a aa 89 3d 86 e2 71 3d 25 b5 2e 3e 1b 13 01 3d
       0.06721993 0.05905392 0.17061289 0.03151236
0000e0 32 5e bf 3d 00 33 0c 3e 7b a0 d7 3d ea fa 03 3e
       0.09344138 0.1369133 0.10528656 0.12888685
0000f0 ae ce 44 3e 0b 91 1e 3e 1c 88 55 3e ad 4c 1c 3e
       0.19219467 0.15485017 0.20852703 0.15263624
000100 bd 55 7b 3e 9c bf a8 bb 3d 23 57 3e 66 d7 a8 3c
       0.24544425 -0.0051497947 0.21009536 0.020610522
000110 aa 08 4a 3e 47 48 ea 3d 7b 1c 71 3e 1a fc 60 3e
       0.19729868 0.11439567 0.2354602 0.21971169
000120 65 d2 22 3e c1 14 8f 3e d0 6c 9b 3d 17 5e 8c 3e
       0.15900572 0.2794552 0.07589114 0.27415535
000130 cd e7 12 3e 55 6a 81 3e 50 a6 81 3e 86 0c 0d 3e
       0.14346237 0.25276437 0.253222 0.13774309
000140 a7 91 69 be 11 2e 1c 3b 3f 5c 6b be a3 6f a2 bd
       -0.22809468 0.0023831169 -0.22984408 -0.07931449
000150 9f f2 d5 3c 94 fc 44 be 68 7a a0 bd b4 d6 92 be
       0.026116667 -0.19236976 -0.07835847 -0.2867943
000160 74 57 86 bc a9 f2 94 be bd 99 23 bd b9 18 7c be
       -0.016399123 -0.29091385 -0.039941538 -0.24618806
000170 70 9b 47 be 1b 73 99 be b6 cf 71 bd 44 be 6c bd
       -0.19492888 -0.2997063 -0.05903598 -0.05779864
000180 88 23 36 be 47 81 3a be ba e7 d0 bd 9f dd 98 bd
       -0.17786992 -0.18213378 -0.10200448 -0.07464146
000190 9f 10 2d bd 43 ee 06 bd c9 33 16 be a2 26 0b bd
       -0.04225218 -0.032942068 -0.14668192 -0.03397239
0001a0 d3 88 86 bd 59 7a 8b 3d 89 b2 d4 3d 3a db 04 be
       -0.06569066 0.06810445 0.103856154 -0.12974253
0001b0 cc 15 02 3d 7a c9 bd 3d 09 14 3a be 09 18 db bc
       0.03175907 0.09266944 -0.18171705 -0.02674486
0001c0 e3 c1 2d be 8b 45 18 bd 32 86 6f be b5 ba 00 3e
       -0.16968493 -0.037175696 -0.23391035 0.12571223
0001d0 64 92 54 3d ba 33 3c be c2 54 e4 bc 4e 43 9e 3d
       0.05189742 -0.18379107 -0.027872447 0.07727681
0001e0 c9 8a f1 bb 60 27 e9 3b f6 a9 f5 3d 6d 86 96 3d
       -0.007371281 0.0071152896 0.11995308 0.073498584
0001f0 9a 6d 7b 3e 65 c5 46 3e ff 1a ce 3d be 6f 05 be
       0.24553528 0.19411238 0.10063743 -0.13030908
000200 96 88 d8 bd a4 c5 47 3d f0 ad f4 3d cd f8 d6 bc
       -0.10572927 0.04877247 0.119472384 -0.026241684
000210 e6 d1 15 3e e4 45 9f 3d 5a b7 79 3e c0 29 8c 3e
       0.14630851 0.077770025 0.2438635 0.27375603
000220 04 7f 16 3d ef 61 85 3d 35 07 50 bd ef 1a 89 3e
       0.036742225 0.0651282 -0.050788123 0.2677836
000230 c3 d7 5a 3e db 80 cf bd 1f 1a 33 3d 26 77 23 3e
       0.21371369 -0.10131999 0.043726083 0.1596342
000240 65 ec e7 3d 10 81 62 3e ec a2 81 3d f5 9d 52 3e
       0.113243856 0.22119546 0.06329903 0.20568068
000250 4c 07 8c 3d 8c b7 29 3e be 74 c3 3c 21 60 27 3e
       0.06837329 0.16573924 0.023859378 0.16345264
000260 02 5c d0 3d e0 c7 2b 3e a6 8d e9 bb ef 6c 8f 3d
       0.10173799 0.16775465 -0.0071274815 0.07003199
000270 0c b2 d9 3d c6 42 08 be 70 91 c7 3d b2 1a 36 ba
       0.10629663 -0.13306722 0.09744537 -0.0006946727
000280 f0 cb 0f 3e 8d f4 84 3c 75 fd 91 3d 0c 7f 9f 3c
       0.1404264 0.016229892 0.07128421 0.01946976
000290 2d 4d 2b 3e e0 79 82 3e ec 6d 42 3e 80 4c c2 3d
       0.16728659 0.25483608 0.18987244 0.094872475
0002a0 3e 58 4c 3e dc c1 d7 39 d0 56 18 3e e1 30 00 3e
       0.19955537 0.00041152432 0.14876866 0.12518646
0002b0 c9 99 90 3d c3 ed 07 3e ca a0 cb 3d 4a 61 a7 3d
       0.07060582 0.13274293 0.099427775 0.08172853
0002c0 ad 1a 96 be d1 f4 26 3e 93 08 58 3e d2 83 60 be
       -0.29317227 0.16304328 0.21097021 -0.21925285
0002d0 1e c4 c9 bd 52 e1 09 3e 1f 30 29 3e 69 9b 5c 3e
       -0.098518595 0.13464859 0.16522263 0.2154366
0002e0 1c 37 46 3e 10 0c 66 3e 4f ce c9 3d 52 b2 57 be
       0.1935696 0.22465539 0.09853803 -0.21064118
0002f0 78 ec d6 3c 5c 50 10 be 76 b7 16 3e 67 96 e1 3d
       0.026235804 -0.14093155 0.14718422 0.11015015
000300 fa c2 89 3d 85 86 9d bd e3 60 94 3e 28 7b 00 be
       0.06726642 -0.07691673 0.2898017 -0.1254698
000310 9a e6 53 be fa 98 87 3e 3e 94 2e be f6 60 97 3e
       -0.20693436 0.264839 -0.17048737 0.29566163
000320 2a 8b 50 3d 65 1b 01 3e d3 0f 54 3a 8a 72 8e 3d
       0.050913967 0.12608106 0.0008089516 0.0695544
000330 75 60 f6 3d 64 80 a9 3d 8e 1a f8 3d 10 7a ac 3d
       0.120301165 0.08276442 0.1211444 0.08421719
000340 c9 16 c1 bd 51 9e 93 bd 15 7d 62 bc 18 90 3c bb
       -0.09428174 -0.07207931 -0.013823767 -0.002877241
000350 7f 6d 6a 3e f8 fc d4 3d 86 5a 19 3e 68 a0 6f 3e
       0.22893332 0.103998125 0.14975938 0.23401034
000360 4f 90 ad 3d 3a e5 4f 3e 37 69 14 bd cf 87 76 3d
       0.0847479 0.20302287 -0.036233153 0.06018811
000370 c9 88 7a 3e ec 34 17 3d 6e bc 91 3d 83 0e 96 3e
       0.24466242 0.036915705 0.07116018 0.29307947
000380 bc f9 fb 3d 23 36 1e 3e 04 4f 5b 3e e3 02 9c 3d
       0.123034924 0.15450339 0.21416861 0.07617738
000390 a9 da 50 3e b2 4a 75 3e a2 9e a2 bd 7a 2d 7e bd
       0.20395912 0.23954275 -0.07940413 -0.06205509
0003a0 24 86 1f 3d 93 e0 66 3e 19 56 29 be 5a 31 39 3e
       0.038946286 0.22546606 -0.1653675 0.18085232
0003b0 d9 64 37 3e a3 c6 c9 bc 94 77 71 3c 57 6d 6a 3e
       0.17909564 -0.02463085 0.014737982 0.22893272
0003c0 0e a9 84 bc ec a3 56 bc 23 5d 11 be 08 2a 59 be
       -0.016193893 -0.013100605 -0.14195685 -0.2120744
0003d0 34 1e 13 bc 18 9e a5 bd bc 2d 81 bd 0c dd e2 bb
       -0.008979369 -0.080867946 -0.06307551 -0.0069233235
0003e0 a2 4a 54 be 63 38 55 be 08 84 2a be 95 eb 99 bd
       -0.20731595 -0.20822291 -0.16651928 -0.07515637
0003f0 a0 4f 24 3c dc 23 e0 bd c3 fa d0 bc 0a 9c 04 be
       0.01002875 -0.1094434 -0.025510198 -0.12950149

bias f4 [27]
000000 51 66 8c bd b7 e0 54 3d 7d 10 a2 bd 11 8e 6d 3c
       -0.06855453 0.051972117 -0.07913301 0.014499203
000010 ab 55 ac 3c 67 c4 42 3e b2 df e7 bd dd e8 6a 3d
       0.021036943 0.19020234 -0.11321963 0.057350982
000020 52 03 62 bd 84 fe 80 be 0f a2 e7 3d 76 a1 e4 bd
       -0.055178948 -0.2519418 0.11310207 -0.11163609
000030 e0 6d 03 be da 5f bc bd 9c 86 36 be b1 a7 7d be
       -0.12834883 -0.0919797 -0.17824787 -0.24771
000040 d2 5c e4 bd 82 61 34 bc a3 5a 83 be f9 e4 19 bc
       -0.111505166 -0.011009576 -0.25655088 -0.00939297
000050 e1 24 05 bd 1f cf c5 bd 0e a3 96 be 5f 1d 55 be
       -0.032505874 -0.09658646 -0.29421276 -0.20811985
000060 79 71 ca bd ba 0d 99 be 25 96 a4 bd
       -0.098849244 -0.29893285 -0.0803645
