models_m3/model_agg_num_8.pt (torch, 41423 bytes, 4 tensors)

weight f4 [46, 91]
000000 5c 75 7d be c3 5e 5f bd 58 2c 8c bd 2f ad 41 be
       -0.247518 -0.05453373 -0.068443954 -0.1891372
000010 5c 96 2a be e7 d5 34 be 87 5f 90 bd 2b 70 77 be
       -0.1665892 -0.17659722 -0.070494704 -0.24163882
000020 74 4f 53 3e 13 8d 64 be 65 b3 50 be f0 96 52 bd
       0.20635778 -0.2231944 -0.20380934 -0.051413476
000030 83 ad 96 bd 6a b5 0f be 86 f0 66 be d3 31 45 bd
       -0.073573135 -0.14034048 -0.2255269 -0.04814322
000040 f1 e0 74 be c0 34 06 be 5e 96 23 be 4c d6 67 be
       -0.23913933 -0.1310606 -0.1597533 -0.22640342
000050 f5 a7 f4 bd 4f 16 67 be 79 08 96 bd d7 fc dc bd
       -0.11946098 -0.22567104 -0.07325835 -0.10790413
000060 06 2c 1d be 96 28 db bb 93 f5 5c be 3c 51 5f bd
       -0.15348825 -0.006688188 -0.21578054 -0.05452083
000070 74 26 23 bd 31 71 31 3e 89 c3 4e be d4 16 ff bd
       -0.039831594 0.17328335 -0.20191778 -0.12455526
000080 d3 3b 4e be 79 6a eb bd 3a 78 8e bd 10 0c 6d be
       -0.20140009 -0.114949174 -0.06956525 -0.23149133
000090 10 fa e3 bd b8 73 5b be f8 27 69 bd fe aa e4 bd
       -0.1113168 -0.21430862 -0.056922883 -0.11165427
0000a0 64 b3 b2 bd 17 4b 68 be b3 9e ac bd 0a 1e c3 bd
       -0.08725622 -0.22684895 -0.08428707 -0.09527214
0000b0 87 3a cf 3d 5d 9a 4f bd cb b5 3b be 88 23 0c be
       0.10118585 -0.05068432 -0.18331067 -0.13685429
0000c0 9a 5a 75 be f6 42 4c be 49 4c 80 bd 2c 13 0f be
       -0.23960343 -0.19947419 -0.0626455 -0.13972157
0000d0 7f a7 db bd 5a 39 08 3e 95 96 7d be 7c 4b 7a bd
       -0.10725307 0.13303128 -0.24764474 -0.061107144
0000e0 0e c6 36 be c3 60 42 be c0 b0 79 be 77 48 62 be
       -0.1784899 -0.18982224 -0.24383831 -0.22097956
0000f0 92 9d 2b be fa 8b 17 be da e2 10 be d9 52 61 be
       -0.16759327 -0.1479949 -0.14149037 -0.2200426
000100 c6 b3 4d be 55 b7 82 bd 0e 13 55 be 0c b7 7c be
       -0.2008811 -0.06382624 -0.2080805 -0.24679202
000110 59 2d 7a be 26 25 f7 bd ad e9 a9 bd ef 70 30 bd
       -0.24431361 -0.120676324 -0.08296523 -0.043076452
000120 3b 88 29 be 59 19 7a be 75 92 57 3e c5 d4 55 bd
       -0.16555874 -0.24423732 0.21051963 -0.052204866
000130 ef 7f 70 be da a5 26 be 91 c6 d5 bd 29 b4 0d be
       -0.23486303 -0.16274205 -0.10438264 -0.13838257
000140 8c 8e 45 be fb 01 28 be 1f b3 f5 bd 01 ec df bd
       -0.19292659 -0.16407005 -0.11997055 -0.10933686
000150 d3 1c 52 bd 32 9c 0c be a3 42 55 be 5d 27 9c bd
       -0.05129702 -0.13731459 -0.20826201 -0.076246955
000160 2b 84 29 be 51 11 ab 3d d5 b2 61 be ec 0f 35 be
       -0.16554324 0.08352912 -0.22040875 -0.17681855
000170 86 e2 1c be db 98 23 be 10 95 3d be 34 32 d2 bd
       -0.15320787 -0.15976278 -0.18513894 -0.10263482
000180 76 c4 cf bd 30 ca 3a bd ad c9 55 bd 76 d9 a6 bd
       -0.10144894 -0.045602977 -0.052194286 -0.08146946
000190 04 5d 33 be 23 0d 21 be 63 99 f3 bc 24 71 c6 bd
       -0.17515951 -0.15727668 -0.029736226 -0.096895486
0001a0 65 76 f6 bd d0 df 02 3d b9 16 e5 bc 8f 52 85 bd
       -0.12034301 0.031951725 -0.027964937 -0.065098874
0001b0 ab 44 65 3e 73 73 70 3d 2a f1 b0 3d ba 07 1b 3e
       0.22389476 0.05870385 0.086397484 0.15139666
0001c0 a0 11 82 3d 4e a5 3c 3e 04 fa fa 3d ad 5b bc bd
       0.06351018 0.18422434 0.12254718 -0.09197173
0001d0 17 b8 1a 3e 0a 8d 4d bc 3d 10 b4 bc c0 b2 41 3d
       0.15109287 -0.012545833 -0.0219804 0.04728961
0001e0 da 32 0e be 8c 0f 44 be b7 09 40 3d be a0 26 3d
       -0.13886586 -0.19146556 0.046884265 0.04068064
0001f0 da 35 16 3e 6a b1 01 3e 11 a5 b2 3d f5 f6 7d 3e
       0.1466898 0.12665334 0.0872289 0.24801238
000200 e1 e2 fd 3d e4 bf 9c 3d 38 83 08 be 5c f4 35 3e
       0.12396789 0.07653788 -0.13331306 0.17768997
000210 20 b0 99 3d 42 a2 21 bd 78 50 3e 3e 24 f5 5a be
       0.07504296 -0.03946138 0.18585384 -0.21382576
000220 ff 16 4d be 6a bb 63 bd 30 c6 f9 bd 59 c5 63 be
       -0.20028304 -0.055598654 -0.121960044 -0.22243251
000230 27 0f 1a be 26 f4 c7 bd 4a 2d 61 bd e0 16 8e bd
       -0.15044843 -0.097633645 -0.05497483 -0.06937957
000240 d8 3b 1e be 4e 98 26 3c 74 2a 04 be 54 1e 33 bd
       -0.15452516 0.010168148 -0.1290682 -0.043730095
000250 58 57 ca bd 09 85 d2 bd ee ea a3 3d 79 37 c7 bd
       -0.09879941 -0.10279281 0.08003794 -0.097273774
000260 02 0b df bd e0 b0 da bd a6 05 50 3e 2f 41 a1 3b
       -0.108907714 -0.106782675 0.20314655 0.0049211006
000270 04 bc 25 3e 72 fb 1e bd d3 9d 7b 3d 78 17 de 3d
       0.16185004 -0.038814016 0.06142981 0.1084432
000280 b7 ea 13 be 02 18 73 3e ad cb 8a bd 12 f1 31 be
       -0.14445005 0.23739627 -0.06777129 -0.17377117
000290 af c2 de 3d f8 b6 5e be 50 b5 61 bd b6 66 46 3e
       0.10876977 -0.21749485 -0.055104554 0.19375119
0002a0 bf 65 89 3d 3e 85 3e 3e 96 8e 43 3d 75 00 3c 3e
       0.0670886 0.18605515 0.047743402 0.1835955
0002b0 58 a3 4e 3e b0 c9 cf 3d 17 75 21 3d 06 f4 c1 bd
       0.20179498 0.10145891 0.039418306 -0.09470372
0002c0 c2 23 0c 3e 16 6e 48 3e 8d b8 40 bd c0 5a eb 3d
       0.13685516 0.19573244 -0.047051 0.114919186
0002d0 f9 37 80 bd b4 86 51 3e 7a 36 af bd 71 e2 cf bc
       -0.06260676 0.20461541 -0.085553125 -0.02537653
0002e0 8d ca 58 be df a3 a3 bd 31 f7 41 3d 95 f2 5a bd
       -0.21171017 -0.0799024 0.04735488 -0.053454
0002f0 04 ee e2 bd c2 ce a9 bd b4 15 da bd ee 06 c7 bd
       -0.11080554 -0.08291389 -0.10648671 -0.097181186
000300 34 91 de bd b8 8d 4a be 98 75 a7 bd bd c3 0f be
       -0.10867539 -0.19780624 -0.08176726 -0.14039512
000310 36 75 61 be 1f 58 c5 bd bd a3 53 bd e8 6b 4d be
       -0.22017369 -0.096359484 -0.051669825 -0.20060694
000320 c2 49 2c 3c 3a 23 80 bd 0f 12 44 3e 73 12 59 bd
       0.010515632 -0.06256719 0.19147514 -0.05299611
000330 9b e0 f5 3d c0 e0 29 3e a3 88 bc bd 1c 4d 0a be
       0.12005731 0.16589642 -0.09205749 -0.13505977
000340 ca 5f 62 be a8 78 58 be 19 82 c5 3d 5c 1b 72 bd
       -0.22106853 -0.21139777 0.09643955 -0.059108123
000350 65 31 25 be c6 21 2e be 09 f6 d8 bd e7 59 17 3e
       -0.16132124 -0.17005071 -0.105938025 0.14780389
000360 b5 7d dd bd 90 21 27 3e 0b 56 e3 bd 3b 51 dd 3d
       -0.10814992 0.16321397 -0.11100396 0.10806509
000370 bf 0d 10 3e 88 3b 50 be e3 30 2b be 1b c7 3b be
       0.14067744 -0.2033521 -0.16717868 -0.18337671
000380 07 42 18 be cd ec 2f 3d fb cc 2b be 09 9e f1 bd
       -0.14868937 0.04295044 -0.16777413 -0.11797721
000390 a1 6f 2b be 38 38 7d bd 00 88 c5 bd 2d 93 96 bd
       -0.16741802 -0.061821193 -0.096450806 -0.0735229
0003a0 eb 6d 3f be 51 3b 18 be db 7e 6e bd 11 a3 59 be
       -0.18694274 -0.14866377 -0.058226448 -0.21253611
0003b0 7a c1 21 be 68 32 fa bd f5 b0 03 be dc 9e fa bd
       -0.15796462 -0.122166455 -0.12860473 -0.12237331
0003c0 c2 d0 90 bd be b7 16 be 26 f2 48 be 2d f8 5f be
       -0.070710674 -0.1471853 -0.19623622 -0.21872015
0003d0 7e 9e bf bd a1 60 30 be d2 23 51 be d4 1f ce bd
       -0.09356402 -0.17224361 -0.2042382 -0.100646645
0003e0 03 b7 58 bd da 98 51 3e d0 e8 b7 bd ef 0d 84 bd
       -0.05290891 0.20468464 -0.08979952 -0.0644797
0003f0 7c ba 57 bc 83 bb 46 be 95 df 6d be d6 fc 95 3d
       -0.01316702 -0.19407468 -0.23229821 0.07323615

bias f4 [46]
000000 1f 55 68 3d 3a e1 06 3e 57 27 01 3e aa 76 33 3e
       0.056721803 0.13171855 0.12612663 0.17525735
000010 80 47 21 3e 12 76 8e 3b 62 d3 89 3d 6d ff f2 3d
       0.15749931 0.004347571 0.06729771 0.11865125
000020 44 cb 16 3e b7 60 00 3e e7 43 18 3e 00 a6 01 3e
       0.14725977 0.12536894 0.14869653 0.1266098
000030 81 2a 57 3e 36 ea c0 3d d9 38 11 bd b3 d4 1a 3c
       0.21012308 0.09419672 -0.035454605 0.0094501255
000040 62 59 30 be 5b 28 cc 3c 65 a4 a0 3d d8 18 44 3e
       -0.17221597 0.024921587 0.07843856 0.19150102
000050 18 d1 1d 3e a7 b7 71 3e 64 e2 53 3e 43 e9 d4 3d
       0.15411794 0.23605214 0.2069183 0.10396054
000060 3d cc 19 3e 19 e4 44 3e 94 6b af 3d b8 12 68 3e
       0.15019317 0.19227637 0.08565441 0.2266339
000070 c9 e0 85 3d 72 78 03 3e 69 93 dd 3d a8 23 09 3e
       0.06537015 0.12838915 0.10819132 0.13392508
000080 b0 b8 64 3d 0f 11 2b 3e 36 39 c7 3d 68 04 67 3e
       0.055840194 0.16705726 0.09727709 0.22560275
000090 82 75 ff 3c 34 2f e4 3d f4 52 36 3e d5 f8 02 3e
       0.031183962 0.11141816 0.17805082 0.12790234
0000a0 15 fc 57 3e f1 b0 4c 3d 0b 6a 43 3e 44 18 6e 3e
       0.21092255 0.049973432 0.19083421 0.23251444
0000b0 c6 d2 c9 3d 28 e5 5b 3e
       0.09854655 0.21474135

weight f4 [31, 46]
000000 ca a7 30 bc ac ca 23 3d 45 a7 ba 3d 3f e2 ac 3d
       -0.0107821915 0.039988205 0.091139354 0.084415905
000010 7f d6 49 3e 8f cc 49 3e 3f 8d 99 bd 6e b3 52 3e
       0.1971073 0.19706939 -0.07497644 0.2057626
000020 72 21 4d 3d 3e 81 5a 3d f4 45 62 3e 94 23 ab 3d
       0.050080724 0.05334591 0.22096997 0.08356395
000030 50 76 5f 3e 1b ad 94 3e 67 eb 8b 3e 4b 6d 5c 3e
       0.21822476 0.2903832 0.27328035 0.21526067
000040 c2 bd a4 3d 47 b5 83 3c ff 8f 44 3d f4 0f 47 3e
       0.08044006 0.01607765 0.047988888 0.1943968
000050 df ff 72 3e 9d 58 21 3e 98 65 53 3e 5a f7 59 3e
       0.2373042 0.1575646 0.20644224 0.21285763
000060 34 72 8a 3e e7 b1 c8 3b 56 11 77 3d 57 59 87 3e
       0.27040255 0.0061247232 0.060319267 0.26435348
000070 26 63 d3 3d 5a f5 9e 3d 54 36 d4 3c cc de 37 3c
       0.103216454 0.07761641 0.025904812 0.0112225525
000080 1b a0 15 3e de 71 1c 3e 4c 40 48 3e 4a 38 85 3e
       0.14611857 0.15277812 0.19555777 0.26019508
000090 fd 5b 7b 3e cd f2 ba 3d 28 99 51 3e ee 69 5d 3e
       0.2454681 0.09128342 0.2046858 0.2162244
0000a0 2b d8 8e 3e 46 1a 47 3e 12 46 08 3e 8f ec 51 3e
       0.27899298 0.19443616 0.1330798 0.20500396
0000b0 33 c2 16 3d bd 70 b4 3d ae 1c 09 3e 59 c8 cb bd
       0.036806297 0.088105656 0.13389847 -0.09950323
0000c0 c1 32 7b be 45 e6 54 be da 50 4f 3c cc b0 f6 bd
       -0.2453108 -0.20790966 0.012653554 -0.1204544
0000d0 dc 76 45 bc 94 71 a9 3c 7e 13 02 3e 53 db 0a bc
       -0.012052264 0.020684041 0.12702748 -0.0084751425
0000e0 75 ce 6f be 4d 37 ad 3c 00 2a 6f be b4 82 ab bc
       -0.23418601 0.021144534 -0.23355865 -0.020936348
0000f0 52 c9 49 bd e3 3a 69 be 5d b0 74 3e 73 16 36 be
       -0.04926426 -0.2277637 0.23895402 -0.17782001
000100 58 02 76 3b ac 22 ec 3b de cd 12 be 48 78 63 3d
       0.0037538018 0.0072062816 -0.14336345 0.05553463
000110 04 39 8b be 8a b7 70 3e 76 a5 bd bd b8 35 84 be
       -0.27191937 0.23507515 -0.09260075 -0.25822234
000120 05 ef 65 3d e1 8a 5c bd aa 72 42 3d d6 c5 93 be
       0.05613615 -0.053843383 0.047472633 -0.28861874
000130 92 c5 39 3d 24 80 c6 3d 61 14 e5 3d cb b8 0b be
       0.045354433 0.0969241 0.111855276 -0.13644712
000140 f7 9d 4c 3e b0 21 38 3e 26 22 16 be cc 76 b9 bc
       0.19982134 0.17981601 -0.14661464 -0.022639655
000150 e3 65 ce bd d6 0d 00 bd f9 53 b5 bd 38 a2 ac 3d
       -0.10078027 -0.031263195 -0.08853907 0.08429378
000160 8e 30 6b be eb 5d 9f 3d c6 bb aa 3d 8c 6a 08 3b
       -0.22967741 0.07781585 0.08336596 0.002081546
000170 4b 52 d3 3d 1d 58 91 3d 49 d1 bc 3d d9 11 08 be
       0.103184305 0.070968844 0.092196055 -0.13288058
000180 64 7b 36 bc c7 4e e7 3c 9d a0 ee bd 4b 90 61 bd
       -0.011137817 0.028235806 -0.11651728 -0.05506925
000190 a0 20 be 3d d2 12 8b 3d 87 87 09 3e 86 3c 6b 3d
       0.092835665 0.06790699 0.13430606 0.057430767
0001a0 3f ab 6d 3e ad b0 12 3c 9b a2 3a be 5e 8e a0 3d
       0.23209856 0.008953256 -0.18226092 0.078396544
0001b0 30 6d ae 3d f8 47 06 bd c7 ad 3b be ca d8 b6 3d
       0.085169196 -0.03278348 -0.1832801 0.08928068
0001c0 44 69 aa 39 7b 33 d6 3d 5d 97 bf bc 70 43 63 bd
       0.00032503356 0.10459038 -0.023387605 -0.055484235
0001d0 09 65 98 bd 2c e0 51 3b 0f 5e d0 bd f3 18 d1 bc
       -0.07441146 0.0032024486 -0.1017419 -0.025524592
0001e0 15 af 41 3a d5 c6 3b 3e 11 a3 60 3d b8 ea 12 3e
       0.0007388455 0.18337567 0.054843012 0.1434735
0001f0 54 bd f5 bb 9f 3b f2 bd 27 45 27 bd 71 d5 71 bd
       -0.0074993763 -0.11827778 -0.040837433 -0.059041444
000200 fe 22 a5 3d cb 87 2e 3d 1b 09 f0 bd ff 9d dc bd
       0.08063315 0.04260997 -0.11720487 -0.10772323
000210 d3 f4 e0 bd 9a 56 b0 bc fc 05 88 3d bc d3 f7 bd
       -0.109841965 -0.02152567 0.066417664 -0.12100932
000220 41 6e a1 3c b9 2e 8f bc ba 1a a7 bc 7a ba 1c 3e
       0.019705893 -0.017478334 -0.020398486 0.1530551
000230 ab fc f0 3c a9 88 cf 3d df 5b 13 be 99 d6 63 bd
       0.029417356 0.10133488 -0.14390515 -0.05562458
000240 ee 0a a2 3d 98 c9 48 3d a1 12 0e be 16 f3 19 3e
       0.07912241 0.04902038 -0.13874294 0.15034136
000250 76 90 1d 3e 2b 02 21 bd d2 44 03 3e cc 79 8a 3d
       0.15387139 -0.03930871 0.12819222 0.06761512
000260 07 ef 8f 3a 8a c0 38 3e f2 fa 69 3e 04 e8 77 3e
       0.001098127 0.18042198 0.22849634 0.242096
000270 af cb 04 3c fb a9 86 bd d2 a1 a8 3d 55 b0 0e 3e
       0.008105203 -0.0657539 0.0823399 0.13934453
000280 22 ff bc 3d 17 48 c7 3c c0 bb 34 3e 9d 84 2e 3e
       0.0922835 0.024326367 0.17649746 0.17042775
000290 ec 5c 40 3e 17 d6 ad 3d 10 10 85 3c f7 9e da 3d
       0.18785447 0.084881 0.01624301 0.106748514
0002a0 df 97 19 3c 75 ba ce 3c 96 b7 12 3d b8 3a 86 3e
       0.009374588 0.025235394 0.035819612 0.26216674
0002b0 0a 6d 22 be 1a 75 15 3c 5d 80 71 3e e8 11 26 be
       -0.15861908 0.0091221575 0.23584123 -0.16217768
0002c0 b8 c9 43 3e 11 15 06 be fd 11 a0 3c ee 90 d2 3c
       0.19119918 -0.13093974 0.019539827 0.025703873
0002d0 4d 42 ac 3d ac ac f4 bc 69 2f 71 bd 63 33 3e 3e
       0.08411083 -0.029867493 -0.058883104 0.1857429
0002e0 2f a3 47 be f4 c4 5f be 0e e8 3b be 73 30 54 be
       -0.19495843 -0.21852475 -0.1835024 -0.20721607
0002f0 a5 07 48 be b6 32 9d bd 3e 32 84 bd 06 69 dc bd
       -0.19534166 -0.07675688 -0.064548954 -0.10762219
000300 68 b4 56 be 1e b5 65 be b4 da 2d be fa fa 53 be
       -0.20967257 -0.22432372 -0.1697796 -0.20701209
000310 27 20 94 be d0 51 5b be 95 da 52 bc 51 4a 8d bd
       -0.2893078 -0.21417928 -0.012869497 -0.0689894
000320 21 5d 12 be 7e 20 85 bd 56 27 12 be 85 5d 2d be
       -0.14293338 -0.06500338 -0.14272818 -0.16930206
000330 b1 05 95 be cf 7c 41 be 0b c9 3b be 34 7d 3f bc
       -0.29105905 -0.18895267 -0.1833841 -0.011687566
000340 3e 3d 8d bd f7 46 de bd 45 76 86 bd 11 61 bc bc
       -0.06896447 -0.10853379 -0.06565527 -0.022995504
000350 26 f9 59 be f1 9b 8e be c6 d5 37 be 6d 77 98 bc
       -0.21286449 -0.2785335 -0.17952642 -0.018611634
000360 2d 33 aa bd 8e f9 53 be fe 42 92 be 15 26 47 be
       -0.08310542 -0.20700666 -0.28566736 -0.19448121
000370 10 c5 5c be 1a ad 62 be 9f 90 2c be 43 64 44 bd
       -0.21559548 -0.22136346 -0.16852044 -0.04794718
000380 4d 03 94 bc 08 dd 54 be 45 ca c4 bd 2a 58 6f be
       -0.01806798 -0.20787442 -0.09608892 -0.23373476
000390 a2 5b 07 be 32 68 5f be 9e 8a 62 3d 6e 9f c7 bd
       -0.13218549 -0.21817091 0.055307977 -0.09747206
0003a0 fc 2a 81 be e4 60 10 3d 00 03 ad bd 95 02 c0 3d
       -0.25228107 0.035248652 -0.08447838 0.093754925
0003b0 c9 ed f3 3d d5 00 da 3c 33 e5 dd bd b6 81 32 be
       0.11910588 0.026611725 -0.10834732 -0.17432293
0003c0 ea 59 0f be 9a f5 99 bd d6 f4 f0 bd 43 86 70 be
       -0.13999143 -0.07517548 -0.11765449 -0.23488717
0003d0 85 a9 25 be ac c9 4a be e9 92 76 be ca d2 4e be
       -0.16177948 -0.19803494 -0.2407948 -0.20197597
0003e0 23 e8 10 be c0 fe fa bd a4 d0 62 be 67 d1 0d be
       -0.14151053 -0.12255621 -0.22149903 -0.13849412
0003f0 a0 24 25 be 7b 71 87 3d 18 34 31 be 67 0d 84 bd
       -0.16127253 0.066134416 -0.17305028 -0.06447869

bias f4 [31]
000000 d2 7c 8b 3d 10 57 5d bd ab 7b 0b 3e ec 62 15 3d
       0.06810917 -0.054038107 0.13621394 0.036471292
000010 d9 97 41 be 80 1c 91 be 9b 72 3d be 66 59 92 3e
       -0.18905582 -0.28342056 -0.1850075 0.2858383
000020 2a 9f 90 bd 75 91 01 3e 36 12 eb 3d b9 cf 8d bd
       -0.07061608 0.12653144 0.11478083 -0.069243856
000030 69 03 96 3d be 5f cb bb 89 fb 64 be 8f db 52 be
       0.07324869 -0.0062064817 -0.22361578 -0.20591567
000040 9d 62 28 bd 51 74 61 be b2 ac a9 bc 28 f8 7d bd
       -0.04110967 -0.22017027 -0.02071223 -0.06200424
000050 0b 93 f7 bd 99 ee 62 be 7b 3f 94 be 6a 9d 4d be
       -0.12088593 -0.2216133 -0.28954682 -0.2007958
000060 b8 ec 73 3d 08 18 7b be c2 fe 55 bd 93 40 1a be
       0.059551924 -0.24520886 -0.05224491 -0.15063696
000070 51 b2 83 be ad f5 8c be e1 32 96 bb
       -0.25721982 -0.27531186 -0.004583702
