models_m3/model_agg_num_5.pt (torch, 51855 bytes, 4 tensors)

weight f4 [51, 91]
000000 e9 4a ae bd 8b 13 c3 bd 6f 83 aa bd d1 dc ec bd
       -0.08510382 -0.09525212 -0.0832585 -0.11565555
000010 be ff 3a be 19 23 ce bd 65 df 45 be f5 e1 ac bd
       -0.1826162 -0.10065288 -0.193235 -0.084415354
000020 8c 3b 3c bd 2f c4 69 bd bb e0 60 be 5c e2 70 bd
       -0.045955226 -0.05707186 -0.21960728 -0.058809623
000030 a1 3e fa bd 44 bf ef bd 7b c4 2f bd e3 20 ee bd
       -0.12218977 -0.11706403 -0.042911988 -0.116273664
000040 dd ed 34 be ac b5 ec bc 75 68 ef 3d 1e 4a f3 3d
       -0.17668863 -0.028895222 0.116898455 0.11879371
000050 fe 4c d0 3d 2c fb 7c 3e 2e 99 46 3e 02 06 02 3e
       0.10170935 0.2470519 0.19394371 0.12697604
000060 50 5a 15 be ec c8 0b be 67 4f 52 be 66 d2 31 3e
       -0.14585233 -0.13650864 -0.20538102 0.17365417
000070 70 7c f6 bc 50 56 0e 3e 07 43 27 be 42 86 3e be
       -0.030088633 0.13900113 -0.16334163 -0.18605903
000080 22 0f c2 3d ca 50 31 3e 24 f2 46 3e 95 4d 99 3d
       0.094755426 0.17315975 0.19428307 0.07485501
000090 78 65 24 3e a0 0c 30 3e eb f3 4a 3e f6 ce 32 be
       0.16054332 0.17192316 0.1981961 -0.17461762
0000a0 41 3d 28 be c6 01 6a be ea 88 54 3e 94 96 5a 3e
       -0.16429617 -0.22852239 0.20755354 0.21346503
0000b0 28 a2 45 3e 97 bd b9 bd 00 39 a6 bd e9 f9 38 bd
       0.19300139 -0.090693645 -0.08116341 -0.045160208
0000c0 3d 7a e0 bd b5 49 d9 bd dc 34 e3 bd 58 ed 4f be
       -0.10960815 -0.106097616 -0.110940665 -0.20305383
0000d0 f7 d7 0f 3d de 16 e6 bd 32 c0 68 be 5e 19 33 be
       0.03511807 -0.1123483 -0.22729567 -0.17490146
0000e0 d5 8f 55 be 2f e2 57 be fd 98 91 bd cf cf 7b bd
       -0.20855649 -0.21082376 -0.07109258 -0.06147748
0000f0 e6 0b 22 be 1b d0 e4 bd 34 68 2c be 42 2c 2a 3e
       -0.15824851 -0.111725055 -0.16836625 0.16618446
000100 c3 73 01 3e 39 35 b7 3d 54 94 cc 3d f2 f5 7d 3e
       0.12641816 0.08945698 0.09989229 0.24800852
000110 ca 74 25 3e 96 cf 4d be 00 28 07 be 3a 14 7e be
       0.16157833 -0.20098719 -0.13198853 -0.24812403
000120 36 41 90 bc e4 04 82 bd 2d bc 1f 3e 74 84 f3 bd
       -0.01760922 -0.06348589 0.15599127 -0.11890498
000130 aa dd 77 be 3c ba 0b be 57 36 af 3d ab 56 89 3d
       -0.24205652 -0.13645262 0.085552864 0.06705984
000140 f2 53 c2 3d bb b6 5b 3e 33 19 32 3e 63 63 45 3e
       0.094886675 0.21456425 0.17392425 0.19276194
000150 dc 3b 77 be db 04 9e bd 21 ae 2a be 62 b8 29 3e
       -0.24143928 -0.0771577 -0.16667987 0.16574243
000160 27 67 55 3e 42 65 41 3d d7 f9 31 3e 1e 1e 74 be
       0.20840131 0.047215708 0.17380463 -0.23839614
000170 1c cc 87 bd b0 a2 e7 bd 39 da 06 be 6d 82 3d be
       -0.06630728 -0.11310327 -0.13169183 -0.18506785
000180 30 51 ca bd d5 95 45 be 86 48 fd bd 8c 82 64 bd
       -0.098787665 -0.19295438 -0.123673484 -0.05578856
000190 0d 18 62 be 21 b3 31 be 8a 73 f4 bd e4 a9 00 be
       -0.22079487 -0.17353489 -0.119361 -0.12564808
0001a0 9f d7 11 be 16 0a 5c bd a8 22 2f be 0a ef 8a bd
       -0.14242409 -0.053720556 -0.17103064 -0.06783874
0001b0 ea 5a b5 bd c1 34 ed bd a3 1a 86 bc 6c ea 62 bc
       -0.08855231 -0.11582328 -0.016370123 -0.013849836
0001c0 82 ae 2f bd 46 c2 f0 bd e6 07 d3 bb 0f 5d 50 be
       -0.042891033 -0.11755805 -0.0064401506 -0.20347999
0001d0 47 4c e4 bd 2d 78 fb bd 34 ee 7a bd 9f 80 68 be
       -0.11147361 -0.12278781 -0.061262324 -0.22705315
0001e0 5a 80 00 be 2c f3 50 be fb 2f b5 bd 17 52 58 bd
       -0.12548962 -0.20405263 -0.08847042 -0.052812662
0001f0 d0 68 4b be 56 b7 e4 bd 2a 06 88 bd 00 48 62 bd
       -0.19864202 -0.11167781 -0.06641801 -0.055244446
000200 d1 21 c3 3c d7 18 6a bd bf aa fd bd 29 13 b4 bd
       0.023819836 -0.057152595 -0.12386083 -0.08792717
000210 78 54 78 be b4 6b 97 bd 8e cd 1f be a9 43 ad bd
       -0.24250972 -0.073935896 -0.15605757 -0.08460171
000220 24 2d e9 bd 9e f2 18 be 1b 98 8f bd 0e c9 50 be
       -0.11385563 -0.14936301 -0.07011434 -0.20389196
000230 12 8a e9 bd 9e ce bf bd 64 75 36 be 16 b7 d8 bd
       -0.11403288 -0.09365581 -0.17818218 -0.10581796
000240 c5 b0 7c be 3f d2 48 be b4 2c be bd 79 f3 b7 bd
       -0.24676807 -0.19611453 -0.0928587 -0.089819856
000250 ed 6c 75 be a5 59 dc bd 2a 38 09 be 12 82 2a bd
       -0.23967333 -0.10759286 -0.13400331 -0.04162795
000260 22 5c 7b be 76 e8 2c be 7c f8 22 be 46 0e 27 be
       -0.24546865 -0.16885552 -0.15915102 -0.16314039
000270 de e0 f5 bd f2 7a 5b be 1a a8 8f bc 7a c4 25 be
       -0.12005781 -0.21433619 -0.017536212 -0.16188231
000280 ca 83 db bd a6 f6 51 be 72 a9 12 be e9 9e 5d be
       -0.10718496 -0.20504245 -0.14322451 -0.2164265
000290 26 c3 73 bd f7 e8 62 bd 54 a1 7b bd 39 e2 38 be
       -0.05951228 -0.055397954 -0.06143315 -0.18055047
0002a0 00 38 a1 bd 4f 84 6c be 46 5b c4 bd d2 8e 20 be
       -0.07872009 -0.23097347 -0.095877215 -0.15679482
0002b0 73 fc 6b be 74 22 4e be 61 75 77 be 23 46 fe bd
       -0.2304552 -0.2013033 -0.2416587 -0.12415721
0002c0 14 e4 39 be df 7e 44 be 96 af 34 bd d9 ea 33 be
       -0.18153411 -0.19189022 -0.044112764 -0.17570056
0002d0 60 86 de bd d7 fc 25 be a8 8f 7a bd b1 76 e6 bd
       -0.10865474 -0.16209732 -0.061172158 -0.11253107
0002e0 1e 9b 9e bd 27 70 ee bd ad a8 2a be 08 a3 51 bd
       -0.0774443 -0.11642485 -0.16665907 -0.05118087
0002f0 66 dd 1a be 65 50 53 be c8 b2 e3 bd fa 38 20 be
       -0.1512352 -0.20636137 -0.11118084 -0.15646735
000300 7c a2 62 be 35 36 05 be d5 16 2c be b7 e1 3d be
       -0.22132295 -0.1300896 -0.16805585 -0.18543135
000310 9e 64 46 be bc 5a 40 be 75 de 9a bd 94 0c 82 bd
       -0.1937432 -0.18784612 -0.075619616 -0.06350055
000320 88 09 7b 3e 91 fa a8 3d e6 ab c2 3d 76 ec 96 3d
       0.24515355 0.08250917 0.09505443 0.0736932
000330 06 54 0f 3e 2b e9 1a 3e 12 97 5c be 5d 74 c4 bd
       0.13996896 0.15128009 -0.21542004 -0.09592507
000340 8d ea 71 be 44 f5 bf 3d 3c 92 59 bc af 7e 08 3e
       -0.2362463 0.093729526 -0.013279494 0.13329576
000350 b3 46 39 be a2 f2 90 3d 28 50 5c 3d bc 3d 9a 3d
       -0.18093376 0.070775285 0.05378738 0.07531306
000360 43 d0 f0 3d a0 4b 62 3e 42 65 fe 3d 04 91 88 3d
       0.11758473 0.22099161 0.12421657 0.066682845
000370 6d a5 e1 3d a2 8c 0f be ea 37 27 be ca 81 5c be
       0.110178806 -0.14018491 -0.16329923 -0.21533886
000380 9d 56 a0 3d d3 45 30 3e 77 ea 5c 3e 64 5d dc bc
       0.0782902 0.17214136 0.21573816 -0.0269
000390 c4 59 1f be 32 e6 d3 bd 05 2b 68 be 1a 21 b4 bd
       -0.15561587 -0.10346641 -0.2267266 -0.08795376
0003a0 1c d7 32 bd bf bc b6 bd 8f 8f 3d be 60 0d 6f bd
       -0.043662176 -0.08922719 -0.18511795 -0.058362365
0003b0 b4 75 78 be 66 14 20 be 18 bc 2d be 91 ee 7d be
       -0.2426365 -0.15632781 -0.16966283 -0.24798037
0003c0 f5 48 50 be 89 49 61 be ea d1 ec bd ac 44 f7 bd
       -0.20340331 -0.22000708 -0.115634754 -0.12073645
0003d0 03 d1 c3 bd c9 8b f6 3d cc e6 6b 3e e0 8c 1f 3e
       -0.0956135 0.12038381 0.23037261 0.15581083
0003e0 4c 59 6c 3e 6a 8c 6a 3e 8c b5 61 3d ba 01 5b be
       0.23080939 0.22905126 0.055104777 -0.21387377
0003f0 68 4b a5 bd 4f 2c 37 bd b8 d5 36 be 80 74 11 be
       -0.08071023 -0.04471999 -0.17854965 -0.14204597

bias f4 [51]
000000 8e bb 3f 3e ea 11 4b 3e fe 0d 07 3e ec cd 6d 3d
       0.1872389 0.19831052 0.13188931 0.05805771
000010 f6 92 06 3e 2d 50 31 3e 1c 9e a3 bc 0a 3e 38 3e
       0.13141999 0.17315741 -0.019972853 0.17992416
000020 8f e1 ce 3d 82 68 37 3e 3d 52 8d bd 8d b9 48 3e
       0.10101616 0.1791096 -0.06900451 0.19602032
000030 7c 7b e5 3d 9f a7 3c 3e f3 aa 09 3e 34 57 bd 3c
       0.112051934 0.18423317 0.13444118 0.02311287
000040 39 61 28 3e 12 ed 72 3e 58 d9 19 3e 7d 67 71 3e
       0.16443338 0.23723248 0.15024316 0.23574634
000050 80 c2 f9 3d 5e 5a a7 3d 1e 77 3a 3e b6 9d a1 bd
       0.12195301 0.08171533 0.18209502 -0.07891409
000060 28 02 ce 3d 2c d9 ca 3d 69 b3 30 3e bd 50 fc 3c
       0.10059005 0.099047035 0.1725594 0.030800218
000070 51 83 19 3e 0a 51 14 3e 59 99 d6 3d c7 1a d0 3d
       0.149915 0.14484039 0.104784675 0.101613574
000080 d9 7f 9b 3d f9 e3 30 3e 1d 45 e6 3c 0e 8d fa 3d
       0.075927444 0.17274465 0.028109128 0.12233935
000090 bb 4e 19 3e 45 46 18 3e e7 fa fe bc 8b ff 28 3e
       0.1497144 0.14870556 -0.031125499 0.16503732
0000a0 40 85 b4 3d 2b dc b7 3d ec fa bc bd 93 38 7c 3d
       0.08814478 0.089775406 -0.09227547 0.06157739
0000b0 bc eb 21 3e 7c 51 22 3e 5f 72 6f 3e 7f d4 5c 3e
       0.15812582 0.15851396 0.23383473 0.21565436
0000c0 5e 6c 54 3e 03 eb 3c 3e 55 a7 5a 3e
       0.20744464 0.18449025 0.21352895

weight f4 [34, 51]
000000 a6 e3 18 3d 70 61 8c be 29 48 f6 3d 5b 41 04 3d
       0.037326477 -0.2741809 0.12025482 0.03228889
000010 dd 14 37 be 79 fe 3d be 83 d9 ab 3d 77 17 b1 3d
       -0.17879052 -0.18554105 0.083910964 0.08647054
000020 98 f8 78 ba b5 df 48 be 47 7f 60 be fe 08 78 3d
       -0.00094974926 -0.19616587 -0.21923552 0.06055545
000030 b9 60 6a be e3 76 72 be ca 3b 69 be 51 52 d3 bd
       -0.2288846 -0.23678164 -0.22776714 -0.10318435
000040 ec 10 f8 3d 5b f9 f7 bb c8 78 27 bd 0d 92 83 be
       0.121126026 -0.0075675673 -0.04088667 -0.25697365
000050 da d2 72 be 0f 3d 67 be cc 17 6f be 3d c1 79 bd
       -0.23713246 -0.22581886 -0.23348922 -0.060975302
000060 22 ca dc bd 75 62 42 be 9a da 19 be 10 24 d1 bd
       -0.10780741 -0.18982871 -0.15024796 -0.102119565
000070 f8 a7 0f be 45 f4 c7 bb 3a 04 9f 3d f4 27 8a be
       -0.14028919 -0.0061021172 0.07764478 -0.26983607
000080 8b 9b 59 bd 93 2e 18 be bc 83 ef bd b3 f8 c2 3d
       -0.053126853 -0.14861517 -0.11695048 0.09520092
000090 ac b5 e3 bd 91 dd 49 bd 2f a2 b0 bb 50 1e 14 3d
       -0.111186355 -0.049283568 -0.0053904275 0.03616172
0000a0 0e 1d 59 be d5 07 b0 3d d5 e9 eb bd 3c 9a 0c be
       -0.2120249 0.08595244 -0.11519209 -0.1373071
0000b0 d9 af 70 3d 9d 6e 50 bc 79 bc 4d bc 93 3c 1e be
       0.05876145 -0.012721685 -0.012557142 -0.15452795
0000c0 38 d9 1f be 8a 27 8f be 58 d2 86 bb 90 f1 aa bd
       -0.15610206 -0.27959853 -0.0041144304 -0.08346856
0000d0 92 2e 20 3e e4 fc 08 bd 8d 0e d1 3d 3d d3 b3 3d
       0.15642765 -0.0334443 0.102078535 0.08780525
0000e0 d5 3f 79 3e c3 50 74 bc fb 80 4b bc 7b 15 cd bd
       0.24340756 -0.014911833 -0.012420888 -0.10013863
0000f0 5c ed 87 3e 10 cd 1f 3e 01 56 e7 bd ad b8 fd 3d
       0.26548278 0.15605569 -0.11295701 0.1238874
000100 fc 32 4e 3e 2e ff e9 3d 2e 14 84 3e b8 98 9b 3d
       0.20136636 0.11425625 0.25796646 0.07597488
000110 51 ce c1 3c 21 af 62 3e 10 74 78 3e 84 c4 de 3d
       0.02365795 0.22137119 0.24263024 0.10877326
000120 e1 fb 06 3e 93 56 3f 3e d3 ec 07 bd 5b 4b f5 3d
       0.13182022 0.18685369 -0.033184838 0.119772635
000130 81 3b 3d 3b c2 aa de bb bf ee 54 3e 5e f1 1b 3c
       0.0028874578 -0.0067952583 0.207942 0.009517996
000140 75 a8 f2 bc be 23 50 bd 79 e8 60 3e 2a a0 1a 3e
       -0.029621342 -0.050815336 0.21963681 0.1510016
000150 62 f2 35 3d 3a 4e 08 3e 73 9e 93 bd 77 92 06 3b
       0.044420607 0.13311091 -0.07207956 0.0020534077
000160 66 b4 43 3e 7d 21 4f 3d 6f 87 00 bb 44 0f c6 3d
       0.19111785 0.050569046 -0.0019611975 0.096708804
000170 9c 40 06 bc 5b f0 b4 bb 01 1c 6f 3e 0a 49 12 bd
       -0.008194115 -0.0055218167 0.23350526 -0.035714187
000180 a1 a1 4a 3d 2e f8 a6 3d 67 cc 41 3e fa df 14 3e
       0.049470548 0.08152805 0.1892563 0.14538565
000190 6f 1c 1f 3e f8 30 35 3e c9 36 64 bd 7d cb 88 be
       0.1553819 0.17694461 -0.05571631 -0.2671775
0001a0 09 f2 f8 bd 13 1e c2 bc 8b 13 c3 bc ce ad 6e bd
       -0.121555395 -0.023695981 -0.02381303 -0.05827122
0001b0 13 90 38 bd d5 0b 1d be 1b f8 e2 bd cd 30 bd 3d
       -0.045059275 -0.15336545 -0.110824786 0.09237824
0001c0 b7 16 b4 3d 9c 73 78 bd 9f 24 12 be 8f 9a b5 3b
       0.08793395 -0.06065713 -0.14271782 0.0055421065
0001d0 91 b2 a8 bd 83 77 f7 3c 32 5b db bb 42 54 bd bd
       -0.08237184 0.030208355 -0.006694221 -0.092445865
0001e0 03 3c 84 3c 4b b9 9e 3d 20 af 3b 3e 20 c6 69 3e
       0.016141897 0.077501856 0.18328524 0.22829485
0001f0 bf b5 42 bd dd 64 2b 3e 0d 8a f9 ba fa 17 4f 3e
       -0.047536608 0.16737695 -0.0019038335 0.2022399
000200 36 77 24 bd 07 b1 e6 3c a0 b2 21 3e 9b 6f cb bc
       -0.04015275 0.028160585 0.15790796 -0.024833491
000210 38 7e 4a 3c fa 53 ab bd f4 74 81 3d 08 8f 50 3d
       0.012359194 -0.08365627 0.06321135 0.050917655
000220 fb be 6e 3d 53 b5 b1 bd 5f e0 4d 3d 3c e9 a6 3b
       0.058287602 -0.08677163 0.050262805 0.0050937217
000230 8a 94 c2 bd 17 42 fd 3d 61 a9 b4 3d ca 33 a2 3d
       -0.09500988 0.12366121 0.08821369 0.07920034
000240 34 78 f9 3d bb fc 27 3d 38 a1 f0 bd 76 42 20 3d
       0.1218113 0.041012507 -0.117495 0.039125882
000250 5b 88 02 be 6e a2 cc bd 7f c7 c0 3d 53 41 f2 bd
       -0.12747328 -0.099919185 0.09413051 -0.11828866
000260 a5 13 b1 bd 2f df 0a bd 38 21 84 bd 2b 7c b7 b9
       -0.08646325 -0.03390425 -0.064516485 -0.00034996992
000270 33 1c 80 bd 4e 46 a5 bd ef ed 02 be 66 c3 9b bd
       -0.062553786 -0.0807005 -0.12786077 -0.07605629
000280 1f 3b de 3a 9a 40 ab 3d e7 2d 95 bd 5c 2a 17 be
       0.0016954875 0.08361931 -0.07284146 -0.14762253
000290 52 57 00 3e b3 a5 18 3d d2 9a c7 bd 21 3c 9b 3d
       0.1253331 0.037267398 -0.097463265 0.07579828
0002a0 e9 30 03 bd 2d ff bb 3d fd ce 06 3e 13 63 d0 bc
       -0.032029066 0.0917953 0.13164897 -0.025437867
0002b0 d5 4f 84 b9 00 16 1f 3d a1 39 93 3d 4e 0d 94 bd
       -0.0002523648 0.03883934 0.07188726 -0.072291
0002c0 77 78 9a 3d 0b 5c ff 3d e9 6c 8a bd 88 e5 18 3e
       0.07542508 0.12468728 -0.06759054 0.14931309
0002d0 a4 05 50 bd 51 49 9f bc 5b fe cf bd c4 8a 20 bd
       -0.05078663 -0.01944414 -0.10155936 -0.039194837
0002e0 fe e8 22 3d b1 a0 65 bd 1e d4 a3 bd 07 01 21 3e
       0.03977298 -0.05606145 -0.079994425 0.15723048
0002f0 3b d5 0b be 77 21 9a 3c 25 05 32 bd 4b c3 2d 3d
       -0.1365556 0.018814785 -0.043461937 0.042422574
000300 b7 46 d0 bc d1 87 7b be 2b fc 83 bd 69 b8 12 3d
       -0.025424344 -0.24563529 -0.064445816 0.0358204
000310 8e a7 40 be ea 60 11 be 82 3c aa bd 91 55 27 3d
       -0.18813917 -0.14197126 -0.08312322 0.040853087
000320 9c b7 36 be 53 fa 0f be fb 51 0d bd c0 71 9c bd
       -0.17843479 -0.14060335 -0.03450201 -0.076388836
000330 dc 7b eb 3c 72 54 27 bc 27 3c 83 3e 0a ae d2 3d
       0.028745584 -0.010213004 0.2563183 0.102871016
000340 9c 08 cb bd 97 77 67 bd 46 49 e3 3d 74 1d 79 3e
       -0.099137515 -0.056510534 0.1109796 0.24327642
000350 5a 3e 49 3e 06 78 c2 3b 89 7b 02 be 4d 5d 71 3d
       0.19652691 0.005934718 -0.12742437 0.05892687
000360 8e a5 31 3e 83 f6 85 3e 71 8d af 3c 10 42 bb bc
       0.1734831 0.26164636 0.02142975 -0.02285865
000370 a3 59 5f 3e 68 af 1d 3e 24 0a 27 3e 9a 75 da 3d
       0.21811537 0.15398943 0.16312462 0.10666962
000380 b1 2e e0 3d df 27 3d 3e 07 20 03 3d 6c 21 3f 3e
       0.10946406 0.18472241 0.032012966 0.18665093
000390 be 57 e9 3d 36 e7 6f 3e 69 56 91 3c 09 78 f9 3d
       0.113936886 0.23428044 0.017741399 0.12181098
0003a0 77 38 6c bd c1 a5 4b 3d 24 fc 6c 3d f6 11 6a bd
       -0.057671037 0.049718622 0.057857648 -0.057146035
0003b0 d7 60 6e 3d 5e 6d d5 bd 22 57 5f 3e ff 92 36 3e
       0.058197822 -0.10421251 0.21810582 0.17829512
0003c0 8a b1 8f 3e 96 89 06 be 86 fe d5 bd 62 d3 35 3e
       0.2806514 -0.13138422 -0.10448937 0.17756417
0003d0 b8 78 14 3e 90 03 73 3e 2b 87 4d 3e 9e 14 07 3a
       0.14499176 0.23731828 0.20071094 0.00051529135
0003e0 b6 b0 5a 3e 2d 2a 1c bd 84 b9 8a 3b 57 b8 69 bd
       0.21356472 -0.03812616 0.004233541 -0.057060566
0003f0 29 5d 3c 3d 75 2d b8 3d 6a d4 89 3e 45 d8 6f 3e
       0.045987282 0.08993045 0.26919872 0.23422344

bias f4 [34]
000000 06 ca 22 be ea 3d c0 3d 9f f0 8d be eb 19 39 be
       -0.15897378 0.09386809 -0.27722642 -0.18076293
000010 ee a6 84 3e 99 b9 89 3d 24 96 82 be 11 90 1e be
       0.25908607 0.06724853 -0.25505173 -0.15484644
000020 11 14 37 bd d0 4e 3a be bf 47 de bb b6 36 14 bc
       -0.04469687 -0.18194127 -0.006783455 -0.009046247
000030 f0 da 81 bc 20 ca 82 3d d7 74 79 be 31 e9 8c be
       -0.015851468 0.063862085 -0.24360977 -0.2752166
000040 5d 0b ef 3d 82 0c 58 3d 91 2e a1 bd b2 74 06 be
       0.11672089 0.052746303 -0.0787021 -0.13130453
000050 94 d8 06 bd 18 b4 65 3c b2 24 d7 3c 98 9b 1e 3a
       -0.03292139 0.0140199885 0.026262615 0.0006050407
000060 aa 49 db bd 70 81 d5 bc d3 68 1f be c9 e3 c6 bc
       -0.1070741 -0.026062697 -0.15567331 -0.024278538
000070 aa 36 3a be 55 a0 27 be 64 99 4a be 3f 56 50 be
       -0.18184915 -0.16369756 -0.19785076 -0.203454
000080 6f b7 49 be c2 ae 87 be
       -0.1969888 -0.26500517
