models_m3/model_agg_num_9.pt (torch, 38927 bytes, 4 tensors)

weight f4 [42, 91]
00000000: 14ad 37be 7885 2cbd c395 37be a2eb b6bc
00000010: 4540 7dbd 382c 12be b762 20bd dd9b af3d
00000020: e321 29be 9d39 16be 3303 1abe bdde 3ebe
00000030: 5a6a 1ebe b751 1bbe 0b0d dbbd d5ce 4bbe
00000040: 5326 fcbd 7307 1bbe fed2 423e 97c4 963d
00000050: e38c 473e f399 363e c86d 093e 2683 2a3e
00000060: eec9 cc3d 483e 313e 4f82 933d b579 9f3d
00000070: 240d 783e f8c3 7c3d d921 40be 903e 57be
00000080: 5d93 5bbe 83c2 583e 7189 c63d ee73 443d
00000090: 231e 3b3d b59e 603e bd68 973d b0f1 89bd
000000a0: 262b 153e fbff e73d eaee 0a3e 2d63 3a3e
000000b0: 6d0b 2e3e ab42 78be 52d4 11be fbf2 bebd
000000c0: 821a cbbd f44f f2bd d088 1dbe f125 f8bd
000000d0: 4209 623e e310 7dbe 0fcc 50be dede 69be
000000e0: da7a 45be 36d1 4ebe 7233 7abe e3da 53bd
000000f0: 1106 7cbd 8711 19be 2a16 72be 66b7 6c3d
00000100: 0565 5f3e 5605 b33d 0e09 243e e273 613e
00000110: 5430 583e 2d87 6cbd bd12 fabd eb3f 653d
00000120: 3379 453e 6ae3 733e ff15 933d a033 cfbd
00000130: 0331 6e3d 236e 6abe 6e81 f93d 14c3 563e
00000140: 4814 313e db05 623d 0ff3 163e 970d 503e
00000150: 5123 003d cd5e e23d a513 673e 287f 3e3e
00000160: eaeb 6b3d 2e62 503e 1985 ee3d 97a5 0dbe
00000170: d73c b6bd d961 1dbd dbc8 a4bd b38f 08be
00000180: e35e 27bb f231 02be afc0 f5bc 7a7e 3abe
00000190: d913 3dbe 1294 843c f828 bdba c6c6 cabd
000001a0: 39af 3abe 7438 edbd df05 bcbd d4e3 6ebd
000001b0: e4dc adbd f076 34bd 4fce fcbd d4d3 a6bd
000001c0: e97c 36bd f8f5 43bd b102 993c 7e33 17bd
000001d0: b9bf 723c 59d5 84bd ede3 7dbd 7252 753d
000001e0: cd4b 00bc f5bb 04be d803 e0bd b597 b9bd
000001f0: 0184 1abd d3ea 87bb c1ef 84bd 1a3a f7bd
00000200: f0a5 04be 75e9 a1bd 2cc9 a9bd 0bff c3bd
00000210: 194f e0bd 0e3f 6b3d a908 4f3d cd18 683c
00000220: a6a1 1dbd 4aae adbd cb62 0cbe e776 acbd
00000230: 9ffb efbd 6c38 4abd fef1 f9bd df30 19be
00000240: 188e 34be 1109 39be 2fc1 fbbd 0d0b 3ebe
00000250: ae71 2fbe 7712 39be 3b0e 9cbd fb96 e0bc
00000260: e4a8 3cbe ae7e 05be 7ddd 98bd 4907 63bc
00000270: 85c8 acbd e001 42bd 57b0 d0bd 6340 39bc
00000280: 21ef f4bd 1a1c b2bd 9082 8ebd efd1 04be
00000290: b2f0 c0bd 2f29 f83d 851b 9cbd a135 fbbd
000002a0: 16ef 2abd 1cba f1bd bea1 dfbb d4c8 f2bd
000002b0: 4af4 243d a0c0 06be 07cf 993d 543e 32be
000002c0: 4157 853c 80fb a9bc f0b3 5ebb e347 7dbd
000002d0: 45d9 70bb 5695 c2bd d4d5 84bd b4ce 3bbd
000002e0: 7579 07be 23c8 c7bd 531f 4dbe b04b abbd
000002f0: 545e 20be 7353 33be 3511 26be 7567 ffbd
00000300: fb5a 8abd 413b 49be ee55 3fbe 86a5 35bd
00000310: 2052 f1bd f169 493d 4019 c43d e025 c7bd
00000320: 98b0 c6bd 5e84 ad3d cfb5 d3bc 94ad 9dbd
00000330: 2ec9 153d 7389 d9bd 7029 ee3d 60cf 553e
00000340: 3be7 fb3d eea7 1a3e 721e 263e bb81 523e
00000350: 59dc 073e 142e 733e 1758 4fbe 4779 1b3c
00000360: 2cb7 6dbd 9290 913d 1e40 d6bb 09f0 89bc
00000370: 720e 2e3d 60b5 223c ac4e 603d 893f 223d
00000380: 6fff ec3d 7177 aa3d 8a21 333e 3e2c 2bbe
00000390: 7be3 13be c9a3 1dbe 9be0 9ebd 5c58 3dbe
000003a0: a2bd e0bd 7a21 61bd dbf2 6dbd 3a19 eabd
000003b0: 60fa bebd c1a2 96bd a736 00be 2504 12be
000003c0: 841c 6abe 50e1 4abe 6f8d 19bb 42c5 c83d
000003d0: fb53 2abe 49d1 e63c 2be1 66bd 31e2 8d3d
000003e0: ba24 6a3c 3d29 013c ae5c 3b3d 3d57 ad3d
000003f0: f0bf 4f3e 4c2d 2f3e 5d6e b73d 9eda 493e
-0.17937118 -0.042119473 -0.17928223 -0.022329155 -0.06182887 -0.1427468 -0.03915664 0.085746504
-0.16516833 -0.14670415 -0.15040283 -0.18639655 -0.15470257 -0.1516789 -0.10695847 -0.19903119
-0.12311997 -0.1513956 0.190258 0.07361715 0.19487338 0.17832164 0.13420784 0.16651592
0.099994525 0.17308915 0.07202589 0.07786886 0.24223763 0.061710328 -0.18762912 -0.2101996
-0.21442933 0.2116795 0.096941836 0.04796212 0.045683037 0.21935542 0.07393024 -0.06735551
0.14567241 0.11328121 0.13567701 0.18201895 0.16996546 -0.24244182 -0.1424115 -0.093236886
-0.09917165 -0.11831656 -0.15384221 -0.12116612 0.22073844 -0.24713473 -0.20390342 -0.22838923
-0.19285145 -0.20196995 -0.24433687 -0.05172242 -0.061529223 -0.14948092 -0.23641267 0.05779209
0.2181588 0.08741252 0.16019079 0.22016862 0.21112186 -0.0577461 -0.12210605 0.05596916
0.19284515 0.2381722 0.0718193 -0.101172686 0.05815221 -0.22893576 0.1218289 0.20972854
0.17292893 0.055181365 0.14741157 0.20317684 0.03128368 0.11053238 0.22566088 0.18603194
0.057598032 0.20349953 0.1164648 -0.13832699 -0.08898323 -0.038423393 -0.08046123 -0.13336067
-0.0025538735 -0.12714365 -0.029999105 -0.1821231 -0.18464603 0.016183887 -0.0014431765 -0.09901194
-0.18230905 -0.11583033 -0.09180807 -0.058322743 -0.08489397 -0.04405874 -0.12344038 -0.08145872
-0.044552717 -0.047841996 0.018678041 -0.03691434 0.014816218 -0.06486005 -0.061984945 0.05989308
-0.007830572 -0.12962325 -0.10938233 -0.09062139 -0.037723545 -0.0041478663 -0.06491042 -0.12071629
-0.12953925 -0.079058565 -0.082903236 -0.0957013 -0.10952587 0.05743318 0.05054537 0.014166069
-0.038484238 -0.084805086 -0.13709562 -0.08421116 -0.11717915 -0.049370214 -0.122043595 -0.14960049
-0.1763233 -0.18069865 -0.12292706 -0.18558903 -0.17133209 -0.1807345 -0.07619902 -0.027415743
-0.18423802 -0.13036606 -0.074641205 -0.013856717 -0.084366836 -0.04736507 -0.10189884 -0.011306855
-0.11959673 -0.08696766 -0.069584966 -0.12970708 -0.09420909 0.1211723 -0.076224364 -0.12266088
-0.041731916 -0.11803076 -0.006824701 -0.11854711 0.040272035 -0.13159418 0.075101905 -0.17406589
0.016276957 -0.020749807 -0.0033981763 -0.061836135 -0.0036750596 -0.0950114 -0.06486097 -0.045851424
-0.13229926 -0.0975497 -0.2003148 -0.083640456 -0.15660983 -0.17512302 -0.16217501 -0.12470905
-0.067556344 -0.1965151 -0.18685123 -0.04434731 -0.11783242 0.0491733 0.095751286 -0.09724021
-0.09701651 0.08472513 -0.025843529 -0.07699123 0.036568813 -0.106219195 0.11628997 0.20879889
0.12299963 0.15103123 0.16222551 0.20557301 0.1326765 0.23748046 -0.20248447 0.009489364
-0.058036014 0.07107653 -0.006538405 -0.01683809 0.042494245 0.0099309385 0.054762527 0.039611373
0.115721576 0.08323563 0.17493263 -0.16716096 -0.14442246 -0.1539451 -0.07757684 -0.18490738
-0.109736696 -0.054963566 -0.058092933 -0.11430593 -0.09325099 -0.073552616 -0.12520848 -0.14259394
-0.2286244 -0.19812512 -0.0023430248 0.09803249 -0.16633599 0.028175967 -0.05636708 0.06927908
0.014290983 0.007883367 0.045742683 0.08463905 0.20288062 0.17107123 0.08956597 0.19712302

bias f4 [42]
00000000: 9bdb 5d3d 8172 963d f7cc bfbd 5a3b a53d
00000010: 38e3 ac3d 10d6 cc3d bc05 453e dd0e bb3d
00000020: 8007 0a3e f8ee 6a3d 964e 2c3d 2191 193e
00000030: 7cfc 823d cfe5 b0bd fe61 083e 91f1 713e
00000040: a01f 753e 1444 743e 2fc2 543d d6cc 8a3d
00000050: a90d 4e3e 825d 5e3e b208 eb3a 102f 183e
00000060: 2568 75bc 095a cc3d b3b6 d73d 8804 0c3e
00000070: 760b 333e 1ddd d43d 663d 683d d8f9 723e
00000080: 7fa9 273e f8f3 5e3e bb15 1e3e 4cf1 be3d
00000090: d882 733e 0632 513c 76d8 6e3e f16c 293e
000000a0: 0327 5a3e f876 ce3d
0.05416451 0.07346059 -0.09365266 0.08067961 0.08441776 0.10001767 0.19240469 0.09133694
0.13479424 0.057356805 0.042067133 0.14996769 0.06395814 -0.086375825 0.13318631 0.23627307
0.23937845 0.23854095 0.051943 0.067773506 0.20122398 0.21715358 0.0017931669 0.14861703
-0.014978443 0.0997811 0.10532894 0.13673604 0.17484841 0.103937365 0.05669918 0.2372812
0.16373251 0.21772754 0.15437977 0.093233675 0.23780382 0.012768274 0.23324761 0.16545464
0.21303944 0.10081285

weight f4 [28, 42]
00000000: 6fe2 85be a018 e13b fccd 2fbe 1c5c cbbd
00000010: 97f2 88bb 381d 67be 3072 6fbe 4a80 84be
00000020: c38a b6bd 2b5a e1bd b30f 18be 1ccf 4abe
00000030: 1344 92bd 582f 30be 786b 8cbb 8a16 92be
00000040: 7c21 4cbe 29d6 80be 5da0 40be 6e71 9dbc
00000050: 954f 6abd 83c9 93bc bb4c 95be 2b1a a1bd
00000060: cf99 afbc 3aad 29be 3fee 92bb f41f 30be
00000070: 1cd0 0bbe 18b3 eb3b 1919 8ebe 8fd1 17be
00000080: 9d66 46be c858 98bd d00d e4bc 532f debd
00000090: 02aa 80bd 3abd f4bd 0ce0 62be f47d 51be
000000a0: f311 5abe 3cb4 0fbe 7cce 49be d361 29be
000000b0: ea72 f23b 71d2 11be bdad 9dbd e8b7 71bc
000000c0: 156d 94be 1d89 8bbe 7734 66be 9408 9dbd
000000d0: bc3c 86bd f027 2abe 382c 4cbe 9594 93bc
000000e0: b803 81be 2d2d 39be 01f0 72bd 5cb3 0cbe
000000f0: 91c6 74bd 1b53 58be 4438 4cbe 6e83 8dbc
00000100: 9e71 4fbe ccaf 46be b5ac f7bb f18f d5bd
00000110: f7ff 3dbe 8708 6ebe 5547 87be db73 81bd
00000120: cd0d 2fbe ba6b 12be dbff 05be cebf 53be
00000130: bfae 80bd 05dc fdbd b467 17be 3f8e cabb
00000140: 7813 d7bd 2614 ffbd 411d edbd 7898 8dbe
00000150: 8a58 06be 73c9 5dbc 67e7 afbd 0858 12be
00000160: 4559 4fbe e0d4 52be c310 42be d70d 2bbe
00000170: 1b11 70be e9ec 5dbc fa65 cabd 9c9d 62be
00000180: 4c0a 12be 293b d8bd 07fd e3bd b2f6 7ebe
00000190: e396 04be a639 3cbe 33c5 8fbe f62c 46bd
000001a0: 83c9 7a39 48a8 7dbe 103c aebd ecd9 88be
000001b0: 0eb8 54bc ca84 8abe 4538 d1bd c36e 8dbd
000001c0: 9531 81be 80fe c0bc 1ded 6bbc 849b 83be
000001d0: 8378 36be 59c1 29be be7b 03be c950 44bd
000001e0: 4195 63be 90d0 8b3b 8a15 06bd 943d 8abe
000001f0: 3f70 f1bc 4052 fcbb 6683 04be bf10 7abe
00000200: 26b0 32be 1a7e 7ebe 3593 53be 55a4 34be
00000210: 468f 97bd ec95 e8bd 7b3b a7bc 3ace 72be
00000220: 82a4 36be bc30 7bbe 5f63 48be b203 fdbd
00000230: 4cdd 1bbe ad9a bdbd f810 25be 03cb 88be
00000240: 07ac 06bd 5211 55be 224d 95be 55ee 86be
00000250: eff3 53bd 87fb 4cbe 3563 86be d534 1ebe
00000260: 266f 0ebe 4b10 83bd 6fea 97be 1d6c 91be
00000270: ee42 5bbd a76c e8bd ffb5 22be e486 18be
00000280: 9d11 55be f5ba e6bd 167b 50be 29a8 b1bd
00000290: 9e23 5cbe 28f4 4abe f5a6 18be bf9b f6bc
000002a0: 4529 86be a85e 133e 7736 7dbd ae40 e6bc
000002b0: 2abb 56be 11fe 75bd 3ddd 363d 7cbc 26bb
000002c0: 4233 73bd ad3c 2cbb 041f 5fbe 0577 7c3c
000002d0: b202 fa3d c457 8cbd 0935 e6bd 5658 4abe
000002e0: 7c09 60be b5f4 723d 6cee ebbd 132e a5bc
000002f0: e62f 3e3d ece0 66bc 7e07 28be dd16 12be
00000300: 5ad2 113e 7720 2bbc 8ad4 8ebe e764 31be
00000310: 5185 86bb 276f 28be 6d29 05bd c695 043a
00000320: f0ba 58bd bb4e b1bd d260 a0bc 42c7 f73d
00000330: abb8 b1bd d22c 13bd dd8c 5dbe f8ae abbd
00000340: 880c 56be acb0 84bd 30c1 94be 207f dc3d
00000350: c77e e0bd dfbd 51be 48e4 93be 3d26 c1bd
00000360: 986e 12be 7f01 e13c a7d4 93bd 3324 bdbd
00000370: aad5 72be 6121 2d3d 5cdf 383e 62e3 39be
00000380: 809e 60be de8a 5fbe 6836 00be 4382 90bd
00000390: 264e 9d3d df91 db3d 2d85 8abc 6f98 63bd
000003a0: 0218 06be 3db8 92bd 254b c63d 9b23 b83d
000003b0: 210b 79be 979b e3bd 92b0 d93c 5087 d0bb
000003c0: f85d 6fbe 334d 09bd a7b8 44be 1221 92be
000003d0: fb1e 16bd e208 38bd f404 b6bd 4903 95be
000003e0: 2eeb 95be e083 e93d e891 4ebe 6870 e33d
000003f0: 991c 413e 3d01 35be d2d1 893d ecb2 92bd
-0.26149318 0.0068693906 -0.1716842 -0.09929678 -0.0041793096 -0.2256974 -0.23383403 -0.25879127
-0.089131854 -0.11003526 -0.14849739 -0.19805568 -0.071418904 -0.1720556 -0.004285272 -0.2853282
-0.19934648 -0.2516339 -0.18811174 -0.019219127 -0.0572048 -0.018040424 -0.29160103 -0.07866319
-0.021435646 -0.16569987 -0.0044839676 -0.17199689 -0.13653606 0.0071929805 -0.27753523 -0.14826034
-0.19375081 -0.07438809 -0.027838618 -0.1084887 -0.062824264 -0.119501546 -0.2215578 -0.20458204
-0.2129591 -0.14033598 -0.19707674 -0.16541223 0.0073989527 -0.14240433 -0.076991536 -0.014753319
-0.28989473 -0.27253047 -0.22480951 -0.07667652 -0.06554553 -0.16616797 -0.19938743 -0.018015185
-0.2519815 -0.1808364 -0.059310917 -0.13740295 -0.05975968 -0.21125452 -0.19943339 -0.017274585
-0.20258185 -0.19402999 -0.00755843 -0.10427845 -0.18554674 -0.2324544 -0.2642161 -0.06320926
-0.17095108 -0.14298907 -0.13085882 -0.20678636 -0.0628333 -0.12395481 -0.14785653 -0.006181508
-0.1050176 -0.12455015 -0.11577845 -0.27655387 -0.13119712 -0.013536799 -0.08589058 -0.14291394
-0.20248897 -0.20589018 -0.18951707 -0.16704498 -0.23444025 -0.013545253 -0.09882732 -0.22130436
-0.1426174 -0.10558159 -0.111322455 -0.24898794 -0.12948184 -0.18381366 -0.2808014 -0.04838272
0.00023916927 -0.24771225 -0.0850755 -0.2672876 -0.012983335 -0.27054435 -0.10215811 -0.06905892
-0.2523314 -0.023558855 -0.014399794 -0.25704587 -0.17819409 -0.16577663 -0.12840173 -0.047928605
-0.22224905 0.004266806 -0.032735385 -0.27000105 -0.029472468 -0.0077002347 -0.1294075 -0.2442045
-0.17450008 -0.24852791 -0.20661624 -0.17640813 -0.07400374 -0.1135672 -0.020414105 -0.23711482
-0.17836192 -0.2453031 -0.19569157 -0.123542204 -0.15221137 -0.09258018 -0.16119754 -0.26717386
-0.0328789 -0.20807388 -0.2916041 -0.26353708 -0.051746305 -0.20017825 -0.26247564 -0.15449841
-0.13909587 -0.06399592 -0.29671046 -0.28402796 -0.053530626 -0.11348849 -0.15889739 -0.14895207
-0.208075 -0.11266128 -0.20359454 -0.08674652 -0.21497962 -0.198197 -0.14907439 -0.030103562
-0.2620336 0.14391577 -0.06181952 -0.028107014 -0.20969835 -0.06005675 0.044644583 -0.0025441935
-0.059375055 -0.0026281283 -0.21789175 0.015409236 0.12207545 -0.068526775 -0.112405844 -0.1976026
-0.21878618 0.059315402 -0.11520085 -0.020163571 0.0464324 -0.0140917115 -0.16409108 -0.14266534
0.14240399 -0.010444752 -0.2789653 -0.17323647 -0.004105248 -0.16448651 -0.03251021 0.00050577184
-0.052912652 -0.08657595 -0.019577418 0.12098552 -0.08677801 -0.035931416 -0.21635766 -0.08382982
-0.20903218 -0.0647901 -0.2905364 0.10766435 -0.10961681 -0.20482586 -0.28885102 -0.094311215
-0.143 0.027466534 -0.072182946 -0.0923542 -0.23714319 0.04226816 0.18053955 -0.18153146
-0.21935463 -0.21830317 -0.12520754 -0.070560955 0.07680921 0.10721182 -0.016909206 -0.055565294
-0.13095096 -0.07164047 0.096823014 0.08991166 -0.24320652 -0.11113661 0.026573453 -0.0063637868
-0.2337569 -0.03352089 -0.19211064 -0.28540856 -0.03665064 -0.044930346 -0.088876635 -0.2910407
-0.2928099 0.11402106 -0.20172846 0.11105424 0.18858565 -0.17676254 0.06729473 -0.07163033

bias f4 [28]
00000000: b009 3fbe c23b 043c 9b84 c0bd 3213 77be
00000010: 6746 69be ab78 bfbd 5469 b3bd 2466 233e
00000020: 020f 91be 7c62 8bbd 568d f0bb 0a4f f23d
00000030: c743 0d3e 7148 91be d822 8a3d f442 4bbe
00000040: 3bea 653c 2618 4dbe 2022 fdbd 1ba0 51bd
00000050: 6622 febd dab0 e4bd ebc6 07be c51d d8bd
00000060: 7950 ceba 8e70 32be 5289 0cbe 2344 2bbc
-0.18656039 0.008070888 -0.094002925 -0.24128416 -0.22780763 -0.093491875 -0.08760324 0.15956932
-0.28331763 -0.06805894 -0.0073410673 0.11831482 0.13795386 -0.2837558 0.06744927 -0.1984976
0.014032896 -0.20028743 -0.123600245 -0.05117808 -0.12408905 -0.11166544 -0.13259475 -0.10552553
-0.0015740535 -0.17425749 -0.13724259 -0.010453257
