models_m3/model_agg_num_5.pt (torch, 44559 bytes, 4 tensors)

weight f4 [51, 91]
-0.07002596 -0.2253651 -0.22369274 -0.09986446 -0.06574645 -0.22762235 -0.082172595 -0.036569975
-0.14593224 0.107513845 -0.081116505 -0.24179594 -0.22553635 -0.08762757 -0.18826745 -0.06864527
-0.0383531 -0.1504841 0.21191551 0.15283233 0.20091273 0.112749465 0.18479761 0.079723604
-0.15146244 -0.2368539 -0.114595905 0.14946681 -0.041936684 0.11117066 -0.23725125 -0.027159508
-0.21974029 0.21427642 0.1135525 0.22059943 0.17082529 0.1344671 0.15452154 -0.24720493
-0.18915196 -0.14617306 0.23840307 0.103690684 0.06687732 -0.05087145 -0.1755587 -0.13852538
-0.24258289 -0.046313513 -0.095395386 -0.22535521 -0.09694172 -0.079701014 -0.19042599 -0.2180489
-0.19506861 -0.24120195 -0.05836814 -0.11628629 -0.13783431 -0.047958165 -0.09629536 0.22404507
0.08652766 0.21020898 0.092371784 0.15661284 0.17256056 -0.2342123 -0.22181086 -0.18680027
0.16442423 -0.14002465 0.07430609 -0.0491393 0.21390894 -0.1190684 0.13851345 0.22111101
0.09658593 0.18201394 0.17666304 0.07465158 -0.20494491 -0.12816294 -0.05187511 0.12364577
0.20986898 0.13128677 0.09939037 -0.15921733 -0.095218495 -0.13672553 -0.14074779 -0.13608861
-0.17806202 -0.11723684 -0.06673907 -0.23008823 -0.20996724 -0.09682019 -0.09166461 -0.103270896
-0.057743154 -0.23240498 -0.2191481 -0.18581365 -0.1285822 -0.09414257 -0.113831244 -0.17959611
-0.125604 -0.031629186 -0.1697849 0.14706568 -0.15561697 -0.06707373 -0.18780534 -0.04778055
-0.18213059 -0.056831088 -0.09545114 -0.12536767 -0.21657066 -0.1450121 -0.103534795 -0.16151793
-0.09369842 -0.17684095 0.23831488 0.13285998 0.16669096 -0.11325659 -0.09289981 -0.0637471
-0.2146782 -0.13766336 -0.123078234 -0.16347761 -0.19721821 -0.075194485 -0.20277888 -0.14971308
-0.20323822 -0.21082185 -0.096330814 -0.17791264 -0.19177565 -0.21826749 -0.18586124 -0.11088671
-0.1845584 -0.17310296 -0.0048448094 -0.07407066 -0.13374679 -0.02922601 -0.092246525 -0.06620185
-0.010528235 -0.19408269 -0.22334196 -0.22406623 -0.09919392 -0.22489543 -0.07673522 -0.24187662
-0.06528357 -0.24042742 -0.23175493 -0.10577422 -0.15001744 -0.22943825 -0.2380986 0.22924805
0.120433696 0.0665132 -0.076585606 -0.18476215 -0.18030582 -0.14662023 -0.05727136 -0.08805758
-0.040498048 -0.114001594 0.039821357 -0.017552536 0.012942336 0.24802247 -0.0541887 -0.13974008
-0.14283082 -0.10977841 -0.07608428 0.12672007 0.036135696 -0.07730652 -0.15376376 0.14801392
-0.14146996 -0.20089349 -0.14776947 -0.067086354 -0.06721482 -0.14735991 -0.10700857 -0.12038455
-0.087770924 -0.086490035 -0.18836573 0.0016729963 -0.05310473 -0.14192118 0.16521017 -0.0032208983
-0.053573374 -0.0013387464 0.025893888 -0.12953125 0.034742404 -0.10314063 -0.111674294 -0.13475654
-0.09150736 -0.12412435 -0.024849186 -0.028788848 -0.10537645 -0.098376244 -0.087437585 0.046143875
-0.0977969 -0.12244857 0.13921829 -0.06988317 -0.03254115 -0.08792274 -0.104541674 -0.04396536
-0.006332956 0.02696203 -0.21547341 -0.14211506 0.22080714 -0.1858604 -0.21747558 -0.1261825
-0.16778341 -0.15278354 -0.10626474 -0.049882594 -0.06263112 -0.19716066 -0.24829929 -0.1267571
00000000: c569 8fbd 1cc6 66be b60f 65be bd85 ccbd
00000010: 13a6 86bd d515 69be 1b4a a8bd 66ca 15bd
00000020: 436f 15be 3830 dc3d 6920 a6bd 5b99 77be
00000030: 00f3 66be 1576 b3bd 2fc9 40be e495 8cbd
00000040: 2418 1dbd 8118 1abe 6100 593e 1480 1c3e
00000050: 11bc 4d3e 31e9 e63d 963b 3d3e 2146 a33d
00000060: f818 1bbe d489 72be 42b1 eabd d40d 193e
00000070: cdc5 2bbd 71ad e33d fef1 72be 9e7d debc
00000080: 9903 61be 476b 5b3e 378e e83d d1e4 613e
00000090: d3ec 2e3e beb1 093e e53a 1e3e 4a23 7dbe
000000a0: 0db1 41be 64ae 15be ef1f 743e c85b d43d
000000b0: faf6 883d 955e 50bd a9c5 33be 99d9 0dbe
000000c0: a667 78be 3db3 3dbd a85e c3bd 84c3 66be
000000d0: 6189 c6bd 493a a3bd 08ff 42be 3648 5fbe
000000e0: 11c0 47be a5fd 76be 6e13 6fbd 8227 eebd
000000f0: 7024 0dbe c86f 44bd 8036 c5bd 126c 653e
00000100: 6a35 b13d 0641 573e 6b2d bd3d 1e5f 203e
00000110: b7b3 303e 59d5 6fbe 6322 63be 9248 3fbe
00000120: d35e 283e 9f62 0fbe cb2d 983d 4a46 49bd
00000130: f20a 5b3e 22da f3bd 78d6 0d3e ed6a 623e
00000140: d8ce c53d dd61 3a3e 28e7 343e ede2 983d
00000150: 14dd 51be 253d 03be ff7a 54bd fe39 fd3d
00000160: e5e7 563e 0a70 063e 2e8d cb3d de09 23be
00000170: ea01 c3bd c701 0cbe 3020 10be d05a 0bbe
00000180: e455 36be de19 f0bd 7eae 88bd 409c 6bbe
00000190: a701 57be aa49 c6bd a8ba bbbd b17f d3bd
000001a0: 1684 6cbd 92fb 6dbe 5c68 60be ef45 3ebe
000001b0: 0dab 03be d2cd c0bd 5b20 e9bd 0be8 37be
000001c0: 569e 00be 9b8d 01bd 18dc 2dbe 6398 163e
000001d0: 0e5a 1fbe f45d 89bd 0b50 40be 8ab5 43bd
000001e0: 7180 3abe b7c7 68bd e37b c3bd 6260 00be
000001f0: b3c4 5dbe 0d7e 14be 0d0a d4bd f564 25be
00000200: f5e4 bfbd cb15 35be d108 743e 720c 083e
00000210: 09b1 2a3e 12f3 e7bd 4142 bebd d78d 82bd
00000220: 9ad4 5bbe a0f7 0cbe 7110 fcbd ad66 27be
00000230: 92f3 49be 91ff 99bd 44a5 4fbe 634e 19be
00000240: ae1d 50be afe1 57be 1749 c5bd bb2e 36be
00000250: d660 44be 8381 5fbe 6952 3ebe 9218 e3bd
00000260: e1fc 3cbe e741 31be 35c1 9ebb 5cb2 97bd
00000270: ebf4 08be 636b efbc bfeb bcbd d694 87bd
00000280: 9e7e 2cbc 9dbd 46be c1b3 64be 9e71 65be
00000290: 2f26 cbbd fd4a 66be 5b27 9dbd 81ae 77be
000002a0: 64b3 85bd 9b32 76be 2a51 6dbe 27a0 d8bd
000002b0: 2c9e 19be dcf1 6abe 1fd0 73be 00c0 6a3e
000002c0: f1a5 f63d 1338 883d ead8 9cbd 4a32 3dbe
000002d0: 17a2 38be 9d23 16be 6095 6abd 8857 b4bd
000002e0: 48e1 25bd ab79 e9bd b81b 233d 56ca 8fbc
000002f0: 170c 543c 9af9 7d3e f8f4 5dbd 0618 0fbe
00000300: 3e42 12be 81d3 e0bd 13d2 9bbd e8c2 013e
00000310: 0603 143d e152 9ebd 3f74 1dbe f690 173e
00000320: 80dd 10be 06b7 4dbe e150 17be 9264 89bd
00000330: eca7 89bd 84e5 16be 4f27 dbbd 2d8c f6bd
00000340: 3ec1 b3bd b021 b1bd f2e2 40be 7148 db3a
00000350: 5884 59bd c953 11be db2c 293e b515 53bb
00000360: c16f 5bbd e078 afba 6b1f d43c d7a3 04be
00000370: 0d4e 0e3d 653b d3bd 7eb5 e4bd 9efd 09be
00000380: 3668 bbbd e834 febd 8590 cbbc 97d6 ebbc
00000390: 9ccf d7bd 7c79 c9bd 7a12 b3bd 5c01 3d3d
000003a0: be49 c8bd 51c6 fabd 3d8f 0e3e e81e 8fbd
000003b0: de49 05bd d610 b4bd f219 d6bd 0515 34bd
000003c0: af84 cfbb 7adf dc3c 10a5 5cbe 9c86 11be
000003d0: 441b 623e 3052 3ebe ebb1 5ebe fc35 01be
000003e0: 6acf 2bbe 4a73 1cbe 54a1 d9bd b151 4cbd
000003f0: bf44 80bd 7ce4 49be 2b42 7ebe 9dcc 01be

bias f4 [51]
0.041847203 0.17616598 0.07554503 0.23258464 0.13243772 0.16223174 0.24502029 0.13538289
0.14927694 0.09907148 0.04075913 0.10725995 0.06113143 0.18712881 0.14380892 0.106873006
-0.040636916 0.05895395 0.19322626 -0.149666 0.060591392 0.1077936 0.18105724 0.19474891
0.11601344 0.07983663 0.058647867 0.14261517 0.07971706 0.1009982 -0.111064166 0.16267459
0.10554092 0.09484798 0.20160031 0.09806215 0.23415741 -0.07055706 0.08992445 0.15038413
-0.039855093 0.08305359 0.101519786 0.20735918 0.09845788 0.055874642 0.032469768 0.22792147
0.23116931 -0.08935268 0.08090806
00000000: f967 2b3d db64 343e 5ab7 9a3d ab2a 6e3e
00000010: c19d 073e 1420 263e 99e6 7a3e d0a1 0a3e
00000020: 0edc 183e fde5 ca3d 0cf3 263d 1bab db3d
00000030: f364 7a3d b29e 3f3e a542 133e 3ce0 da3d
00000040: e572 26bd b279 713d 1bdd 453e 0b42 19be
00000050: ae2e 783d e4c2 dc3d 1267 393e 426c 473e
00000060: 7498 ed3d 6381 a33d bf38 703d b609 123e
00000070: b342 a33d 25d8 ce3d 9c75 e3bd 2b94 263e
00000080: d625 d83d a83f c23d 5070 4e3e cfd4 c83d
00000090: f6c6 6f3e 3880 90bd 4f2a b83d 4cfe 193e
000000a0: 183f 23bd 0018 aa3d 9be9 cf3d f755 543e
000000b0: 49a4 c93d cfdc 643d 05ff 043d 3f64 693e
000000c0: a6b7 6c3e 8afe b6bd 20b3 a53d

weight f4 [34, 51]
0.10524601 -0.22271128 -0.16506425 0.0457019 -0.06622961 -0.09765242 -0.220247 -0.19664508
0.09788363 -0.15725291 -0.23421969 -0.07623282 -0.08345217 -0.010459318 -0.1533172 -0.1559518
-0.2419771 -0.09994558 -0.14667495 -0.053312976 -0.20235251 -0.2728823 0.04628414 -0.13650337
-0.009742934 -0.05691059 0.044149626 0.08831762 -0.10225719 -0.11109424 -0.036897313 -0.03354652
-0.057474535 -0.08403359 -0.17809989 -0.06443392 -0.2820077 -0.15122704 -0.0833655 -0.047247995
-0.24560618 -0.14061558 0.010131878 -0.11548046 -0.15207109 0.07366974 -0.1858431 0.098655
-0.113568224 -0.1678458 0.090538226 -0.049703076 0.17705801 0.13012311 -0.071321234 0.104398236
0.18080397 0.094000325 0.22126645 0.13745965 0.24783307 0.16002683 0.24416943 0.18982035
-0.014952976 -0.011788627 0.24146575 0.008634185 -0.06203952 0.22575329 0.01396206 0.13479674
0.21313691 0.110675976 -0.083353005 0.015528051 0.24196102 0.06802 -0.039727673 0.02148986
0.18383016 0.19411112 -0.11319194 0.0047521363 0.10968749 0.18520202 0.088782035 0.09884923
0.097042434 0.25463533 0.1179523 0.17890874 -0.024288103 -0.107300244 0.09125017 0.23078416
-0.075832665 0.007050622 0.030767595 0.26479375 0.201502 -0.065617844 0.04107848 0.03886485
0.038592845 0.10743992 -0.07173021 -0.17252788 -0.15986864 0.10618268 -0.14048083 0.18760669
0.20460697 0.09970984 -0.010254231 -0.017839506 0.15690215 0.032986846 0.08867833 -0.06866009
-0.099926926 0.11220452 -0.031986404 -0.21232079 -0.026995046 -0.109192066 -0.000993616 0.17127149
-0.035607286 0.03568994 0.14894804 -0.055628475 -0.20193806 -0.010220228 -0.021109834 0.03100786
0.120185785 -0.026780909 -0.16190661 -0.18121716 0.22367293 -0.014063086 -0.005233444 -0.01932076
-0.14613003 0.116254084 0.01821251 -0.11706521 0.12341205 -0.02365215 0.09997037 0.06697909
0.019700214 0.060202714 -0.1487299 0.0549778 0.026823722 -0.06864971 -0.08361872 -0.038327757
0.07363404 0.019153519 0.020425286 -0.1299063 0.07523972 -0.11784461 -0.04476043 -0.013959558
-0.12093386 -0.16820022 -0.075712346 -0.18685578 0.10195115 -0.0107960375 -0.08992311 0.0128982095
0.05252352 -0.01857565 0.082494594 -0.071606055 0.05666392 0.1449437 -0.19723524 -0.16438147
-0.13990249 0.051626705 0.1176141 0.120626874 -0.094830714 0.025954215 -0.100879356 -0.0833035
0.03627346 0.07397213 -0.06374424 -0.03082901 -0.033911362 -0.119170174 0.04252073 0.09340622
-0.085718304 -0.1162699 -0.039092094 -0.0862988 0.22761516 0.18892337 0.046249673 0.24646963
0.086411886 -0.1015482 0.15154812 -0.011470668 0.20819725 -0.07623026 0.027728226 0.19523187
0.006253878 0.11110885 0.1377687 -0.0692969 -0.13994387 0.24696632 0.1369861 0.05285891
-0.04373503 0.13189472 0.006549437 0.06921855 0.2025393 0.08360159 0.23333606 0.13796836
0.25543618 0.1454124 -0.05779729 0.2665805 0.043187518 0.16072655 0.08196233 0.17968212
0.056881666 -0.11245081 0.0044204574 -0.039617155 -0.039937418 0.09547306 0.008329145 0.19077395
-0.029449748 0.06448428 0.08147995 0.23321511 0.023334507 -0.14246963 0.24934946 0.0065815197
00000000: 388b d73d 6d0e 64be 9a06 29be ea31 3b3d
00000010: 64a3 87bd fefd c7bd 6e88 61be 545d 49be
00000020: 3677 c83d e806 21be 49d7 6fbe f41f 9cbd
00000030: f9e8 aabd 8f5d 2bbc 2fff 1cbe d4b1 1fbe
00000040: d8c8 77be 45b0 ccbd f531 16be b55e 5abd
00000050: 7f35 4fbe 3bb7 8bbe 7094 3d3d 8ac7 0bbe
00000060: d4a0 1fbc 141b 69bd 3dd6 343d dedf b43d
00000070: 386c d1bd 6085 e3bd a321 17bd 1368 09bd
00000080: 6b6a 6bbd ce19 acbd d15f 36be eef5 83bd
00000090: 5063 90be 43db 1abe 88bb aabd 1d87 41bd
000000a0: 3080 7bbe 88fd 0fbe 2d00 263c 0581 ecbd
000000b0: 86b8 1bbe 29e0 963d a74d 3ebe a20b ca3d
000000c0: 7596 e8bd c5df 2bbe 1b6c b93d 7495 4bbd
000000d0: b24e 353e fe3e 053e de10 92bd bece d53d
000000e0: ad24 393e 3e83 c03d ac93 623e 39c2 0c3e
000000f0: f4c7 7d3e 13de 233e 8d07 7a3e 4460 423e
00000100: 54fd 74bc 1625 41bc cc42 773e 6676 0d3c
00000110: 271d 7ebd df2b 673e 20c1 643c 2808 0a3e
00000120: 9040 5a3e 16aa e23d fbb4 aabd 5e69 7e3c
00000130: a1c4 773e 124e 8b3d 7cb9 22bd 810b b03c
00000140: f93d 3c3e 11c5 463e 2dd1 e7bd cfb7 9b3b
00000150: d6a3 e03d 99a5 3d3e 5bd3 b53d 7771 ca3d
00000160: 2fbe c63d 905f 823e fa90 f13d da33 373e
00000170: d8f7 c6bc 3bc0 dbbd 5ee1 ba3d af52 6c3e
00000180: 284e 9bbd e708 e73b 530c fc3c 0c93 873e
00000190: 8a56 4e3e a662 86bd e941 283d c030 1f3d
000001a0: 8813 1e3d 7609 dc3d 4ae7 92bd 26ab 30be
000001b0: 9bb4 23be 4e76 d93d 35da 0fbe f81b 403e
000001c0: 7d84 513e ac34 cc3d 5d01 28bc 2824 92bc
000001d0: f5aa 203e 371d 073d fc9c b53d a99d 8cbd
000001e0: 7da6 ccbd 7ccb e53d 2d04 03bd 9f6a 59be
000001f0: b724 ddbc 17a0 dfbd 383c 82ba cb61 2f3e
00000200: f2d8 11bd 9d2f 123d d685 183e afda 63bd
00000210: dac8 4ebe be72 27bc 88ee acbc 3204 fe3c
00000220: f723 f63d a363 dbbc d9ca 25be fe90 39be
00000230: 840a 653e dc68 66bc 4f7d abbb 9246 9ebc
00000240: 1ca3 15be 9f16 ee3d 6732 953c e3bf efbd
00000250: 75bf fc3d 27c2 c1bc 44bd cc3d 552c 893d
00000260: 5862 a13c 1f97 763d a74c 18be 6730 613d
00000270: 6cbd db3c 3898 8cbd 4b40 abbd 91fd 1cbd
00000280: 72cd 963d d7e7 9c3c ee52 a73c 2806 05be
00000290: 4817 9a3d 8458 f1bd b656 37bd a1b6 64bc
000002a0: 2cac f7bd ae3c 2cbe 130f 9bbd 1f57 3fbe
000002b0: c4cb d03d dde1 30bc 9c29 b8bd 0353 533c
000002c0: e722 573d f62b 98bc edf2 a83d 32a6 92bd
000002d0: 6d18 683d 1f6c 143e 09f8 49be 9e53 28be
000002e0: 9942 0fbe 8676 533d a9df f03d 390b f73d
000002f0: 9b36 c2bd ef9d d43c d699 cebd 079b aabd
00000300: 7b93 143d b37e 973d 578c 82bd 1f8d fcbc
00000310: a4e6 0abd 7e0f f4bd 382a 2e3d c34b bf3d
00000320: 148d afbd ea1e eebd 081f 20bd 6dbd b0bd
00000330: f313 693e 2175 413e 4c70 3d3d 8962 7c3e
00000340: b7f8 b03d 81f8 cfbd 6e2f 1b3e 78ef 3bbc
00000350: a931 553e 9c1e 9cbd 4e26 e33c ddea 473e
00000360: 55ed cc3b 098d e33d 3d13 0d3e 88eb 8dbd
00000370: 724d 0fbe bde4 7c3e 1646 0c3e 9682 583d
00000380: 8123 33bd 690f 073e a99c d63b 75c2 8d3d
00000390: 7666 4f3e 4f37 ab3d a6ef 6e3e 9447 0d3e
000003a0: 88c8 823e fde6 143e dabc 6cbd 3d7d 883e
000003b0: 65e5 303d 8095 243e dedb a73d 97fe 373e
000003c0: c0fc 683d 9c4c e6bd 7cd9 903b 9945 22bd
000003d0: 6b95 23bd 6187 c33d f776 083c 3f5a 433e
000003e0: 9940 f1bc 5610 843d f6de a63d f1cf 6e3e
000003f0: 0228 bf3c 8fe3 11be 7755 7f3e caa9 d73b

bias f4 [34]
-0.12700324 0.17399167 -0.069826856 -0.023408331 0.07495841 0.14695227 -0.15539582 -0.2549606
-0.27565864 -0.23454623 -0.24947008 -0.05652141 -0.2515906 0.10608577 -0.16024518 -0.06967861
0.28267935 0.042705752 -0.11521658 -0.26394597 -0.087923154 0.2631981 0.17264892 0.109226815
-0.08310115 -0.16269596 -0.14020154 -0.21033092 -0.12554702 -0.05951474 -0.08147145 -0.18211535
-0.116863266 -0.26266578
00000000: 230d 02be df2a 323e 6201 8fbd d4c2 bfbc
00000010: cb83 993d a87a 163e 1520 1fbe 328a 82be
00000020: 2123 8dbe e32c 70be 1675 7fbe fe82 67bd
00000030: 7cd0 80be 7f43 d93d 5017 24be a9b3 8ebd
00000040: 59bb 903e 3aec 2e3d acf6 ebbd ed23 87be
00000050: 0e11 b4bd e7c1 863e e1ca 303e 4fb2 df3d
00000060: f030 aabd c599 26be fe90 0fbe fd60 57be
00000070: 668f 00be bac5 73bd 81da a6bd 727c 3abe
00000080: 0256 efbd 217c 86be
