models_m3/model_agg_num_7.pt (torch, 49679 bytes, 4 tensors)

weight f4 [48, 91]
0	0xbe3b12d7	-0.18268906
1	0xbd3e5424	-0.04646696
2	0xbe5288a5	-0.20559938
3	0xbe1a0448	-0.15040696
4	0xbdad2f44	-0.08456281
5	0x3e322df0	0.17400336
6	0xbe48267e	-0.19545934
7	0x3df392fb	0.11893269
8	0xbe4072b7	-0.1879376
9	0xbe4e6723	-0.20156531
10	0xbde18b7c	-0.11012933
11	0xbdfac6ee	-0.12244974
12	0xbdb44416	-0.08802049
13	0xbd2e40f3	-0.04254241
14	0xbe5e9d3e	-0.2173967
15	0xbe3dbf35	-0.18529971
16	0xbe153b8b	-0.14573495
17	0xbe4a8565	-0.19777448
18	0x3e74d181	0.23908044
19	0x3e73d9f9	0.23813619
20	0x3d2b649f	0.041844007
21	0x3d593bc0	0.053035498
22	0x3db30233	0.08740654
23	0x3de6b953	0.112658165
24	0xbdd76aa0	-0.10518384
25	0xbe5e1b23	-0.2169004
26	0xbe0c68df	-0.1371188
27	0x3d737e5c	0.059446678
28	0xbd3df44a	-0.04637555
29	0x3bd8cd46	0.0066162674
30	0xbdd5dd9f	-0.104426615
31	0xbd22f9c2	-0.03978897
32	0xbe4edbfc	-0.20201105
33	0x3e17fbfd	0.1484222
34	0x3e7305d8	0.23732698
35	0x3e1483a1	0.14503337
36	0x3d886f56	0.06661861
37	0x3dc46058	0.095886886
38	0x3d5c1585	0.05373146
39	0xbdc2fe01	-0.09521104
40	0xbe4829e8	-0.19547236
41	0xbdc3babd	-0.09557102
42	0x3e4f5ee1	0.20251037
43	0xbe2cb324	-0.16865212
44	0x3e343b3a	0.17600718
45	0xbe330364	-0.17481762
46	0xbd76f05e	-0.060287826
47	0xbe4eb6ab	-0.2018687
48	0xbd17fde5	-0.037107367
49	0xbe50e25d	-0.2039885
50	0x3e51ebbd	0.20500083
51	0xbde2ee29	-0.11080582
52	0x3d511c8c	0.051052615
53	0xbc17f7d4	-0.009275395
54	0xbdc0341d	-0.0938494
55	0xbe3f5646	-0.18685254
56	0xbdb5f3a6	-0.08884363
57	0xbe368a8e	-0.17826292
58	0xbe41308d	-0.18866177
59	0xbde9e07e	-0.114197716
60	0xbe2378ee	-0.159641
61	0xbe5ccf2c	-0.21563405
62	0xbd8ba9a1	-0.068194635
63	0x3e2d3256	0.16913733
64	0xbd2afff6	-0.04174801
65	0x3e4a27ed	0.19741793
66	0x3dc9eed3	0.09860005
67	0x3e6a4045	0.2287608
68	0x3e0669c4	0.13126284
69	0xbe33883a	-0.17532435
70	0xbe0293fc	-0.12751764
71	0xbe1ca12c	-0.15295857
72	0xbda86380	-0.08222103
73	0xbe449063	-0.19195704
74	0x3da6603a	0.081238225
75	0xbd3ee48c	-0.046604678
76	0xbdd03e58	-0.10168141
77	0xbd92cd37	-0.07168048
78	0x3d999681	0.074994095
79	0x3dcd6700	0.10029411
80	0x3d6782ad	0.056521107
81	0x3e0fe37a	0.14051619
82	0x3e033259	0.12812175
83	0x3e7d3faa	0.24731317
84	0xbe33d6b2	-0.17562369
85	0xbd6d5d41	-0.057950262
86	0xbda5996a	-0.08085902
87	0xbe147f37	-0.14501654
88	0xbd9409f0	-0.07228458
89	0x3e3bb36f	0.18330167
90	0x3c37ed39	0.011225992
91	0xbe71edf3	-0.23625927
92	0xbdf4f026	-0.11959867
93	0xbd69cc88	-0.05707982
94	0xbdf281d1	-0.11841167
95	0xbcfbc50b	-0.030733606
96	0x3e02692b	0.12735431
97	0xbdec5752	-0.115400925
98	0x3d80f956	0.06297557
99	0xbd8c32b8	-0.06845611
100	0xbe48c214	-0.19605285
101	0xbe198710	-0.14992929
102	0xbe55cd6f	-0.20879148
103	0xbd866446	-0.065620944
104	0xbe4fc1a8	-0.20288718
105	0xbe6ab862	-0.22921899
106	0xbe439ff7	-0.1910399
107	0xbe12886e	-0.14309856
108	0xbe4fda99	-0.20298232
109	0x3e191e94	0.14953071
110	0x3df75877	0.1207742
111	0x3e65e188	0.22449315
112	0x3e40bd17	0.18822132
113	0x3e3c3aef	0.18381856
114	0xbe4b13b3	-0.19831733
115	0x3e4f6004	0.20251471
116	0x3dbb0b5a	0.091330245
117	0xbe142595	-0.14467461
118	0x3e13bec2	0.14428237
119	0x3e0367a1	0.128325
120	0x3e114a40	0.1418848
121	0xbe5e8220	-0.21729326
122	0xbdb83764	-0.0899494
123	0xbd23ebc2	-0.040019758
124	0x3e48fed2	0.19628456
125	0x3e459603	0.19295506
126	0x3e74373f	0.238492
127	0x3e5d9412	0.21638516
128	0x3e2c3e61	0.1682067
129	0xbd983fa4	-0.074340135
130	0x3e5d784e	0.21627924
131	0x3e286133	0.16443329
132	0xbe2c98d6	-0.16855177
133	0x3da79dc2	0.08184387
134	0x3dec0723	0.11524799
135	0x3e333713	0.17501478
136	0xbe646945	-0.22305782
137	0xbe733b2b	-0.2375304
138	0xbe0286fd	-0.12746806
139	0xbde9fdb4	-0.11425343
140	0xbd6b9b67	-0.05752125
141	0x3e69f503	0.22847371
142	0xbe5f3981	-0.2179928
143	0x3e14cc37	0.14531027
144	0xbe5d41d8	-0.21607149
145	0xbdff9c0b	-0.12480935
146	0xbe61e382	-0.22059444
147	0xbe6efa42	-0.23337653
148	0xbe06c510	-0.13161111
149	0xbd97598f	-0.07390129
150	0xbe76d6df	-0.24105404
151	0xbe708715	-0.2348903
152	0xbe06e0fc	-0.13171762
153	0xbd2dfe0b	-0.042478602
154	0x3de95af8	0.11394304
155	0xbd41ede5	-0.047346015
156	0x3e0480bc	0.12939733
157	0xbe2ae8e7	-0.16690408
158	0x3e30b355	0.1725591
159	0xbda2179e	-0.07914661
160	0xbdf83cc9	-0.12120969
161	0xbdb8b958	-0.090197265
162	0xbdbdeba7	-0.09273463
163	0xbdc6ec29	-0.09713013
164	0xbe6d6277	-0.23182093
165	0x3e01f55e	0.12691256
166	0xbe62f60d	-0.22164173
167	0xbe09a20c	-0.13440722
168	0xbe103513	-0.14082746
169	0x3db18ffe	0.086700425
170	0x3d8c5c6a	0.06853564
171	0x3d9a76fc	0.07542226
172	0x3e56a8db	0.20962851
173	0x3e5765dd	0.21034952
174	0xbd41e837	-0.047340598
175	0x3e32b079	0.17450131
176	0x3e5a6471	0.21327378
177	0xbe33c1e3	-0.1755443
178	0xbd5c48cd	-0.053780366
179	0xbcb1d63e	-0.021708604
180	0x3d2b3d9f	0.041806813
181	0x3d8e99f6	0.069629595
182	0x3e3337d8	0.17501771
183	0x3df5e55d	0.12006638
184	0x3e01208a	0.12610069
185	0xbdf7544f	-0.120766275
186	0xbd96cc75	-0.07363216
187	0xbe34d880	-0.17660713
188	0x3ce7ed71	0.028311463
189	0xbda34151	-0.079714425
190	0xbacf602e	-0.001582151
191	0xbd06b284	-0.03288509
192	0xbe0207e6	-0.12698326
193	0xbddd4abf	-0.10805272
194	0x3cf4a995	0.02986602
195	0x3c92f8c3	0.017940884
196	0xbd592f19	-0.05302343
197	0xbe45c6b1	-0.19314076
198	0xbdb8288a	-0.08992107
199	0xbd9e7b9b	-0.077384196
200	0x3e182038	0.1485604
201	0x3d2f4e21	0.04279912
202	0x3e205a5a	0.15659466
203	0x3db13704	0.086530715
204	0x3e3ef8dc	0.1864962
205	0x3e545027	0.207337
206	0xbda42615	-0.08015076
207	0xbe6480be	-0.22314736
208	0xbdf5a2b9	-0.119939275
209	0xbe17d614	-0.14827758
210	0xbdfc2e16	-0.12313478
211	0xbe475473	-0.19465809
212	0xbe440cf1	-0.19145562
213	0xbe425825	-0.18978937
214	0xbdef1131	-0.11673201
215	0x3e4e0909	0.20120634
216	0x3d5221cc	0.051301762
217	0x3e4837d4	0.19552547
218	0x3e76f77b	0.24117844
219	0x3d6783b4	0.056522086
220	0xbde10368	-0.10986978
221	0xbdfa05b0	-0.12208116
222	0xbe4ecd4e	-0.20195505
223	0xbe008bce	-0.12553331
224	0xbe707ada	-0.23484364
225	0xbe1b305c	-0.15155166
226	0xbd4751be	-0.04866194
227	0x3e63fb32	0.22263792
228	0x3e25abda	0.16178837
229	0x3e42c96c	0.19022149
230	0x3d035124	0.032059804
231	0xbe221d23	-0.15831427
232	0xbd87a432	-0.06623115
233	0xbd03f20a	-0.03221325
234	0xbe6d2f42	-0.23162559
235	0x3d0a51d4	0.033769444
236	0xbd73c1aa	-0.059510864
237	0xbe3139fb	-0.17307274
238	0xbe06eece	-0.13177034
239	0xbc89f955	-0.016842524
240	0xbd6f5ab2	-0.058436103
241	0xb9564b79	-0.00020436746
242	0x3cd2d994	0.025738515
243	0x3e6c0f6e	0.23052761
244	0xbd28a502	-0.04117299
245	0x3e1c8ac7	0.15287314
246	0x3e1375f3	0.14400463
247	0x3e21e34c	0.15809363
248	0xbe0c7a5d	-0.13718553
249	0x3d98764f	0.074444406
250	0xbe42a831	-0.19009472
251	0xbe44a356	-0.19202933
252	0xbe3c9e96	-0.1841987
253	0xbd2bf7cb	-0.04198436
254	0xbe490a47	-0.19632827
255	0xbe2ace2c	-0.16680211

bias f4 [48]
0	0x3d4fd291	0.05073792
1	0x3e1aa638	0.1510247
2	0x3d20d93e	0.03926968
3	0x3ddcd13b	0.10782095
4	0xbdf97a72	-0.12181558
5	0x3e102425	0.14076288
6	0x3e31b7d4	0.17355281
7	0x3e6a9323	0.2290769
8	0x3d9947dc	0.07484409
9	0x3c9f28ca	0.01942863
10	0x3cebe5d9	0.028796123
11	0x3dbda90d	0.092607595
12	0x3df30116	0.118654415
13	0x3e702608	0.23452008
14	0x3e1e8d52	0.15483597
15	0x3d9205f4	0.07130042
16	0x3d4abdba	0.049497344
17	0x3e13d6fa	0.14437476
18	0x3d74bca3	0.05975021
19	0x3d204ad4	0.03913386
20	0x3e5d2464	0.21595913
21	0x3e0a539b	0.13508455
22	0xbd1a520b	-0.0376759
23	0x3e357fe2	0.17724565
24	0x3e4425bc	0.1915502
25	0x3dee8d8f	0.11648094
26	0xbcbbff6f	-0.022948949
27	0x3e0ac77a	0.13552657
28	0x3db5bcbc	0.08873889
29	0x3daa2adf	0.08308958
30	0x3d84d571	0.06486023
31	0x3d52b408	0.051441222
32	0x3e36c179	0.17847241
33	0x3ddc4ef4	0.107572466
34	0x3db7bd08	0.08971602
35	0x3e12e801	0.14346315
36	0x3dbde3d2	0.09271969
37	0x3bf32f1e	0.0074213883
38	0x3e434312	0.19068554
39	0x3e4dc9d4	0.20096523
40	0x3e27013a	0.16309062
41	0xbc79fe76	-0.015258422
42	0x3e43da22	0.1912618
43	0x3e08a7cf	0.13345264
44	0x3df7a2f6	0.12091629
45	0x3d42ebd1	0.047588173
46	0x3d95a0fb	0.07306095
47	0x3e590a00	0.21195221

weight f4 [32, 48]
0	0x3d4a1166	0.049333
1	0x3e6407fa	0.22268668
2	0xbcb9d869	-0.0226862
3	0x3e40a6c1	0.18813612
4	0x3e89485c	0.26813018
5	0x3e4e694e	0.20157358
6	0xbcade658	-0.021228
7	0x3df7ce2a	0.120998695
8	0x3e1209fd	0.14261623
9	0x3d5c2b6d	0.05375235
10	0xbd8bcc4e	-0.068260774
11	0xbd20f189	-0.039292846
12	0x3dc23b7b	0.09484001
13	0x3e80c30a	0.25148803
14	0xbd358c65	-0.044323344
15	0x3c127634	0.008939315
16	0xbd831476	-0.06400387
17	0x3ddf537b	0.109045945
18	0xbd3ec430	-0.046573818
19	0xbdca387f	-0.09874057
20	0x3dbef286	0.093236014
21	0xbdae28b2	-0.08503856
22	0x3e30acfb	0.17253487
23	0x3e032d45	0.12810238
24	0x3e8cdd94	0.275128
25	0xbb08cc0d	-0.0020873577
26	0xbc3ea9ba	-0.011637146
27	0x3d73e1ca	0.0595415
28	0x3de672f5	0.11252395
29	0xbab49a5b	-0.0013778912
30	0x3e33fa44	0.17575938
31	0xbd4ef15c	-0.050523147
32	0x3baa1829	0.0051908684
33	0x3e53d84d	0.20687981
34	0x3cb55c77	0.022138817
35	0x3e6f36c7	0.2336074
36	0x3e2c17fe	0.16806027
37	0x3e4656a2	0.19368985
38	0x3e44955a	0.19197598
39	0x3d4f31de	0.050584666
40	0x3c9e46ee	0.019320931
41	0x3dbc5ad6	0.09197013
42	0x3ca3429e	0.019929226
43	0xbd8899e8	-0.0666998
44	0x3e867e23	0.2626811
45	0x3e0a4051	0.13501097
46	0x3dbff290	0.09372437
47	0x3e218496	0.15773234
48	0x3dfb488c	0.122696966
49	0x3dca1353	0.09866967
50	0x3d4cb57d	0.04997777
51	0xbd5eabfc	-0.054363236
52	0xbd2f59e0	-0.04281032
53	0x3d920799	0.071303554
54	0x3de57094	0.11203113
55	0x3e26b1b2	0.16278723
56	0x3df15bbc	0.11785075
57	0xbddf4559	-0.10901899
58	0xbcbc329e	-0.022973355
59	0x3e25c240	0.16187382
60	0xbcf5b0a3	-0.029991454
61	0x3ca4269f	0.020037947
62	0x39db84da	0.00041869917
63	0xbe6d2f2f	-0.2316253
64	0x3e06b2ac	0.13154095
65	0x3e03998a	0.12851539
66	0xbcc25b0b	-0.023725053
67	0xbdd1a606	-0.102367446
68	0x3b734f4b	0.003712612
69	0x3d9feae5	0.078084745
70	0x3d3c66ab	0.04599635
71	0x3d32def4	0.043669656
72	0x3bdd4eb0	0.006753765
73	0x3e0c20d6	0.13684401
74	0xbd48044a	-0.048832215
75	0x3d96ae82	0.073575035
76	0x3e1c1152	0.15240982
77	0xbda1f29f	-0.079076044
78	0x3ca78095	0.020447055
79	0x3e0e6328	0.13905013
80	0x3dadde9a	0.084897235
81	0x3d305a0e	0.043054633
82	0x3da6a465	0.081368245
83	0xbe5166b2	-0.20449331
84	0x3dd52e1e	0.10409187
85	0x3db2f6a5	0.0873845
86	0x3e209fa0	0.15685892
87	0x3dc3ae4c	0.09554729
88	0xbb795b29	-0.003804872
89	0x3de05932	0.10954513
90	0x3e0681fa	0.1313552
91	0xbc326512	-0.010888355
92	0xbd5b931b	-0.053607088
93	0xbcd99d12	-0.026564155
94	0xbc13fb7d	-0.009032127
95	0x3db9ddeb	0.090755306
96	0xbe879d70	-0.26487303
97	0xbdb60afb	-0.08888813
98	0xbe81c0cf	-0.25342414
99	0xbe190768	-0.14944232
100	0xbe488072	-0.19580248
101	0xbd9ab071	-0.07553185
102	0x3d7f72a6	0.062365197
103	0xbe495e9a	-0.19664994
104	0xbe3ba58c	-0.1832487
105	0xbda418da	-0.080125526
106	0xbe40d99f	-0.18833016
107	0xbe4626ed	-0.19350787
108	0xbe57cda9	-0.21074547
109	0xbe3398c9	-0.17538752
110	0x3d24a613	0.040197443
111	0xbdca88db	-0.09889384
112	0x3ddf343b	0.10898634
113	0xbe47dc94	-0.19517738
114	0xbe2bfa8f	-0.167948
115	0xbce74b7d	-0.028234238
116	0xbe253fcc	-0.16137618
117	0xbb713100	-0.0036802888
118	0xbe1401c6	-0.14453802
119	0xbe92512c	-0.28577554
120	0xbe91fa0b	-0.2851108
121	0xbd3845e3	-0.044988524
122	0xbdc53fd5	-0.096313156
123	0xbe188df1	-0.14897896
124	0xbe0ddb5f	-0.13853215
125	0x3cb27eeb	0.021789035
126	0xbd15c270	-0.036562383
127	0xbe110319	-0.14161338
128	0xbcbcdc1b	-0.023054173
129	0xbe39b0ab	-0.181338
130	0xbdcac54e	-0.09900914
131	0xbe21ce61	-0.15801384
132	0xbe30b561	-0.1725669
133	0xbe1d4cf0	-0.1536138
134	0xbe0a8700	-0.13528061
135	0x3bc156ed	0.005900255
136	0xbd9bcc09	-0.07607276
137	0xbd7e7db5	-0.062131602
138	0xbd58b9a6	-0.052911423
139	0x3c83ee8c	0.016104959
140	0xbe76a98d	-0.24088116
141	0x37b54282	2.1607852e-05
142	0xbdb461b3	-0.08807697
143	0xbb3a3ffe	-0.002841949
144	0xbe2a4e86	-0.16631517
145	0xbe04d4b5	-0.12971766
146	0x3db6a7ea	0.08918746
147	0xbc05e360	-0.008171886
148	0xbc97702a	-0.018486101
149	0x3df9ba75	0.12193767
150	0x3e06a301	0.13148119
151	0x3e43cab1	0.1912029
152	0xbe287b37	-0.16453253
153	0x3e21ad83	0.15788846
154	0x3d802630	0.06257284
155	0xbd98eea0	-0.07467389
156	0x3dc49ef7	0.09600633
157	0xbe8436b2	-0.2582298
158	0x3c15af24	0.009135995
159	0xbbca2215	-0.0061686137
160	0x3da5f466	0.08103256
161	0xbdba8ada	-0.09108515
162	0xbe8ee0d1	-0.27905896
163	0xbd9b0a45	-0.07570318
164	0xbddcb979	-0.107775636
165	0x3d535048	0.051590234
166	0x3e206d05	0.15666588
167	0xbe4995a0	-0.19685984
168	0xbc8512e8	-0.016244367
169	0x3e24d9f6	0.1609877
170	0xbdc5d8c9	-0.09660489
171	0x3d33e941	0.04392362
172	0xbe6e73c4	-0.23286349
173	0x3db5e965	0.08882407
174	0xbc71151a	-0.014714504
175	0x3de93e93	0.11388888
176	0xbdfbf595	-0.123027004
177	0xbe2c5dde	-0.16832682
178	0x3e0c28d9	0.13687457
179	0x3d522bf8	0.051311463
180	0xbd8f1312	-0.06986059
181	0xbd190138	-0.037354678
182	0x3e0e3844	0.13888651
183	0xbd5cd721	-0.0539161
184	0x3d0fabd0	0.035075963
185	0xbd8593f2	-0.06522359
186	0x3db92439	0.09040112
187	0x3dbd6469	0.09247667
188	0x3e76d1b2	0.2410343
189	0xbe5dd58d	-0.21663494
190	0xbe8d8fe7	-0.2764885
191	0x3dae609b	0.0851452
192	0x3e65ea29	0.22452606
193	0x3da445fa	0.080211595
194	0x3e4336a7	0.19063817
195	0x3c4b1727	0.012395657
196	0x3e5c5e3e	0.21520326
197	0x3e5fdd61	0.21861793
198	0xbd280b85	-0.04102661
199	0x3da165a1	0.07880712
200	0x3e5334b8	0.2062558
201	0x3e3767be	0.17910668
202	0x3e18b6d7	0.14913498
203	0xbca0dca7	-0.019636465
204	0x3e872c52	0.26401
205	0x3c9138c9	0.017727273
206	0x3dc3db6f	0.09563338
207	0x3d89596d	0.0670651
208	0xbc715bee	-0.01473139
209	0x3d3ec36a	0.04657308
210	0x3e825d71	0.25461915
211	0xbd80fc56	-0.06298129
212	0x3e785ea2	0.2425485
213	0x3e5f7a53	0.21824007
214	0x3d809b9e	0.062796816
215	0x3e404047	0.1877452
216	0x3db4c210	0.08826077
217	0xbd7a62a0	-0.061129212
218	0x3c8ee679	0.017443882
219	0x3df35629	0.11881668
220	0x3d227f7b	0.039672356
221	0x3d61eec9	0.055159364
222	0x3e68d04a	0.22735706
223	0x3e2b21ab	0.16712062
224	0x3a9f92b0	0.0012174454
225	0x3e4ce575	0.20009406
226	0x3da780b1	0.08178843
227	0x3e4617c7	0.19345008
228	0x3e71e03c	0.23620695
229	0xbb47bb96	-0.00304768
230	0x3d8dceba	0.069241956
231	0x3e216d8d	0.15764447
232	0x3e1783b3	0.14796333
233	0x3dd3328e	0.10312377
234	0x3ced10fc	0.028938763
235	0x3e03c3fd	0.12867732
236	0x3dd6f06e	0.10495077
237	0x3e0b69bc	0.13614553
238	0x3da431a0	0.08017278
239	0x3e6dbfcc	0.23217696
240	0x3e25e897	0.16202007
241	0x3dd7c215	0.10535065
242	0x3ccb8a09	0.024846094
243	0x3e91a008	0.28442407
244	0x3d1294e5	0.03578653
245	0x3c950a59	0.01819341
246	0x3e4d39f6	0.20041642
247	0x3d8e2e98	0.06942481
248	0x3e7f1d8c	0.24913615
249	0x3e30d2fa	0.17267981
250	0x3d734972	0.059396215
251	0x3c83505b	0.016029527
252	0x3d462696	0.048376642
253	0x3e90ef92	0.28307778
254	0x3e1753dc	0.14778084
255	0x3d742a1f	0.059610482

bias f4 [32]
0	0x3e47887f	0.19485663
1	0x3d7dc31b	0.061953645
2	0xbe818f0d	-0.25304452
3	0x3db8055c	0.08985397
4	0x3e4efd0a	0.20213714
5	0x3dda1c2c	0.106499046
6	0x3d0833e6	0.03325262
7	0xbe3234dc	-0.17402977
8	0xbcc48bc0	-0.02399242
9	0xbcc4004a	-0.02392592
10	0x3dfbc1dd	0.12292836
11	0x3cce5ac1	0.02518976
12	0xbbab0842	-0.0052194903
13	0xbe7adb69	-0.24497761
14	0xbdb54cb8	-0.088525236
15	0xbdfe8c49	-0.12429101
16	0xbcb113c6	-0.021615874
17	0xbe0ececf	-0.13946079
18	0xbdcfb3a5	-0.10141686
19	0xbe922520	-0.2854395
20	0xbbb3ca57	-0.0054867673
21	0xbe81d36d	-0.25356618
22	0xbd17487f	-0.036934372
23	0xbe73ecbc	-0.23820776
24	0xbde75583	-0.11295607
25	0xbe11afeb	-0.14227264
26	0xbd13f009	-0.036117587
27	0xbe8e85c3	-0.27836427
28	0xbcbcf0dd	-0.023064071
29	0xbb80a1f2	-0.0039255554
30	0xbdd0ec5f	-0.10201334
31	0xbc2c7035	-0.010524799
