models_m3/model_agg_num_8.pt (torch, 48143 bytes, 4 tensors)

weight f4 [46, 91]
00000000: 4018 72bd 14f0 0dbe 1550 adbd e4b4 0bbe
00000010: cfe4 f1bd 0c45 5cbe a396 2fbe 2bdc 4cbe
00000020: 647c 51be 8fa4 56be be66 40be 6c6f 00be
00000030: da37 16be bac9 c5bd a2f1 b8bd 9db9 1ebe
00000040: d23e 8fbd 5822 5dbe f05c 813d 758a 993d
00000050: 7d25 473e 720a d63d 18be 393d 4136 613e
00000060: 1c79 6abe ca9c 233e 9a5a 3abe 326a d5bd
00000070: 3713 af3d b92c 6fbe ea89 6cbe af15 60be
00000080: 509e 3abe 0902 173e b952 c23d db68 df3d
00000090: 1343 263e e28c 243e 6dd4 e43d 79fa 71bd
000000a0: 7b40 ce3d 3fb8 15bd a4bf 41be d328 be3d
000000b0: b0ef 30be 24fb 2abe a687 56be 7e99 93bd
000000c0: c913 6cbe 5abb 14be a5b7 77be 0d32 55be
000000d0: bc2f 04be 931c 23be 7484 27be 4f5d 09be
000000e0: 47fe 30be 0c85 70be 7b26 17be 8ee9 d8bd
000000f0: aa60 8dbd 4ff8 51be 581f 5cbe 9498 aa3b
00000100: f958 aabd cea1 523d 6fc0 7bbd 3935 3b3e
00000110: 6f39 5d3e 7af2 39be e117 21bd 2e03 3fbe
00000120: cc4c 20be 3069 653e c64a 4cbe bdeb 2cbe
00000130: 194f 06be f49d e0bd b3b3 e5bd f7fd 47be
00000140: 7f45 a43d 332c 9cbc 2d99 bcbd 8512 6b3d
00000150: 950f 34be dce0 2a3e 7996 1abe 1fc5 e0bd
00000160: 8814 223e ef5b 86bd 2899 913d 6928 4dbe
00000170: db07 37be b7b9 64be 049d 39be d2cb 47be
00000180: 4689 68be ff80 78be ed5f 6fbe f37b 19bd
00000190: f7ed 3fbe cbe2 65bd f579 40be 82bc c8bd
000001a0: ac12 55be 6fea 32bd 75d3 84bc d62a 97bd
000001b0: 518f 8abd 14c2 2c3e 0ad4 453d 45eb 2c3e
000001c0: 1eb0 a93d ce48 473e ae12 7a3e 9934 00bd
000001d0: 3fe0 07be 6bcd 0dbe adb7 e23c cea4 9a3d
000001e0: acc6 e5bd 1332 2cbd d1f7 373b 408a 2dbe
000001f0: 5853 693e f10f 073e 1b2e 7b3e 79dc 203d
00000200: f1b4 e4bd 2511 f93d a9e7 61be d4e9 04bd
00000210: 7389 16be a812 aebc 9f36 6e3e 4d88 1abe
00000220: 2b04 a9bd cb15 bcbd 32b2 d0bd d0b8 05be
00000230: ffd4 58be 1e2e 72be 5978 d0bd 8996 5bbe
00000240: 6f57 003c 1cc8 f9bd b5a6 48be 69eb 3fbe
00000250: d5fc f1bd d90c 17be 577a 54bd 80c7 f7bd
00000260: 248e 09be 2991 57be c972 193e 7f07 5fbe
00000270: 6680 083e 5c46 523d c124 c83d bd36 723e
00000280: e63e a3bd 6988 4cbe 357a 97bd d91f 24be
00000290: 3801 4d3e 13db 51be 835e 70bd a6e4 6cbb
000002a0: 096a f8bc 8297 3c3c 0a33 c03c f71d 603e
000002b0: 6e7e da3c e288 053d 3c3b f93d 7a5b 43be
000002c0: d0cd a9bd 6ab8 8cbd 9b77 73be 6f01 ce3d
000002d0: 70ce 2dbe 23c1 593e 2301 17be 9e51 73be
000002e0: b1bf ebbd e54f ecbd 1bd7 e4bd be22 71bd
000002f0: a2e9 78be d73c 05be d1fb 49be a3cc 40be
00000300: 3020 55be 1b3b 2abe a99c 74be 56c5 73be
00000310: ce83 7dbd 3730 a3bd 74dc 3abe bdd6 35be
00000320: b4c2 04bd 2183 73bd 2689 083d 96e8 383d
00000330: 91ac c93d 2818 053e 5167 48be a24b 43be
00000340: 9ba0 cabd 85ef 82bd 3506 b23d 9684 b1bd
00000350: 37d5 1abe 0549 26bd 679d 40be b3af 573e
00000360: 4def 953d 2ce7 5e3e b872 9f3d 3078 073e
00000370: 2a4a 143e d89b 11be cba7 22be 284d e9bd
00000380: 8d96 2fbd 88a9 663e a52a 4abe 44e5 3abe
00000390: 5c2d a8bd ff99 2dbe 6596 31be c0ff d7bd
000003a0: 1d99 4cbe dc8b 5cbe 9306 6dbd a26e 6fbe
000003b0: c191 50be c68f c4bd edd5 1fbe 3263 babd
000003c0: a775 1fbe 1b84 03be 1767 17be 1fc9 b2bd
000003d0: 8951 dfbd 3fc0 23bd 739a 95bd 7ce4 00bd
000003e0: 7527 adbd 7041 e23d f452 f53d 0828 37be
000003f0: 1c58 0bbe 6c91 74be b892 bebd c4ff 503e
-0.059105158 -0.13861114 -0.0846254 -0.13643223 -0.1181122 -0.21510714 -0.17147307 -0.20005862
-0.20457608 -0.20961212 -0.18789193 -0.12542504 -0.14669743 -0.09657617 -0.09030463 -0.15500493
-0.06994404 -0.21595132 0.063165545 0.07497112 0.19447894 0.10451211 0.045347303 0.21993352
-0.22897762 0.15977779 -0.18198624 -0.10420646 0.08548587 -0.23356904 -0.23099485 -0.21883272
-0.18224454 0.1474687 0.09488434 0.109086715 0.16236524 0.16069368 0.111733295 -0.05907676
0.100708924 -0.036552664 -0.18920761 0.0928513 -0.17278934 -0.16697365 -0.20950183 -0.07207011
-0.23054422 -0.14524594 -0.24191149 -0.20819874 -0.12908834 -0.15928869 -0.1635912 -0.134145
-0.17284499 -0.23488253 -0.14760773 -0.10591422 -0.06903203 -0.20504878 -0.21496332 0.005206177
-0.083177514 0.05142384 -0.061462816 0.18282022 0.2160394 -0.18158904 -0.039329413 -0.18653557
-0.15654296 0.22403407 -0.19950399 -0.16886802 -0.13116111 -0.10967627 -0.112159155 -0.19530474
0.08021068 -0.019064045 -0.092089035 0.05739071 -0.17584069 0.1668734 -0.15096463 -0.10975098
0.15828145 -0.06560504 0.0710929 -0.20034947 -0.1787409 -0.2233647 -0.18126303 -0.19511345
-0.22708616 -0.24267958 -0.23376437 -0.037471723 -0.1874312 -0.05612449 -0.18796523 -0.0980158
-0.20807904 -0.043680605 -0.016214112 -0.07381217 -0.06765617 0.1687091 0.04829792 0.16886623
0.08285545 0.19461367 0.24421188 -0.03130016 -0.13269137 -0.13847892 0.027675474 0.07550965
-0.11219534 -0.042039942 0.0028071294 -0.1694727 0.227857 0.13189675 0.24529307 0.03927276
-0.11167324 0.12161473 -0.22061028 -0.03244956 -0.1470087 -0.02124913 0.23263024 -0.15091057
-0.08252748 -0.09183844 -0.10190238 -0.13058782 -0.21175002 -0.23650405 -0.101792045 -0.21444143
0.007833346 -0.12196371 -0.19594844 -0.18742146 -0.11815802 -0.14750995 -0.051874485 -0.120985985
-0.13433129 -0.21051468 0.14985193 -0.21780203 0.1333023 0.05133663 0.09772635 0.23653693
-0.07970981 -0.19973911 -0.07396356 -0.16027774 0.20019996 -0.20493726 -0.058683883 -0.0036147027
-0.030323999 0.011510732 0.023461837 0.2188643 0.026671614 0.032601245 0.12169501 -0.19077864
-0.08291209 -0.06871112 -0.23776095 0.10058867 -0.16973281 0.21265082 -0.14746527 -0.23761603
-0.115111716 -0.11538676 -0.111738406 -0.058871023 -0.24307874 -0.1301149 -0.19724967 -0.18828063
-0.2081306 -0.1662411 -0.23887886 -0.23805746 -0.061893277 -0.079681806 -0.18248159 -0.17757697
-0.032412246 -0.059451226 0.03333392 0.045143686 0.098473676 0.12997496 -0.19570662 -0.1907182
-0.09893914 -0.06393341 0.0869259 -0.08667867 -0.15120398 -0.04059698 -0.18810044 0.21063118
0.073210336 0.21767873 0.07785553 0.13229442 0.14481416 -0.14219606 -0.1588432 -0.113916695
-0.042868186 0.22525609 -0.1974283 -0.1825152 -0.082117766 -0.16953276 -0.17342527 -0.10546827
-0.19980283 -0.21537727 -0.057867598 -0.23382047 -0.203681 -0.09597735 -0.1560895 -0.09100951
-0.15572225 -0.12843363 -0.1478542 -0.08729767 -0.109042235 -0.039978262 -0.073048495 -0.0314679
-0.084547915 0.110476375 0.11978713 -0.17886364 -0.1360783 -0.23883599 -0.09305328 0.20410067

bias f4 [46]
00000000: b335 573e e8ca 2e3e 8064 e13d e5fa 8b3c
00000010: 659b fe3d a03c 6d3d 952c 983d 4027 1a3e
00000020: da2a 6a3e 0207 fa3c 601d 7d3d 5ded adbd
00000030: 27e2 033e 9f20 453e 1f6b 453e 0eb8 bc3d
00000040: 1858 603e 0e50 ca3d b48f 073e 0709 3a3e
00000050: 6c71 643e 0231 273e 2a2a bfbd 3caa 433c
00000060: ab12 c33d 58da 173d 86a3 503e ee09 343e
00000070: dc04 ec3d f9cf a7bd cc8e 043e bbe2 c23d
00000080: ad8b 6d3e 115b eb3d 28ab 483e 49ab a13d
00000090: a1d2 9c3d b939 673d 8644 2d3e 3f23 d53d
000000a0: 756e 0a3e 0215 983d 635c 293e 11f4 4d3e
000000b0: 8b26 223d 0a8b 653e
0.21016578 0.1706959 0.11005497 0.01708741 0.12431983 0.057919145 0.07430378 0.15054035
0.22867909 0.03052092 0.061795592 -0.08492539 0.12879239 0.19250725 0.19279145 0.09214793
0.21908605 0.098785505 0.13238412 0.18167506 0.22308892 0.16327289 -0.09334214 0.0119424425
0.09525045 0.037073463 0.20374879 0.17581913 0.11524364 -0.081939645 0.12945098 0.09515902
0.23197813 0.11491979 0.19596541 0.07893998 0.07657362 0.056451533 0.16920671 0.10407113
0.13518699 0.07425882 0.16539149 0.20112635 0.03958754 0.2241632

weight f4 [31, 46]
00000000: ba10 2f3e 3769 5b3e 3bca 763c 9114 3a3e
00000010: b39c 933e 88c8 763e 5238 863d 1f8c 1b3e
00000020: 1f43 303d 249b 363e 3307 5b3e 0d84 433e
00000030: 43ab 833c 8bc2 5c3e f912 193e 1431 283d
00000040: f6b7 bf3d 8350 813e d0d0 d13c 3780 6c3e
00000050: 4148 933e 6153 123d 51d2 fa3b 9823 043d
00000060: 6b3b 163e 5e96 543b 2781 873e 31df 8c3e
00000070: 4559 023e f3f9 653e 8f9c 873e 7ed6 2c3e
00000080: ce00 923d 8354 0e3e 8c46 7d3e 8f82 aa3d
00000090: 64aa 073e 601b fe3d ef06 cb3d 7616 f43d
000000a0: 44b9 8a3d 89f0 c83d cadc 8e3e 9812 c93d
000000b0: 8dd9 fb3d d3d7 8a3e c1ad bbbd 7ce0 7dbe
000000c0: 3afb 3dbe 78be 4cbe 7340 67be aa8c 99bd
000000d0: ed62 483d 58c2 f7bc 7865 85be 03dd 573e
000000e0: 2c52 093e da96 80bc 722e 85be 7fcd 493d
000000f0: e14c d1bc 895d 473e ac29 9a3d e9e0 41bd
00000100: 6e53 5e3e 95fd 72be 6ec7 db3d 6fbb 813c
00000110: 5911 533e 2cc0 3ebe bfab 00bc a28a a03d
00000120: 9e6d 92bd 10dd 50be 6e64 46bd aaae 2ebc
00000130: 81a0 c5bd db31 673e 9936 b2bd f28e 2abe
00000140: 8a1b 8abd cd02 3bbe f595 863a ddbf 24be
00000150: bcb1 183e e1df d8bd d9e7 74be 5d58 4dbe
00000160: 2969 d53d 9643 f23c 7480 89bd f940 023e
00000170: 9759 b6bd 5583 3f3d ea23 8f3d 86e4 94bd
00000180: 39f0 99bd 5a99 e4bd 46b2 02be 8410 9cbd
00000190: 7e64 643e 0b2d 1f3e 7097 e33c 84b2 39bd
000001a0: 0d15 c3bd 8dfa 263d 4949 39be 74da 4fbc
000001b0: 3f18 8ebc ea71 2fbd 9872 b33d 4365 99bd
000001c0: 5717 dcbd c11a 9abd 0266 9e3d 2d97 593d
000001d0: 8a6e 553d 1f6e 5e3d 2cc0 123e 6a5e 193e
000001e0: 17e4 b23d 4f66 f0bc d478 72bd d37a eebd
000001f0: 455f 8d3d e631 b13d 9ac6 223e e5e8 5239
00000200: 2db5 ba3c 6ae1 d33d 56af 06be 013e ea3d
00000210: 2089 8b3d 8678 023d 6498 dd3d 9df8 323d
00000220: 295b 893d 93f7 99bc b8ba f83d f3a5 493d
00000230: 4c97 253e f0f7 d53d 40fa 8c3e 2885 d03d
00000240: 77a4 273e 1f10 3b3d 737e 113e 5024 953d
00000250: fb71 043e 861b d6bd fefd a93d 2f0b 0d3e
00000260: 3663 633e 8999 d13c 353a 69bd 7d8e 2d3e
00000270: f4f9 66bd c78a 223e 5404 78bd ab5d 92bd
00000280: 56f9 2a3d fe58 743e 5a04 debc 888e 29be
00000290: 887d 50be f965 723e a8e2 503e 43a0 543e
000002a0: c61b 803e d84d 85be d566 c93c 1596 4c3e
000002b0: a84b 8a3e 0e77 573e f3b7 783d 44ed 923e
000002c0: 3a94 86bd 237e 8a3e 1257 873e 64d2 ee3c
000002d0: 3811 713d 6253 e43d 7b1c 8f3e 93ef 4d3d
000002e0: 9149 74bc 6fe1 86be 890a d5bd c99c f0bd
000002f0: d464 d0bd 6234 83bd afd9 f2bd 5b72 8bbd
00000300: d395 e5bc 1313 77bd 4469 4bbd ef94 333b
00000310: 8c95 e7bc 7853 0abe 8354 7dbe 9c0f a3bd
00000320: 7501 04be 843c 18bc 2cd6 3ebe 795c 0ebe
00000330: d82e 90be 7294 5bbe 6e24 1bbd 99f4 74be
00000340: 42b8 60be fd16 0dbe 4253 0cbe e3b5 1dbd
00000350: f8c9 75be 0d61 f0bd ea0e 72be 37c6 8fbd
00000360: 8cd2 b2bd 4d8e 29be e242 1dbd cfb0 27bd
00000370: 9234 69be 033b 8bbe e061 92bd 7e7c 87be
00000380: 7e75 00be 3bc8 06be fa02 bcbd d2a2 8fbd
00000390: 59d7 63be ccdb 09be be31 6cbe 1890 22bd
000003a0: 43d4 cdbd 49dc 79bc 816c e1bc eacf 9fbd
000003b0: 7e1f 353d e232 13be 3f0a 82be 7258 babd
000003c0: ccef afbd c016 cebd 1d95 5fbe 556d 93be
000003d0: df7e eebd 18ce 17be 032f 33be 9c09 293b
000003e0: 4a31 20be 8119 e5bd 85ec 69bd 2e5c 553c
000003f0: 69a0 b3bc 73e4 91bd 2eba 38be 02e7 93bc
0.17096224 0.21426855 0.015062864 0.18171908 0.2883049 0.24099934 0.06553711 0.1519017
0.04303276 0.17832619 0.21389465 0.19093342 0.016072875 0.21558587 0.14948644 0.04106243
0.0936126 0.25256738 0.025612265 0.23095785 0.28766063 0.035724048 0.007654466 0.032260507
0.14671104 0.0032438259 0.26465723 0.27514032 0.12729366 0.2245863 0.26486632 0.16878697
0.0712906 0.13899426 0.24733943 0.08325683 0.13248593 0.12407565 0.09913432 0.119183466
0.06773618 0.098115034 0.27902824 0.098179996 0.12297354 0.27117786 -0.09164 -0.24792665
-0.18552867 -0.19994533 -0.22583179 -0.07497533 0.048922468 -0.030244038 -0.26053977 0.21080403
0.13410252 -0.015696932 -0.26011997 0.049268242 -0.025549354 0.19469275 0.075274795 -0.04733363
0.21711513 -0.23729546 0.107313976 0.015836446 0.20612086 -0.18627995 -0.007853447 0.07838942
-0.07149814 -0.20396829 -0.04843562 -0.01066176 -0.09649754 0.22577612 -0.0870182 -0.16656092
-0.06743534 -0.18262787 0.0010268079 -0.16088815 0.1491155 -0.105895765 -0.23916568 -0.20053239
0.10420448 0.029573243 -0.067139536 0.12720098 -0.08903807 0.046756107 0.06989272 -0.0727015
-0.07516522 -0.11162062 -0.12763318 -0.076203376 0.2230396 0.15544526 0.027782172 -0.04533626
-0.095254995 0.040766288 -0.18094362 -0.012686361 -0.017345546 -0.042833246 0.087620914 -0.07490017
-0.10746639 -0.07524634 0.077343 0.053122688 0.05210737 0.05430424 0.1433112 0.14977422
0.08734911 -0.02934566 -0.059197262 -0.116445206 0.06902937 0.086520955 0.15896073 0.0002011392
0.02279147 0.10345729 -0.13152823 0.114376076 0.06813264 0.03185322 0.10820082 0.043694127
0.067068405 -0.01879481 0.12144989 0.049230527 0.16170996 0.10447681 0.27534676 0.101816475
0.16371332 0.04566967 0.14208393 0.07282317 0.12934105 -0.104544684 0.08300398 0.13773797
0.22205815 0.025585907 -0.056940276 0.16948886 -0.056390718 0.15873252 -0.060551003 -0.07146772
0.04174169 0.23862073 -0.027101684 -0.16558278 -0.20360386 0.23671712 0.20398962 0.2076426
0.2502119 -0.26035953 0.024585167 0.19979127 0.27010846 0.2104151 0.060722303 0.28696644
-0.06571241 0.2704936 0.26433617 0.029153056 0.05885431 0.111487165 0.27951416 0.050277304
-0.014910118 -0.26343867 -0.104024 -0.117486544 -0.101754814 -0.064064756 -0.11857926 -0.06808921
-0.028025543 -0.060320925 -0.049660936 0.0027402004 -0.028269552 -0.13508403 -0.2473927 -0.079619616
-0.12891181 -0.009291772 -0.18636388 -0.13902463 -0.2816074 -0.21443346 -0.03787654 -0.23921432
-0.21945289 -0.137783 -0.13703635 -0.03850354 -0.24002826 -0.11737261 -0.23638502 -0.07020228
-0.08731565 -0.1655819 -0.038393863 -0.040940102 -0.2277396 -0.2719346 -0.071475744 -0.26462168
-0.1254482 -0.1316232 -0.09180255 -0.070134774 -0.22250117 -0.13462752 -0.2306585 -0.0396882
-0.10050251 -0.015250274 -0.027517559 -0.07803328 0.044219486 -0.14374879 -0.25398442 -0.09098901
-0.085906595 -0.10062933 -0.21834226 -0.2879435 -0.116452925 -0.14824712 -0.17498402 0.002579308
-0.15643802 -0.11186505 -0.05711033 0.013022466 -0.021927075 -0.07123651 -0.18039772 -0.018054489

bias f4 [31]
00000000: 5292 fc3b 9012 cbbd b28a 183e 72c4 1b3d
00000010: 09fa 8dbe 8f8d dabd 4f6a 3fbd b8e0 a63d
00000020: 2d83 e0bd 8688 8a3e cd71 833e c489 3fbd
00000030: dac8 4c3e 5032 86bd e8d6 91be f05b 8abe
00000040: ae5b 6ebe 8772 87bc b4a6 b7bb c740 e3bb
00000050: d3b8 3fbe cac2 92be 0881 84be edfe 1fbd
00000060: 417b d3bd b5b4 14bc f020 c7bd bca3 51be
00000070: 55cc 93be afc9 40be 5e52 acbd
0.0077078724 -0.0991565 0.14896658 0.03802914 -0.27729824 -0.106715314 -0.046732243 0.081483305
-0.1096252 0.27057284 0.2567276 -0.046762243 0.19998494 -0.06552565 -0.28484273 -0.27023268
-0.2327716 -0.016534103 -0.0056045894 -0.0069352123 -0.18722849 -0.28664237 -0.25879693 -0.039061476
-0.10326243 -0.009076287 -0.09723079 -0.20472616 -0.2886683 -0.18826936 -0.08414148
