models_m3/model_agg_num_9.pt (torch, 45199 bytes, 4 tensors)

weight f4 [42, 91]
000000 c4 80 98 bd ea 24 2a be b2 c9 fb bd 3d 93 45 be
       -0.07446435 -0.16615644 -0.1229433 -0.19294448
000010 84 ec 84 bd 42 4c 58 be 94 72 06 be 82 4f f1 bd
       -0.06490424 -0.2112284 -0.13129646 -0.11782743
000020 09 ff 53 be 65 64 0c be 0c 7f 44 be 94 fa e7 bd
       -0.20702757 -0.13710172 -0.1918909 -0.11327091
000030 dd 85 ab bd 2f 0c 1a be 0c 5c 59 bd 2a 74 57 be
       -0.08375142 -0.1504371 -0.0530663 -0.21040407
000040 c1 fc ab bd 97 57 47 3e c8 bf 36 be 49 ae b1 bd
       -0.08397818 0.19467007 -0.17846596 -0.086758204
000050 9b 88 8b bd 4d 99 3c be cb 78 01 be a9 93 2b bd
       -0.06813165 -0.18417855 -0.12643735 -0.041888867
000060 55 f8 7f bd cd fd 0f be 9f bb 91 bd ec ad a0 bd
       -0.062492687 -0.14061661 -0.07115864 -0.07845673
000070 0b 48 b9 bd 0f cf 23 be e4 df 7b be 93 80 cf bd
       -0.09046944 -0.15996955 -0.24597126 -0.101319455
000080 21 fe 17 3e 11 52 46 be fb 23 71 be d6 b3 5f be
       0.14843036 -0.19367243 -0.23548882 -0.21845946
000090 93 4f 51 be 7e 56 27 be 83 ef 4d be 1a 0d 1e be
       -0.20440511 -0.16341588 -0.20110898 -0.15434685
0000a0 95 9e 30 be 95 1b 10 be 44 11 ec bd 3c 66 91 bd
       -0.17247994 -0.14073022 -0.11526731 -0.07099578
0000b0 56 44 c2 bd 6b ea 10 be b7 71 66 bd 6a 1c 52 bd
       -0.0948569 -0.14151923 -0.05626079 -0.05129663
0000c0 1d 62 25 bd ff f5 82 bd d5 00 27 bd e7 8b 9a bd
       -0.04037677 -0.06394576 -0.040772278 -0.075462155
0000d0 1e e9 20 be 7d 18 78 be af b8 0b be 53 f4 94 bd
       -0.15713927 -0.24228092 -0.1364467 -0.07273164
0000e0 62 b0 54 bd 26 d5 32 be 74 c9 d4 bd 09 1a d7 bc
       -0.051926024 -0.17464122 -0.10389987 -0.026257532
0000f0 b6 1f 5f be 6a 8f c6 bd 8d 89 b1 bd 8a 25 01 be
       -0.2178944 -0.09695323 -0.08668814 -0.12611976
000100 24 7d b5 bd 04 1f ae bd 0a b1 43 be e2 0f c0 bd
       -0.08861759 -0.085020095 -0.19110504 -0.093780294
000110 9a 72 76 be c8 c0 c4 bd d5 ae 05 be 48 07 20 be
       -0.24067155 -0.096070826 -0.13054974 -0.15627778
000120 3f 03 7d bb 46 d3 c1 bd 5e d2 27 be c8 76 2a be
       -0.003860667 -0.09464125 -0.16388842 -0.16646874
000130 03 75 a0 bc 99 ea 28 3d 96 3c 34 be 3b 70 e4 bd
       -0.019587046 0.041239355 -0.17601237 -0.11154219
000140 6d ae 6d be b0 ee 63 bd 57 0b 3c be a2 21 5f be
       -0.2321107 -0.055647552 -0.18363701 -0.21790174
000150 47 a3 17 bc 88 e9 43 be 06 30 50 bd 5d a9 a7 bd
       -0.009255237 -0.19132054 -0.05082705 -0.081866
000160 a3 37 53 be b2 26 06 be 16 b3 68 bd 70 b1 60 be
       -0.20626692 -0.13100699 -0.056811415 -0.21942687
000170 96 42 0e be bc 2a 1b be bb 7c 40 be 35 a8 ea bd
       -0.13892588 -0.1515302 -0.18797581 -0.11457864
000180 32 c3 67 bd d2 28 8f bd 28 e5 41 3e 85 82 05 3e
       -0.056582637 -0.06990208 0.18935072 0.1303807
000190 73 fc 36 be 10 bf fc bd 6a 40 13 be 69 fc 9e bd
       -0.17869739 -0.1234113 -0.14380041 -0.07762987
0001a0 80 17 58 be 82 c5 2b be 35 4a 64 be 8d 7c 96 bd
       -0.21102715 -0.16774562 -0.22293933 -0.07347975
0001b0 2d 61 b6 bc 7e 2f 61 bb 58 03 dc 3d 13 5c 64 3e
       -0.022263134 -0.0034360583 0.10742825 0.22300749
0001c0 9d 9c 0e 3e e8 21 7d 3e 0c 5e f6 3d 08 d2 56 bd
       0.1392693 0.24719965 0.12029657 -0.052446395
0001d0 19 29 15 be 73 b9 9a bd 24 d5 62 be 32 eb 2a bd
       -0.14566459 -0.07554903 -0.22151619 -0.041728206
0001e0 25 c7 09 be 2a 9a a9 bd 3b 04 cf bd 67 29 0b 3e
       -0.13454874 -0.082813576 -0.10108229 0.13590012
0001f0 60 a1 ec 3d 90 58 35 3d fc 26 55 3e d6 bf 94 3d
       0.11554217 0.044273913 0.20815653 0.07263152
000200 93 ed 3f 3e 9a 8c 60 3e c2 6b 31 be 33 e8 33 bd
       0.18742971 0.21928635 -0.17326263 -0.043922614
000210 21 a6 3f be b2 45 74 be 8b 86 62 be c1 13 35 be
       -0.18715717 -0.23854712 -0.22121637 -0.17683317
000220 d4 cc e2 bd ae 0b 4e be 28 89 11 be a6 1a b5 bd
       -0.11074224 -0.20121643 -0.14212477 -0.088429734
000230 d3 eb 7c bd ca d3 57 be 4e 4d f9 bd e4 86 6e 3e
       -0.061748337 -0.21076885 -0.12172948 0.23293644
000240 42 71 d0 3d 0b 08 15 be 46 f2 68 bd a1 69 8f bd
       0.10177852 -0.1455385 -0.056871675 -0.07002569
000250 a4 67 b7 bd fa a5 75 be c5 01 1e be a8 af 75 be
       -0.08955315 -0.23989096 -0.15430363 -0.23992789
000260 4a c1 41 be 98 8c 37 be fc 37 a4 3d fd 77 4a 3e
       -0.1892139 -0.17924726 0.08018491 0.19772334
000270 00 c5 68 3e 42 49 61 3d e1 4f 40 3e 0a 80 ba 3d
       0.227314 0.055001505 0.18780471 0.09106453
000280 83 61 65 be 6f 47 8a bd 5b 55 51 bd 77 08 5c be
       -0.22400479 -0.06751906 -0.051106792 -0.21487604
000290 53 84 76 be cc a1 c7 bd ff f4 84 bd 2c 60 cd bd
       -0.24073915 -0.09747657 -0.06492042 -0.10028109
0002a0 d4 d0 ab bd ca 77 7d 3d 9b a8 47 3e da 4c f2 3d
       -0.0838944 0.061881818 0.19497912 0.118310645
0002b0 1e a1 ef 3d 81 16 30 3d 7f 77 67 3e c9 af 89 bd
       0.117006525 0.04299021 0.22604178 -0.067229815
0002c0 b3 cb 45 be 18 3d ca bd bc 57 a9 bd c5 83 08 be
       -0.19315986 -0.09874934 -0.08268687 -0.13331516
0002d0 c4 1f 5c be 74 25 19 3e ae f2 30 be 81 a2 83 bd
       -0.21496493 0.14955693 -0.17280075 -0.064274795
0002e0 ab 68 3f be 32 be 6d be 1e e2 7a be a7 0a 3d be
       -0.18692271 -0.23217085 -0.2450032 -0.18461095
0002f0 6d c8 4d be 33 80 3d be b7 dd 35 be 76 1b 6f be
       -0.20095988 -0.18505935 -0.17760359 -0.2335032
000300 b4 3c 46 be 65 9f 13 be bd c6 b6 bd 55 9c 65 bd
       -0.19359094 -0.14416273 -0.08924625 -0.056057293
000310 98 0a 10 be 36 d8 ce bd 63 3b 1b be 2f ef 3d 3e
       -0.14066541 -0.10099833 -0.15159373 0.18548273
000320 1e b9 57 3e 01 dd a2 3d 3b 13 c3 3d ad 13 af 3d
       0.2106671 0.079523094 0.09525152 0.08548675
000330 4f b8 e1 3d 56 b6 d2 3d e3 65 c2 bd 5f 09 33 be
       0.11021482 0.10288684 -0.094920896 -0.17484044
000340 c7 b3 0f be 98 a1 06 be e3 81 d9 bd 26 df ad bd
       -0.14033423 -0.1314758 -0.10620477 -0.08489828
000350 33 2a 3e be 9b b3 e3 bd cf e6 5d 3e 07 7a 6f 3e
       -0.18570785 -0.111182414 0.21670078 0.23386393
000360 36 69 65 3e db a0 08 3e 79 56 f7 3d 1b 76 76 3e
       0.22403416 0.13342611 0.1207704 0.24068491
000370 36 7d 73 3e ca 0c ac bd 95 a2 cf bd df 20 22 3e
       0.23778233 -0.08400877 -0.10138432 0.15832852
000380 84 f0 33 be cc 8c 80 3d 37 a4 1e be d9 b6 6f be
       -0.17572218 0.06276855 -0.1549233 -0.23409595
000390 4a 29 f7 bd 5a 98 d1 bd 2f f8 b3 bd 89 95 16 be
       -0.12068422 -0.10234137 -0.08787572 -0.1470548
0003a0 c5 bc ea bd bd 8a f2 bd fe 8c 28 be 87 80 66 be
       -0.11461786 -0.118428685 -0.16460034 -0.22509967
0003b0 3e fa 34 bd 3d 14 ce bd fa 40 f0 bd 3b c9 61 be
       -0.044183962 -0.10062454 -0.11731143 -0.2204942
0003c0 01 8f f7 bd 3e e8 07 be 4a 6e aa bd 11 88 22 bd
       -0.12087823 -0.13272187 -0.08321817 -0.039680544
0003d0 14 36 2e be fb dd b7 3c d2 32 2c 3d d2 1f 5c 3e
       -0.17012817 0.022444716 0.042040654 0.21496513
0003e0 a1 4d 1c 3e d4 38 52 3e 22 b8 c0 3d 6c 30 d5 bd
       0.15263988 0.2052949 0.094101205 -0.10409626
0003f0 16 74 1b be 90 c9 0e be 11 f0 55 bd cc d1 ef bd
       -0.15181002 -0.13944077 -0.0522309 -0.117099375

bias f4 [42]
000000 08 f0 1e 3e d1 4a b2 3d 0f 6a 75 3e 2c 01 2b 3e
       0.15521252 0.08705676 0.2396624 0.16699666
000010 57 4f 0a 3e 3d 55 28 3e 30 58 cc 3d 7c 0e b0 bd
       0.13506828 0.16438766 0.09977758 -0.08596513
000020 6d a3 24 3d 3a 50 54 3e 96 24 72 3e 12 9c 61 3e
       0.040194917 0.20733729 0.23646769 0.22032192
000030 66 5a 9d 3d c5 4e 2a bd c3 56 47 bd c8 b5 09 3e
       0.07683258 -0.041579027 -0.048666727 0.1344825
000040 87 92 38 3e 2b e8 62 be fc f2 46 3e 4a 59 06 3e
       0.18024646 -0.22158878 0.19428629 0.13119999
000050 04 ff 2a 3d c2 f5 9f 3c 19 c1 3b 3e 11 fa 8e 3d
       0.041747108 0.019526366 0.1833538 0.0698129
000060 d0 e3 10 3d 07 6f 7b 3d c1 ca 95 3d 73 46 a2 bb
       0.03537351 0.06138518 0.07314063 -0.004952246
000070 f9 e4 04 3e 05 e7 33 3e 37 c6 00 bd 2a 46 24 bc
       0.12977971 0.17568596 -0.031439032 -0.010026494
000080 72 8c 58 3e 8e c3 21 3e d8 6f 2d 3e c0 b3 ab 3d
       0.21147326 0.15797254 0.16937196 0.08383894
000090 59 50 9f 3d 21 a3 07 3c eb 26 33 3e 47 ab b5 3d
       0.07778997 0.008278639 0.17495315 0.08870559
0000a0 78 41 6f be e8 61 7b 3e
       -0.23364818 0.24549067

weight f4 [28, 42]
000000 fc 53 4f be 73 7a af bd 10 5d 18 be 70 8a 87 be
       -0.20246881 -0.08568277 -0.1487925 -0.26472807
000010 05 55 34 be ef 43 e3 bd ae 50 1a be 8c a6 82 bc
       -0.17610557 -0.11096942 -0.1506984 -0.015948556
000020 a0 26 2d be e3 8c 89 be 68 a4 ba bd ba 54 24 bd
       -0.16909266 -0.268653 -0.09113389 -0.040119864
000030 ce 42 2c be e3 a9 9e bd 07 b4 80 bd 06 59 f1 bd
       -0.16822359 -0.07747247 -0.062843375 -0.11784558
000040 e2 09 5a bd 6f a9 0b be 0b 1c 05 bd 8f df 93 be
       -0.05323208 -0.13638853 -0.032497447 -0.288815
000050 00 ac 58 be 1c 72 37 bd fd 22 72 bd 2a 3f 37 bd
       -0.21159363 -0.044786558 -0.0591154 -0.044737972
000060 b4 d4 68 be ae fd 16 bd a6 54 34 be a0 fc 7f bc
       -0.2273739 -0.03686302 -0.17610416 -0.015624195
000070 b3 8e a2 bd 65 4a 49 bd b5 b5 51 be 07 73 3b be
       -0.07937374 -0.049143214 -0.20479472 -0.18305598
000080 22 97 a0 bc 3f a1 6a 3a da 53 7d bd 40 9e ff bd
       -0.019603316 0.0008950419 -0.061847545 -0.12481356
000090 e9 99 34 be 58 fe 31 be 57 2d 90 be 5c fb 1c be
       -0.17636837 -0.1738218 -0.28159592 -0.15330261
0000a0 b2 f7 85 bd 01 e7 48 be 4f 06 13 be f2 cb 01 be
       -0.06541385 -0.19619371 -0.14357875 -0.12675455
0000b0 13 02 8e be 45 28 19 be ba 5e 81 be 46 ea 28 be
       -0.27735958 -0.14956768 -0.25267583 -0.16495618
0000c0 e3 37 fa bd 4a 1a 93 bc b4 62 d8 bd b9 dd 87 be
       -0.12217691 -0.017956872 -0.10565701 -0.26536348
0000d0 5d 6c 91 be 0e 26 35 bd 53 db 5f be 08 27 63 be
       -0.28402987 -0.044225745 -0.2186101 -0.22182858
0000e0 45 0d 15 be d8 30 24 be 27 db 45 be c7 ed 23 be
       -0.14555843 -0.16034257 -0.19321881 -0.16008674
0000f0 24 0f da bd da 8f 19 bd 7d 19 80 bd 7c 80 53 be
       -0.10647419 -0.037490703 -0.062548615 -0.20654482
000100 bc d2 aa bd 37 46 23 be 5c b5 8b bd 62 16 f8 bd
       -0.08340976 -0.15944754 -0.06821701 -0.12113644
000110 7a f1 03 3b eb 81 1f 3c 93 2c fc bd 8a 38 ee bd
       0.0020132945 0.009735565 -0.12313189 -0.11631878
000120 30 bb 73 be 1f c6 26 be b4 ff c8 bd b7 26 22 be
       -0.23801875 -0.16286515 -0.098143965 -0.15835081
000130 00 97 83 be 9f e6 3c be 77 17 8b be 81 4b 04 be
       -0.2570114 -0.1844735 -0.2716634 -0.12919427
000140 ce ad bf bc 02 07 6c be 24 09 2c be 6c ed 24 be
       -0.023398306 -0.23049548 -0.16800362 -0.16106194
000150 fc 06 45 bc 5e 92 82 be e1 6d 8e bd 90 29 5d be
       -0.012025591 -0.25502294 -0.069545515 -0.21597886
000160 3d 36 40 be 74 f0 85 be 1e 69 85 be 0f fa be bd
       -0.1877069 -0.26160014 -0.2605676 -0.09325039
000170 13 5c 29 be 00 8a 81 be 40 f2 55 bd 5c 52 ea bc
       -0.1653903 -0.25300598 -0.05223298 -0.028603725
000180 a3 f9 09 bc 14 97 ef bc cc bd 19 be 9f bf 41 be
       -0.008421334 -0.029246844 -0.15013808 -0.18920754
000190 d9 23 6e be 14 85 3f be 0a 9f 73 be c1 d7 1f be
       -0.23255862 -0.18703109 -0.23791137 -0.15609647
0001a0 cb f4 5e bd 70 41 05 be 0e 6d 71 bd 80 f0 92 be
       -0.05443267 -0.13013244 -0.058941893 -0.28699112
0001b0 80 a9 51 be 28 19 b0 bd ac b2 4e be a4 fa 80 be
       -0.20474815 -0.08598548 -0.20185345 -0.25191224
0001c0 ce eb 18 be f6 ab 85 bd bf fe 4a 3b f8 1a 6c bd
       -0.14933702 -0.065269396 0.0030974594 -0.057642907
0001d0 7d 5a 82 be 32 37 03 be 1c e6 0e be 25 c4 e6 bd
       -0.25459662 -0.12814024 -0.13954967 -0.1126788
0001e0 68 4b 3b be 81 d4 8f be 13 0f fc bd d2 a7 1f be
       -0.18290484 -0.28091815 -0.12307563 -0.15591362
0001f0 3d c1 07 be 9e 65 99 bd d8 e7 42 be 34 90 5e be
       -0.13257308 -0.07490085 -0.19033754 -0.21734697
000200 f6 16 95 be 5d ec e4 bd 1a 57 10 be 14 02 3c be
       -0.2911908 -0.11177895 -0.14095727 -0.18360168
000210 8d 90 12 be de 62 ae bd fe 74 8e bc 59 af 0a be
       -0.14312954 -0.08514951 -0.01738977 -0.13543452
000220 f7 7f e3 bd 55 ee c9 bd 6a d4 a7 3b 8d b7 50 be
       -0.11108392 -0.09859911 0.0051217573 -0.20382519
000230 2f 63 17 be 33 df 8c be b9 38 89 bc 52 3d 22 be
       -0.1478393 -0.27514037 -0.01675068 -0.15843704
000240 36 f5 14 be 03 1c c6 bd f5 dd 40 be e6 8d 23 be
       -0.14546666 -0.096733116 -0.1883467 -0.15972099
000250 bf c1 81 be eb 26 0b be 69 87 8b be 18 5c 98 be
       -0.2534313 -0.13589065 -0.27251747 -0.29757762
000260 8a a2 50 be ee 06 22 be 57 5f 06 be 02 cd 76 be
       -0.20374504 -0.15822956 -0.13122307 -0.24101642
000270 c3 33 51 bb 30 c8 07 bb f2 7e 96 be c8 e8 3c be
       -0.0031921722 -0.0020718686 -0.29393727 -0.18448174
000280 41 6b 8c be ed 44 f9 bc 64 7a 31 be 43 8d 88 bd
       -0.27425578 -0.030428374 -0.17331845 -0.066675685
000290 fd 03 84 be 21 1f 41 be 67 f2 ed bd 67 a6 c5 bd
       -0.25784293 -0.18859531 -0.116185 -0.09650879
0002a0 e6 4d 62 3c 1a b5 f1 bc ff 09 50 be 2d 86 dc bd
       0.013812518 -0.029505301 -0.20316313 -0.107677795
0002b0 0d 2d d6 3d ad de 66 be 79 a1 34 be c6 00 7d bd
       0.104578115 -0.22545882 -0.17639722 -0.061768316
0002c0 fd b8 f6 3c 75 5f 40 3d 62 81 1e be c5 ff 7e be
       0.030117506 0.046966035 -0.15479043 -0.24902256
0002d0 09 88 ed bc d0 ff 0c 3e d5 e9 d0 bc 32 a9 e0 3d
       -0.02899553 0.1376946 -0.025502125 0.109697714
0002e0 b9 ac 57 bd de cb f8 3d cf e1 7d be 13 49 fb bd
       -0.052654956 0.121482596 -0.2479317 -0.12269797
0002f0 26 20 55 bd e2 79 81 bd 0b 4a e5 bd 22 88 88 3d
       -0.052032612 -0.063220754 -0.11195763 0.0666659
000300 65 82 2f 3e 0c 3f 84 be 0f cf 70 be 17 a6 e4 3d
       0.17139585 -0.2582935 -0.23516487 0.111644916
000310 e3 97 03 be 9f 88 f2 bd 14 32 33 be 01 87 87 b9
       -0.12850909 -0.11842465 -0.17499572 -0.00025849792
000320 16 be 04 bd 7e e9 58 be 47 46 3f bc 97 03 31 be
       -0.032407843 -0.2118282 -0.01167447 -0.17286526
000330 35 28 f5 3d c9 04 a8 bc 56 ca 8d bc bb 4a f0 bc
       0.119705595 -0.020510094 -0.017308395 -0.02933251
000340 99 11 cb 3d e6 e7 10 be 28 2c d9 bd d2 92 98 be
       0.09915466 -0.14150962 -0.10604125 -0.29799515
000350 18 75 80 be 97 14 aa bd 38 75 e2 3c b7 cb 70 bb
       -0.25089335 -0.083047085 0.027643785 -0.0036742517
000360 b5 db 8a bd c1 a7 61 be c8 51 8f bc 07 96 f0 3c
       -0.06780187 -0.2203665 -0.017495051 0.029368414
000370 6c 62 f5 3d 89 17 84 be 31 98 1d be a4 5c 2d be
       0.11981663 -0.25799206 -0.15390088 -0.16929871
000380 b4 61 6a be fa cb 0b 3d db aa 29 bc 59 c0 11 be
       -0.22888833 0.034130074 -0.0103556765 -0.14233531
000390 ef fa 88 be da 79 bc 3d 01 1b 4a bd 8c 6d 9b bd
       -0.26753947 0.09202929 -0.04934216 -0.07589254
0003a0 30 68 79 be 26 8a f5 bd bd 8d ba 3d e6 1c 32 be
       -0.2435615 -0.1198924 0.09109066 -0.17393836
0003b0 7c 40 ee bc da 0e ce 3d 95 bf 73 be 06 7c 86 be
       -0.029083483 0.100614265 -0.23803551 -0.26266497
0003c0 52 4e 83 be 00 e5 54 bc 50 78 f0 bd f1 c6 81 be
       -0.2564569 -0.012994051 -0.11741698 -0.25347093
0003d0 f2 9a 0b bd 74 cb 7c be 72 60 d4 3c ee 9e 58 bd
       -0.034083314 -0.24686986 0.025924895 -0.052885942
0003e0 ec 61 0d be e2 a7 0d 3e 67 49 1f 3e 85 d2 8e bc
       -0.13806885 0.13833573 0.15555345 -0.017434368
0003f0 65 81 23 bd f4 f1 85 3c 06 ce 4d bd 9e cc 10 be
       -0.039918322 0.016350724 -0.050245307 -0.14140555

bias f4 [28]
000000 de b0 5b be 63 a9 0a bd e2 e7 04 be 80 ce 36 bd
       -0.21454188 -0.033852946 -0.12979081 -0.044630527
000010 b9 a8 65 bd 24 1c d5 bd 24 cd 96 bc ed 29 f1 3d
       -0.05606911 -0.10405758 -0.018408366 0.11775575
000020 b7 87 4f be ec c4 ca bd 2d 6b 56 3e 0c 70 4a 3e
       -0.20266615 -0.09900841 0.20939322 0.19769305
000030 2e a4 97 3e 7b 8c 4c bd 66 7b 83 3d 98 ae a6 bd
       0.29617447 -0.04993866 0.06420021 -0.0813877
000040 fe 75 04 3d 64 48 27 be 6f 6c 04 be 8f 3d 0a be
       0.03233909 -0.16336209 -0.12931989 -0.13500045
000050 46 12 76 be 83 b1 96 be 3a 5f be bd c1 ba bb bd
       -0.24030408 -0.29432306 -0.09295507 -0.0916648
000060 29 d4 78 3b 72 84 64 be da b6 86 be c6 10 6f be
       0.0037968254 -0.22316149 -0.2631138 -0.23346242
