models_m3/model_agg_num_4.pt (torch, 34447 bytes, 4 tensors)

weight f4 [34, 91]
00000000: b858 26be 3175 5dbd 3393 aabd dff5 91bd
00000010: 6fd0 e6bd 1d58 0b3e 70c0 9f3d 0d7b 40bd
00000020: ee78 debd 3bf2 6f3d adb9 473e 4d5d 9c3d
00000030: 8a54 043e c683 063e f77e 1d3e b07c 0bbe
00000040: 7090 d4bd 12a2 c23d 025d 10be d1bd 88bd
00000050: 1db6 24bd 735d 66bd 0e15 323c 234b f13c
00000060: d6b0 17be 46bd 40be da8b af3d 6d1c df3c
00000070: 924e 913d 5332 a7bc f578 31be 0836 bbbd
00000080: f602 e83d 517b 613e 6bf8 fc3d 96ce 403e
00000090: 8ea5 4d3e 8ff6 083e 8726 993d f3ad 18be
000000a0: a333 6ebd 1bbe 093e eb35 2e3e e403 693d
000000b0: c534 8e3c 0108 20be 521d 18be b02d 7fbd
000000c0: 58be 3cbd e79b 60bd 0209 163e bc9e 073d
000000d0: 7059 a3bd 440a 22be c48c 0d3e 4261 2b3d
000000e0: c4f1 653d 3a9e e6bc 94cb 0f3e 2f3e 433e
000000f0: c2cb 26be 2695 a1bd e8ff 99bd cc32 f9bd
00000100: a8a7 453d c377 a4bd b866 b6bd 7f3a dcbc
00000110: 79ee 8aba 4571 d2bd ac2f 33be f75f 97bd
00000120: 1688 3a3d 32e7 97ba b86a 7ebd 2ff2 c1bd
00000130: 8ba8 06be 4b81 41be 7084 16bd 37cf d2bd
00000140: cf02 0a3e 71f1 fd3b a097 04bc 06cc cd3d
00000150: 4493 79bd 6fc2 a2bd ef48 17be 119c e13d
00000160: 31c3 1ebd a09c ebbd 4471 2a3e 7412 7cbe
00000170: 3bdc 74be c688 483e e596 5bbe 281c c6bd
00000180: 0746 04be 5f6d f4bd 82f3 2a3e 83d7 4ebe
00000190: 29a3 32be 051e d4bd c070 7ebe 23d9 4fbe
000001a0: d872 4fbe dcf7 11be 7bf1 44be db41 83bd
000001b0: a11c 32be 1965 22be 5400 5abe 958a 7abe
000001c0: bbd1 e4bd 0d03 09be 0b6f 48be 267b 073d
000001d0: 377d 8fbd e3e7 3fbd 921e 3cbd 56ba 04be
000001e0: 5fda 74bd 2972 0cbe 3db9 5ebe 4e85 90bd
000001f0: 8126 62be 60af 79be b9af e1bd c9a6 babd
00000200: 2107 9fbd b9e4 49bd 8e7e 11bc 679f 7a3c
00000210: d8fe 5bbe 9264 09be 6a64 d0bc 3266 17be
00000220: 7ecb 57be d444 6dbe e5c9 3e3e 1523 4dbe
00000230: 4dda 42bd b255 fabd f7db 53be a1b9 5d3e
00000240: 728c 60be d8a1 a3bd 0046 ddbd 990c 54be
00000250: 5137 5bbe 2128 2ebe cfe0 43be a802 53be
00000260: 1a8f 59be ff82 3abd 9951 57be 7274 1abe
00000270: dc08 c9bd fb5f d8bd ad5e 47be 0c41 cbbd
00000280: a7c1 6ebd efc7 5fbe 72dc 6ebe a042 37bd
00000290: d419 ebbd 9d16 72be 1200 04be 363d 00be
000002a0: a045 5dbe 3db4 43be 9df9 15be 0b84 52be
000002b0: 5486 71be cac0 2abe d647 52be 5594 9ebd
000002c0: 58e4 a0bd d5cf 0cbe 95e4 67bd 9103 4ebe
000002d0: 30e0 64be 9cc5 1ebe 5eae 5bbe c30e a5bd
000002e0: 5938 56be e70b 52be d04d bdbd 73a0 b8bd
000002f0: f80c 64be 339c 593e 3e33 57be b28c 39be
00000300: 9c10 bfbd 79d2 19be e616 8dbd 9662 60bd
00000310: c0a8 72be a700 c1bd b6fe e4bd 5d06 53be
00000320: a4ff 9cbd 1f38 cbbd 414b 74be 036b 1dbe
00000330: 25f7 0cbe f9bf b8bd c18b 84bb d039 deb9
00000340: 400f 753d 2190 583e 7973 063d a081 413e
00000350: b405 263e 8a6e f7bd 4c5b 93bd bbc6 96bd
00000360: 52ad 3dbe 275e 69be a74d 6dbe 4540 77be
00000370: 8fcf 79be abb6 3ebc 02c7 22bd 1c32 253e
00000380: a67e 2f3e 1a9c 5c3e b935 523d 88ca 72be
00000390: 1c4d b5bd 28fd 0fbe a385 9fbd 5766 38be
000003a0: 804d efbd 10e8 62be d15d 633e a8b6 05be
000003b0: 6bb2 4dbd f99e 71bd c998 5dbd 9cd1 8dbd
000003c0: 7839 fbbd bf92 4bbe 6055 92bd b4a8 0dbe
000003d0: 3140 1fbe e86d 9bbd ee43 28bd 3f40 71be
000003e0: 87a6 6dbd 64d8 8bbd 6a98 eebc e7a3 98bd
000003f0: 36da 18be c25f 1e3d fccb 183c 2441 51bc
-0.16244781 -0.05406684 -0.08328857 -0.07126974 -0.11270224 0.13607831 0.078003764 -0.04699235
-0.10862909 0.05858062 0.19504423 0.07634983 0.12922874 0.13136205 0.15380464 -0.13621783
-0.10379112 0.09503569 -0.1409798 -0.066768296 -0.04021274 -0.056241464 0.010869278 0.029454773
-0.14813551 -0.18822202 0.085715964 0.027235234 0.07095064 -0.020409739 -0.17331298 -0.09141165
0.1132869 0.22019698 0.123520695 0.18828806 0.20082685 0.13375305 0.07478052 -0.14910106
-0.058154713 0.13451426 0.17012756 0.056888476 0.017359147 -0.15628053 -0.14854935 -0.06229943
-0.046079963 -0.05483618 0.14651874 0.033110365 -0.07976043 -0.15824229 0.13823229 0.0418408
0.05613877 -0.02815162 0.14042503 0.1906669 -0.16288665 -0.07889776 -0.07519513 -0.12167892
0.048255593 -0.08030655 -0.08906311 -0.026883362 -0.0010599635 -0.10275511 -0.17498654 -0.07391351
0.045539938 -0.0011589287 -0.062113494 -0.09470021 -0.13150232 -0.18896978 -0.036747396 -0.10293429
0.13477634 0.0077497293 -0.008092791 0.1004868 -0.06093146 -0.079472415 -0.14773916 0.110160954
-0.038760368 -0.11504483 0.1664477 -0.24616414 -0.23912136 0.19583425 -0.2144428 -0.09673339
-0.12917338 -0.119349234 0.16694453 -0.20199399 -0.17445053 -0.10357288 -0.24847698 -0.20297675
-0.20258653 -0.14254707 -0.19232742 -0.06409045 -0.17393734 -0.15858878 -0.21289188 -0.24466927
-0.111728154 -0.1338007 -0.1957361 0.033076428 -0.07006305 -0.046852004 -0.04592759 -0.12961707
-0.059778567 -0.13715424 -0.2175035 -0.07056676 -0.22085 -0.24383307 -0.110198446 -0.09113843
-0.077650316 -0.049290393 -0.008880271 0.015296794 -0.21483934 -0.13417271 -0.025438506 -0.14785078
-0.2107372 -0.23170787 0.18631704 -0.20032914 -0.04757147 -0.12223376 -0.20689379 0.21652843
-0.21928576 -0.079898536 -0.10804367 -0.2070793 -0.2140782 -0.17007495 -0.19128726 -0.20606482
-0.21245995 -0.045535084 -0.21027221 -0.15083483 -0.09816143 -0.10565182 -0.1946971 -0.09924516
-0.05829015 -0.21853612 -0.2332628 -0.044741273 -0.11479536 -0.23641439 -0.12890652 -0.1252335
-0.21608591 -0.19111724 -0.14646001 -0.20558183 -0.23586398 -0.16675106 -0.20535216 -0.07743136
-0.07856053 -0.13751157 -0.056614477 -0.20118548 -0.22351146 -0.1550507 -0.21453235 -0.08059456
-0.20919932 -0.20512353 -0.09243357 -0.09014978 -0.22270572 0.21250992 -0.21015641 -0.18120077
-0.0932934 -0.15021695 -0.06889133 -0.05478152 -0.23697186 -0.094239525 -0.11181395 -0.20607896
-0.07665947 -0.099228136 -0.23856832 -0.15372853 -0.13766153 -0.09020991 -0.0040449803 -0.00042386213
0.059828997 0.21148731 0.032824967 0.18897104 0.16213113 -0.120816305 -0.07195148 -0.073621236
-0.18523148 -0.22789823 -0.23174153 -0.2414561 -0.24395584 -0.011640231 -0.03974057 0.16132396
0.17138156 0.21543923 0.051320765 -0.23710072 -0.08852598 -0.14061415 -0.07789161 -0.1800779
-0.11684704 -0.22158837 0.22203757 -0.13057959 -0.05021898 -0.0589895 -0.054100785 -0.069247454
-0.12266821 -0.19880198 -0.0714519 -0.13833886 -0.15551831 -0.07589322 -0.041080408 -0.23559664
-0.05802014 -0.068283826 -0.029125411 -0.07453137 -0.14926991 0.03866554 0.009325977 -0.012771878

bias f4 [34]
00000000: 3559 703d 3c81 3c3e b3e6 613e cfed 633d
00000010: f551 da3d b07c 013e 89c2 3c3e 07f3 103e
00000020: 4bda 543d 2e8e 5cbe 6ed3 c03c 523a 513d
00000030: 30ce dd3d d9d8 2dbe e1fb 1f3e 18ba f8bc
00000040: e0d0 2c3e b04d e53d 4296 aa3d 3b47 e83d
00000050: 2639 c63d 351a 253e 3291 363e 038c 6f3e
00000060: d738 ec3d ad47 103e 812c 363d 99dd 0e3e
00000070: fda5 153e c92a f93d bd3f 293e 786f 213d
00000080: 00e7 693d 3c59 3e3e
0.058678824 0.18408674 0.22060661 0.055646714 0.10660163 0.12645221 0.18433584 0.14155208
0.051965993 -0.21538612 0.023538318 0.05108101 0.10830343 -0.16977252 0.15623428 -0.030362174
0.16876554 0.11196458 0.08329441 0.11341711 0.09678869 0.16123278 0.17828825 0.23393254
0.11534279 0.14089842 0.044476036 0.1395172 0.14614101 0.12166364 0.1652822 0.039412946
0.057105064 0.18588728

weight f4 [23, 34]
00000000: bd3c 4abe 1621 54bd 0bc9 0dbd a3df 82bd
00000010: 7dc2 7fbd 4409 a9bc cf3c 1bbe 2b35 c6bd
00000020: 3b18 21bd d0ba 04bd b6f0 f03c 3329 39be
00000030: 8922 893b 8847 f9bc 55d5 c73d 30a3 693e
00000040: b2ae 60be e645 093e 7f4d 9bbd 4eb4 3abd
00000050: 3b86 7bbd 4dc3 3e3e 7a49 793d c3e4 7ebe
00000060: fc76 b0bd 608a 153e 0628 42bc 0425 2ebe
00000070: c3a9 64be bd3b 9bbd 3714 89be 80d2 64be
00000080: efa3 53bd caa9 fdbc 400d 5b3e 17a9 253d
00000090: 4933 a13d 8803 34bd 28d1 a6bd ff6c 5c3c
000000a0: 01bb d93d d917 0ebe 18af 12be 01fe 0dbd
000000b0: 74bd 91bd dfc8 8b3e 8fcc 983e b35d 09be
000000c0: abe4 86bb 6c12 dd3c 1dac 8e3e 8761 bc3d
000000d0: 08a2 833e a96c 283c 7720 ffbd 866a 9f3e
000000e0: cadf 303e 5df6 4e3e 2456 8c3e 1c40 553e
000000f0: 5c91 723e 5c3a 8d3d bdcf 863e 4fdd 353e
00000100: 9f38 9a3e 3207 153e 851f 703d 7969 733c
00000110: 6eb8 003e b934 343e 2633 c33c d2ce 233e
00000120: 888e 96bd 6b6d 763e d000 48bb c90a bc3c
00000130: ee0d 183e cd8a c2bd 8d81 423d 0c0e 5ebb
00000140: 54ab 673e 41f5 423e 923f 8abd 49b3 97bd
00000150: 08c5 543e feba bebd 548e 693e 1281 943e
00000160: 7dc2 b23d a259 b83c 1318 d03d 1420 bf3d
00000170: 2b53 5f3e 00e6 253e 6406 023e cb8c a93d
00000180: 5dd0 aa3c 7503 543d da82 493e 4aaa 023a
00000190: 2a69 5b3d 14b0 d13c 5b1d 533d bb4d 583e
000001a0: 36e0 913d f8c0 7e3e 3c01 043c e58e 383e
000001b0: 5525 8e3e 4878 8e3e 22a1 503e 6337 053e
000001c0: 849a db3c 9dd1 a13d 937b 463d becf 343e
000001d0: a75a ff3d d468 c43c 5803 c83d 5269 873e
000001e0: 0431 223e 5c7e 513e 2465 c13d ddcb 9d3e
000001f0: 5b70 843d 1625 de3b e968 0b3c 93a4 173d
00000200: 74d7 8b3e 78c9 553e 554a 9bbc 3e68 aa3d
00000210: 3bf6 cb3c 7f27 9d3d dbcf 9c3e b445 973d
00000220: c010 89be dc90 6d3b e4ea 60be 7cd6 843c
00000230: 28ab 94be 78e6 5bbd b3f9 c5bd d76c 6abe
00000240: 4b35 213c 2334 40bd 04a8 98bb 03a6 97be
00000250: 19e6 eebd 5c73 7dbd 9484 19bd e1ad cb3c
00000260: a36f 09be e16d 05be 2aa3 d4bd c7e6 8fbe
00000270: abdf 8dbe e045 c7bc 5a30 58be 2a72 35be
00000280: 7ab5 62be f39d 01be d089 3dbe 9eed 35bd
00000290: 77cd 64be 5506 8cbe 89b4 96be 3a80 203c
000002a0: f88c 67be f907 86be bfb0 64be 6a22 6ebd
000002b0: b273 dfbd 6487 b9bb afe6 20be 83b7 6dbd
000002c0: e50a b2bd 91c2 2fbe 50d4 64bd e94b fdbd
000002d0: 7bfd b4bd cfc6 f73c 72d8 d83d 6be5 d13c
000002e0: dfcb 23be e47d d4bd a871 e33d 922b 7fbe
000002f0: 586e 8e3d 1c96 4f3c 3bda a5bd 5772 4bbd
00000300: 6f11 473d 8883 4cbe a02a 55be d264 f3bc
00000310: 9b4a 5c3d a7c4 02be 6eed 023e e472 dfbd
00000320: cb47 bfbd 06cb 2bbe 0be4 0abe 9c48 20be
00000330: 2349 88bd e543 6bbd 7416 653b d247 25be
00000340: 8f98 e4bd af8d e1bb c683 bb3c b133 cbbd
00000350: bce5 be3d f094 de3d 78db adbd 9e19 ffbd
00000360: 8046 0bbe 4622 e23d c1cb b6bd ed1a 7b3d
00000370: 244e 84be ef80 84bc 320d 64be 18b0 fabd
00000380: 3655 3ebe 32a1 64be 4a71 04be 7b87 32be
00000390: 3fcf 02be 02e9 9b3d dd8b 89bd c44c 1dbd
000003a0: 9c4f b7bc 7176 40bd 9453 15be 3c08 23be
000003b0: 8d04 dabd 5d9a 44be 4d36 27be 1994 083e
000003c0: 4720 16be 2a49 d1bd e88e b1bc 5549 84be
000003d0: b7bc 21be 9546 f3bd 642b ddbb 06f1 4cbd
000003e0: 2364 fdbd 3696 1e3e 5921 29be 5803 ee3d
000003f0: e583 a63d 49a4 29be 701d 89be 0f59 36bd
-0.19749732 -0.051789366 -0.034615558 -0.063903116 -0.062441338 -0.020634301 -0.15159915 -0.0967811
-0.03932975 -0.03240472 0.029411655 -0.18082123 0.004185025 -0.030429617 0.09757487 0.22816157
-0.21941641 0.1340557 -0.075831406 -0.04558211 -0.06140731 0.18629189 0.06086109 -0.24891953
-0.086164445 0.14603567 -0.011850363 -0.17006308 -0.22330384 -0.075797535 -0.26773235 -0.22345924
-0.05167001 -0.03096475 0.21391773 0.04044446 0.0787111 -0.04394868 -0.08145362 0.013453721
0.10631371 -0.13876285 -0.14324605 -0.034666065 -0.071162134 0.2730169 0.29843566 -0.1341465
-0.004116615 0.026986323 0.27865687 0.09198289 0.25709558 0.010279813 -0.12457364 0.31135958
0.17272869 0.20211168 0.2740947 0.20825237 0.23688263 0.06895897 0.26330367 0.17760204
0.30121323 0.14553526 0.05862381 0.01485669 0.12570354 0.17598237 0.0238281 0.15996864
-0.073514044 0.24065177 -0.0030518062 0.022954362 0.14849064 -0.094991304 0.04748683 -0.0033882884
0.2262395 0.1903887 -0.06750406 -0.07407243 0.20778286 -0.0931301 0.228082 0.29004723
0.08728502 0.022503678 0.10160842 0.0933229 0.2180907 0.1620102 0.1269775 0.08278807
0.020851308 0.05176111 0.19678822 0.00049844815 0.05356709 0.025596656 0.051541667 0.21123402
0.07122843 0.24878299 0.008056935 0.1802326 0.27762857 0.27826142 0.20373967 0.1300941
0.026807077 0.07901309 0.048457693 0.17657372 0.124684624 0.023975767 0.09766263 0.2644754
0.1583901 0.20458359 0.09443119 0.30819598 0.064667426 0.0067793233 0.008508899 0.037022185
0.27312815 0.20877635 -0.018956343 0.08320664 0.024897685 0.07673549 0.3062733 0.07386342
-0.26770592 0.0036249673 -0.21964604 0.016215555 -0.29036832 -0.05368659 -0.09666767 -0.22893082
0.009839366 -0.04692472 -0.004658701 -0.29618844 -0.116649814 -0.061877593 -0.037479952 0.024863185
-0.13421492 -0.13030197 -0.103826836 -0.28105757 -0.27709708 -0.024325311 -0.21112195 -0.17719331
-0.2213954 -0.12657909 -0.18509603 -0.044416063 -0.22344004 -0.2734858 -0.29434612 0.009796197
-0.22612369 -0.26177958 -0.22333048 -0.05813829 -0.10910739 -0.005661892 -0.15712999 -0.05803634
-0.08693484 -0.17164065 -0.05586654 -0.12367994 -0.0883741 0.030246167 0.10588159 0.02562209
-0.1599574 -0.10375574 0.111056626 -0.24918965 0.0695464 0.012670066 -0.08098265 -0.04966959
0.04860061 -0.1997205 -0.20817041 -0.02971116 0.053782087 -0.1277033 0.12785885 -0.109105855
-0.09339865 -0.16776666 -0.13563554 -0.15652698 -0.06654575 -0.057437796 0.003495601 -0.16140679
-0.11161911 -0.006883345 0.022889983 -0.09921969 0.09321162 0.10868251 -0.08489126 -0.12456058
-0.13601112 0.110416934 -0.08925582 0.061304975 -0.25840867 -0.016174762 -0.22270659 -0.122406185
-0.18587193 -0.22327116 -0.12933841 -0.17434494 -0.1277437 0.07612802 -0.0671613 -0.038403288
-0.022376828 -0.046987955 -0.14582664 -0.1592111 -0.10645399 -0.1919951 -0.16329308 0.13337745
-0.1466075 -0.10219033 -0.021674588 -0.25837198 -0.15794645 -0.11878697 -0.0067495573 -0.050034545
-0.12372615 0.15486988 -0.16516627 0.116217315 0.08130626 -0.16566576 -0.26780272 -0.044518527

bias f4 [23]
00000000: 3341 93be 22d2 233d 6d6c 0a3e adb0 f63d
00000010: 4a44 81bd 0e18 15be d175 09be 3dff 91bc
00000020: 733b 09bd 7152 89be 4dbd babc 77fb 0f3d
00000030: 25e7 c0bd 4a7f 323e 8c58 74bd 2436 3dbc
00000040: 2bb9 ffbd 1ec2 92be 5cc6 bbba 67d0 b63c
00000050: d2f1 40bc b2ff ae3c 83b3 89be
-0.2876068 0.03999532 0.13517924 0.12045417 -0.06311853 -0.14559957 -0.1342385 -0.017821902
-0.03350396 -0.2682071 -0.022795344 0.035151925 -0.09419087 0.1743137 -0.059654757 -0.011548553
-0.1248649 -0.28663725 -0.0014326083 0.02231617 -0.011776404 0.02136216 -0.2689477
