models_m3/model_agg_num_4.pt (torch, 39887 bytes, 4 tensors)

weight f4 [34, 91]
-0.064020805 -0.05709826 0.10269326 -0.024485778 -0.093800575 -0.0048912517 -0.117185414 0.17732745
0.028562995 -0.22120467 -0.052925747 -0.124650665 -0.06672916 -0.12996647 -0.05238435 0.05407564
0.02903856 -0.12852602 -0.10151709 -0.031048348 -0.097207405 -0.018413963 -0.09387921 0.0070450637
-0.07747187 -0.092478596 -0.05408593 -0.20717452 -0.038243238 -0.01845326 0.16907854 0.016939305
-0.06311975 -0.12663056 -0.17816092 -0.07928948 -0.12786455 -0.059382446 -0.13259661 -0.058207534
-0.027061991 -0.07937859 -0.09995677 0.042918794 0.04025056 -0.19000374 -0.08356694 0.14462082
-0.051722076 -0.12929034 -0.11570614 -0.10991591 0.06255651 0.029675376 -0.11406847 -0.100624554
-0.11086502 -0.14602472 -0.06215014 -0.16339314 0.12766367 0.06899463 -0.11184833 -0.07330208
-0.015918592 -0.06040223 0.07346732 -0.10487647 -0.105511084 -0.08576711 -0.050030086 -0.0051086135
0.04336804 -0.12595269 0.03986786 0.042121377 0.04787364 -0.10180323 -0.058744013 0.050862737
-0.14473327 -0.14268902 -0.0014791413 -0.1499199 0.056806866 -0.05669143 0.027328825 -0.22561362
-0.07973646 0.026389996 -0.12179475 -0.1706186 -0.08146075 0.21501845 -0.21979609 -0.19978082
-0.047931988 -0.17922491 -0.18104646 -0.2452169 -0.20384637 -0.1176995 -0.15764892 -0.21974722
-0.14143476 -0.21536173 -0.23255552 -0.20133255 -0.2354813 -0.21069063 -0.039287005 -0.12426835
-0.111751735 -0.2417585 -0.21287061 -0.016444154 0.00486468 -0.15579708 -0.16250362 -0.14855212
0.004121508 -0.14188236 -0.15103556 -0.2147946 -0.21587981 -0.20508514 -0.17982176 -0.22666487
-0.05609794 -0.16475412 0.08646771 -0.033748582 -0.15009612 -0.0715626 -0.13077694 -0.06621106
-0.2308386 -0.24800828 0.17379951 -0.1667659 -0.10309188 -0.22982778 -0.06608723 -0.2207965
-0.16198495 -0.12198697 -0.089777716 -0.059259538 -0.04838789 -0.22691348 -0.11750853 -0.18888305
-0.15537992 -0.22225286 -0.04858737 -0.2209228 -0.088035114 -0.10686744 -0.11000052 -0.20069544
-0.013625431 -0.1208587 -0.1305053 -0.23632301 -0.049039762 -0.12394302 -0.19178566 -0.053926386
-0.12053386 -0.20188414 -0.19695732 -0.14894964 -0.08541227 -0.17085072 -0.20371425 -0.17964016
-0.22222148 -0.07707014 -0.06283814 -0.22791114 -0.07123146 -0.08972912 0.09924364 -0.12573189
-0.03638511 -0.088889204 -0.10478679 0.11897314 0.10662084 -0.13278301 -0.16246 -0.15824556
0.20802951 -0.03876005 -0.13493283 -0.16206664 -0.07485552 -0.08235248 -0.06131797 0.17320567
-0.12809211 0.006466543 -0.010318999 -0.047406234 -0.044682562 0.0022982648 -0.20410277 -0.2055637
0.008535967 0.097284324 -0.07700962 -0.08119268 -0.17022672 -0.13254791 0.12599638 0.24024305
0.1590405 0.099118225 0.18520719 0.10392595 0.076010376 -0.06415695 -0.18272059 0.12296422
0.039566495 -0.07371657 -0.010469686 0.11971109 -0.06041351 -0.177506 -0.22904126 -0.065821715
0.18415977 0.21506038 -0.089084156 -0.11742988 -0.12869832 0.061500184 -0.21110593 -0.224043
-0.097799815 -0.124369554 -0.09997811 -0.13636452 -0.07790653 -0.043326892 -0.017943604 0.0051404494
0.00010935453 0.053547047 -0.0016968093 -0.16736533 -0.10218232 -0.08179025 0.112168714 -0.23665106
00000000: 571d 83bd dddf 69bd d850 d23d 6696 c8bc
00000010: 841a c0bd cb46 a0bb e8fe efbd 5495 353e
00000020: f1fc e93c 7a83 62be abc8 58bd d948 ffbd
00000030: 4ca9 88bd ee15 05be f990 56bd 6b7e 5d3d
00000040: 46e2 ed3c 539c 03be 31e8 cfbd 1b59 febc
00000050: ad14 c7bd e1d8 96bc be43 c0bd 47da e63b
00000060: 92a9 9ebd 6b65 bdbd 3589 5dbd 8f25 54be
00000070: f1a4 1cbd 4b2b 97bc ed22 2d3e 4cc4 8a3c
00000080: ed44 81bd 71ab 01be d16f 36be 8662 a2bd
00000090: edee 02be 023b 73bd 68c7 07be 066b 6ebd
000000a0: 1cb1 ddbc 3e91 a2bd 23b6 ccbd 9ecb 2f3d
000000b0: c5dd 243d 5790 42be 2525 abbd 7b17 143e
000000c0: 87da 53bd b064 04be 57f7 ecbd 981b e1bd
000000d0: a11d 803d c619 f33c bb9c e9bd 3f14 cebd
000000e0: 330d e3bd 8187 15be 2591 7ebd 8850 27be
000000f0: 44ba 023e 0e4d 8d3d bd10 e5bd 671f 96bd
00000100: b567 82bc 5468 77bd 0976 963d 7ac9 d6bd
00000110: 3216 d8bd aba6 afbd 59ec 4cbd 2866 a7bb
00000120: b0a2 313d bef9 00be 7b4c 233d 7787 2c3d
00000130: 2617 443d 367e d0bd 909d 70bd 7255 503d
00000140: f534 14be 121d 12be bfdf c1ba 9a84 19be
00000150: 51ae 683d 4635 68bd b3e0 df3c 4207 67be
00000160: de4c a3bd d52f d83c 876f f9bd a4b6 2ebe
00000170: e5d4 a6bd cc2d 5c3e 3a12 61be 5893 4cbe
00000180: 5554 44bd bc86 37be 3e64 39be 241a 7bbe
00000190: 1abd 50be 6f0c f1bd b86e 21be 6a05 61be
000001a0: 46d4 10be c987 5cbe 0923 6ebe 1f2a 4ebe
000001b0: 0322 71be 49bf 57be 69eb 20bd 6880 febd
000001c0: 18de e4bd 8a8f 77be c1fa 59be e4b5 86bc
000001d0: e567 9f3b 4589 1fbe 5967 26be 0c1e 18be
000001e0: b70d 873b 9c49 11be 11a9 1abe 1ef3 5bbe
000001f0: 990f 5dbe d701 52be 3223 38be d61a 68be
00000200: f4c6 65bd 4eb5 28be fc15 b13d f43b 0abd
00000210: ccb2 19be 6a8f 92bd 64ea 05be aa99 87bd
00000220: f460 6cbe e2f5 7dbe 80f8 313e aec4 2abe
00000230: d621 d3bd f957 6bbe be58 87bd 7a18 62be
00000240: 62df 25be 4ed4 f9bd 61dd b7bd 21ba 72bd
00000250: 6132 46bd 025c 68be 50a8 f0bd 8f6a 41be
00000260: ea1b 1fbe 4196 63be 8d03 47bd 9639 62be
00000270: c14b b4bd 51dd dabd f447 e1bd 1b83 4dbe
00000280: 333d 5fbc c484 f7bd 2ea3 05be a9fe 71be
00000290: ebdd 48bd d7d5 fdbd 7663 44be eae1 5cbd
000002a0: 75da f6bd b7ba 4ebe 2eaf 49be 4186 18be
000002b0: a1ec aebd 7ef3 2ebe 789a 50be 97f3 37be
000002c0: 078e 63be f3d6 9dbd 48b1 80bd 8a61 69be
000002d0: cde1 91bd e7c3 b7bd 4040 cb3d dcbf 00be
000002e0: 8e08 15bd 8b0b b6bd 759a d6bd 31a8 f33d
000002f0: 075c da3d 45f8 07be ea5b 26be 200b 22be
00000300: b005 553e dcc2 1ebd d52b 0abe ccf4 25be
00000310: da4d 99bd 6ba8 a8bd 8d28 7bbd d45c 313e
00000320: 942a 03be 4be5 d33b 0511 29bc 0a2d 42bd
00000330: 1005 37bd 7c9e 163b 5100 51be 4a7f 52be
00000340: 71da 0b3c 013d c73d 38b7 9dbd 5948 a6bd
00000350: ea4f 2ebe a4ba 07be 3205 013e 4602 763e
00000360: 83db 223e 7ffe ca3d f4a6 3d3e 21d7 d43d
00000370: 54ab 9b3d b864 83bd 1b1b 3bbe aad4 fb3d
00000380: 7a10 223d b7f8 96bd 0c89 2bbc 172b f53d
00000390: 2874 77bd 22c4 35be cb89 6abe 89cd 86bd
000003a0: 6194 3c3e ca38 5c3e c171 b6bd 147f f0bd
000003b0: 7ec9 03be 9ee7 7b3d 272c 58be 876b 65be
000003c0: 454b c8bd 77b5 febd 53c1 ccbd 24a3 0bbe
000003d0: 758d 9fbd 8a77 31bd 77fe 92bc 3771 a83b
000003e0: 4455 e538 2654 5b3d 7967 deba d161 2bbe
000003f0: f744 d1bd a681 a7bd b6b8 e53d a854 72be

bias f4 [34]
-0.06892836 0.1687311 -0.05935833 0.2033685 0.05422897 0.19622599 0.15630928 0.17763604
0.004795868 0.106907 0.18835437 0.12021984 0.11374408 0.23658271 0.118956365 0.080694824
0.047469895 0.12361739 0.09772802 0.18885979 0.085728794 0.10646031 0.03988416 0.194518
0.11830436 0.061195094 0.13872294 0.14362 0.16135348 0.13244511 0.071362495 0.10763188
0.11245357 0.013912761
00000000: 502a 8dbd d8c7 2c3e b821 73bd d53f 503e
00000010: 321f 5e3d 77ef 483e 8a0f 203e 39e6 353e
00000020: a826 9d3b 0ff2 da3d f8df 403e d235 f63d
00000030: a8f2 e83d bd42 723e 659f f33d 5443 a53d
00000040: cb6f 423d 1d2b fd3d a125 c83d 7664 413e
00000050: 9492 af3d dd07 da3d 935d 233d ba2f 473e
00000060: 8e49 f23d b5a7 7a3d 630d 0e3e 1f11 133e
00000070: d939 253e b19f 073e 8026 923d 1a6e dc3d
00000080: 0f4e e63d 59f2 633c

weight f4 [23, 34]
0.05328444 0.12920314 -0.15192892 0.11721275 0.1726755 -0.22436345 -0.049614836 -0.20953423
0.02136985 -0.17984886 -0.091537595 -0.03672994 -0.2565612 -0.12623706 -0.14845982 -0.07964674
0.06927012 0.017607614 0.028210118 -0.29476827 0.005720014 -0.15721107 -0.10549193 0.067324735
-0.29683593 0.15667504 -0.038332745 0.019413814 -0.007439797 0.10534861 0.04785014 -0.20640014
-0.16299564 0.0068085375 -0.13916562 0.09517776 0.036122322 0.17591448 -0.15509728 0.07324131
0.15888552 0.06917318 0.2906597 0.261759 0.30044094 -0.05067714 0.14573488 -0.036729872
0.04979986 -0.14248882 0.052873865 -0.018116197 0.06281382 -0.010458927 0.080323525 -0.06758329
0.27018163 0.09356509 0.19596665 0.117912985 0.01423246 0.08554587 -0.12719855 0.051499218
0.03594066 0.24370645 0.08595323 0.2512099 0.14304192 -0.09052788 0.28532088 0.032487676
-0.15277722 0.21382856 0.11943738 0.2949451 -0.019335985 0.2986376 0.2737982 0.18288738
0.23727012 -0.07414028 0.11456552 0.15341991 -0.08527055 -0.021735778 0.278113 0.2818048
0.10310371 0.14011593 0.055669818 -0.023953294 0.07533089 0.17888919 0.0505568 0.011364194
-0.02739192 -0.13807184 -0.017421238 0.3000223 0.05754904 0.22036232 0.10573704 0.10918016
0.14382106 0.27764484 0.12013983 0.28575072 0.24422234 0.26155955 -0.011596717 0.06375368
0.004241072 0.107493415 0.10837671 0.17874067 0.29747063 0.22088283 0.024622722 0.03633742
0.27339327 0.16107637 0.19236441 0.054177664 0.12295657 0.19270253 0.03137806 0.25583467
0.22934774 0.043881856 0.07362185 0.10358809 0.17075597 0.0809758 0.30790433 -0.02117565
-0.24079797 -0.24793468 -0.097479455 -0.1195085 -0.1926362 0.0025618942 -0.2918966 -0.08339582
-0.23816279 -0.18286884 -0.3088997 -0.27195638 -0.28924793 -0.06901737 -0.20822757 -0.054141723
-0.23679236 -0.18632048 -0.12309415 -0.00011870346 -0.19004673 -0.044417642 -0.09643319 -0.03958182
-0.035473898 -0.07420638 -0.19558637 -0.19192313 -0.077129625 -0.05039122 -0.15308689 -0.057825767
-0.24691145 -0.04717027 -0.048722625 -0.14023906 -0.09587969 -0.16427562 0.011526124 -0.0834433
-0.101577565 0.020273438 -0.088667646 0.033205815 -0.017772315 0.020306608 0.12541267 -0.12342739
0.07457159 -0.052156508 -0.1126425 -0.113487534 0.057852387 0.071649194 -0.009283441 -0.13441806
0.09632521 -0.03421338 -0.16331099 -0.00776296 -0.09780985 -0.040886637 -0.11343449 -0.19380245
0.15844001 -0.16901515 0.18860455 -0.12027403 -0.09460369 -0.13876635 -0.23561162 -0.015729817
0.05776393 -0.25646797 -0.13166091 -0.056314796 -0.16452211 -0.10211223 -0.051645037 -0.14356384
-0.23904371 0.0014106869 -0.12584218 -0.17519122 -0.11712269 -0.13356361 0.026861625 -0.110880055
0.038305555 -0.023830367 -0.2593012 0.06442283 -0.17048934 -0.1882506 -0.004249461 -0.23115104
-0.032654155 -0.19263694 -0.056061678 -0.07579447 -0.28483602 -0.0481827 0.005517902 -0.11346747
0.19361386 0.052890893 0.049883198 -0.118808456 -0.13466692 -0.18697119 -0.015315083 -0.01634535
-0.24386257 0.09346276 0.022884509 -0.081636645 0.030038238 -0.101978 0.045173425 0.11621645
00000000: c940 5a3d d44d 043e 4193 1bbe 3d0d f03d
00000010: d9d1 303e 88bf 65be ed38 4bbd 2490 56be
00000020: d30f af3c 4d2a 38be 1078 bbbd 2272 16bd
00000030: fd5b 83be 4a44 01be da05 18be d41d a3bd
00000040: 7edd 8d3d d83d 903c e818 e73c deeb 96be
00000050: f56e bb3b f0fb 20be 270c d8bd 8de1 893d
00000060: e1fa 97be 6c6f 203e cc02 1dbd b809 9f3c
00000070: 8ac9 f3bb 03c1 d73d 82fe 433d 8f5a 53be
00000080: 54e8 26be 271a df3b 6f81 0ebe 8fec c23d
00000090: 00f5 133d ed22 343e d2d1 1ebe 8aff 953d
000000a0: e3b2 223e abaa 8d3d 59d1 943e 4705 863e
000000b0: 65d3 993e d592 4fbd 863b 153e 1072 16bd
000000c0: f0fa 4b3d 97e8 11be 4492 583d 6b68 94bc
000000d0: 88a4 803d eb5b 2bbc a980 a43d 1c69 8abd
000000e0: 3f55 8a3e 0e9f bf3d 7bab 483e 5d7c f13d
000000f0: 442f 693c ac32 af3d 5640 02be d8f0 523d
00000100: 8336 133d 2f8e 793e 3f08 b03d 969e 803e
00000110: 9579 123e ae66 b9bd 9415 923e cc11 053d
00000120: a271 1cbe e0f5 5a3e 969b f43d 0b03 973e
00000130: 8066 9ebc 07e7 983e 472f 8c3e d446 3b3e
00000140: f0f6 723e dcd6 97bd 54a1 ea3d 1c1a 1d3e
00000150: 53a2 aebd 3b0f b2bc d464 8e3e b848 903e
00000160: 0a28 d33d 8d7a 0f3e 0906 643d b339 c4bc
00000170: 1547 9a3d ba2e 373e a614 4f3d e230 3a3c
00000180: 0565 e0bc b462 0dbe fcb6 8ebc 869c 993e
00000190: 8bb8 6b3d a9a6 613e a98c d83d d999 df3d
000001a0: d445 133e 7727 8e3e df0b f63d eb4d 923e
000001b0: 6c15 7a3e 22eb 853e 2800 3ebc 4a91 823d
000001c0: b1f8 8a3b 8225 dc3d 9cf4 dd3d cb07 373e
000001d0: 124e 983e 1c2f 623e 97b5 c93c 8cd6 143d
000001e0: 34fa 8b3e 34f1 243e 2dfb 443e 66e9 5d3d
000001f0: a7d0 fb3d d053 453e 4886 003d c3fc 823e
00000200: 22da 6a3e 76bd 333d 0dc7 963d fe25 d43d
00000210: a7da 2e3e a4d6 a53d a3a5 9d3e 8f78 adbc
00000220: be93 76be 97e2 7dbe 4fa3 c7bd dfc0 f4bd
00000230: 6d42 45be 74e5 273b 7973 95be 6dcb aabd
00000240: f2e0 73be f841 3bbe 1a28 9ebe de3d 8bbe
00000250: 4e18 94be fb58 8dbd 9c39 55be b6c3 5dbd
00000260: b279 72be ccca 3ebe c918 fcbd 6ff0 f8b8
00000270: 9c9b 42be 46ef 35bd c47e c5bd 8c20 22bd
00000280: 144d 11bd 84f9 97bd cb47 48be 7f87 44be
00000290: 23f6 9dbd 0667 4ebd cfc2 1cbe b6da 6cbd
000002a0: 5bd6 7cbe 9d35 41bd 6091 47bd d49a 0fbe
000002b0: 925c c4bd de37 28be 11d8 3c3c 52e4 aabd
000002c0: e607 d0bd 7b14 a63c 6297 b5bd d202 083d
000002d0: 3f97 91bc 0b5a a63c 2e6c 003e 80c7 fcbd
000002e0: fdb8 983d 10a2 55bd 1cb1 e6bd 276c e8bd
000002f0: a0f6 6c3d d0bc 923d 9319 18bc e3a4 09be
00000300: 2746 c53d 5423 0cbd ff3a 27be 6e60 febb
00000310: 8850 c8bd bf78 27bd 5850 e8bd 2674 46be
00000320: 193e 223e 4f12 2dbe 8d21 413e 3b52 f6bd
00000330: 94bf c1bd c418 0ebe 2c44 71be d1db 80bc
00000340: df99 6c3d c54f 83be 1ed2 06be 58aa 66bd
00000350: 7c78 28be 3820 d1bd bf89 53bd 6602 13be
00000360: e0c7 74be cce6 b83a c6dc 00be 5465 33be
00000370: 05de efbd e6c4 08be e90c dc3c 1515 e3bd
00000380: 49e6 1c3d e737 c3bc 20c3 84be 1ef0 833d
00000390: c294 2ebe c4c4 40be 103f 8bbb dcb2 6cbe
000003a0: 5dc0 05bd 9e42 45be eea0 65bd 223a 9bbd
000003b0: 07d6 91be 395b 45bd 84cf b43b a261 e8bd
000003c0: b642 463e 1fa4 583d 5352 4c3d d951 f3bd
000003d0: 20e6 09be 6075 3fbe 1dec 7abc afe6 85bc
000003e0: 1cb7 79be 6769 bf3d 4b78 bb3c 1d31 a7bd
000003f0: c012 f63c d7d9 d0bd c507 393d e402 ee3d

bias f4 [23]
-0.0146320155 0.19795619 0.14280456 0.113379695 -0.027463013 -0.19060738 -0.019996038 -0.29276565
-0.24830338 -0.09843291 -0.21456042 0.17589702 0.005451097 0.22217251 0.023941875 -0.21656244
-0.22583012 -0.16568494 -0.116221495 -0.106781766 -0.15455516 0.011022377 -0.23793992
00000000: 1fbb 6fbc 07b5 4a3e 5c3b 123e 9d33 e83d
00000010: 1dfa e0bc 952e 43be bbce a3bc 61e5 95be
00000020: 3e43 7ebe 3297 c9bd bab5 5bbe 591e 343e
00000030: 1e9f b23b 3181 633e c021 c43c 8bc2 5dbe
00000040: 0340 67be 50a9 29be 8905 eebd 66b0 dabd
00000050: b543 1ebe 3397 343c 86a6 73be
