models_m3/model_agg_num_7.pt (torch, 42703 bytes, 4 tensors)

weight f4 [48, 91]
-0.05256915 -0.023825314 -0.21192795 -0.18167388 -0.18687542 -0.11540875 -0.23442538 -0.13767032
-0.21186553 -0.12843758 -0.048730876 -0.0778697 -0.24260028 -0.11840153 -0.11510437 -0.0885516
-0.23004209 -0.16101559 -0.21182992 -0.09210904 -0.16837846 -0.20829302 -0.20115 -0.18697241
-0.06867819 -0.118692726 -0.1305532 -0.040711824 -0.07373113 0.1307914 -0.15231821 -0.2081824
-0.054451466 -0.048709176 -0.22485837 -0.067782015 -0.20344506 -0.19281945 -0.123831265 -0.083929546
-0.16709091 -0.07899096 -0.17474824 -0.10431704 0.16461317 -0.10377647 -0.073639676 -0.16759104
-0.1641634 -0.17513949 -0.09780255 -0.15772572 -0.13032185 -0.04638329 -0.16629805 -0.13748612
-0.09136095 -0.12458609 -0.18191934 -0.17653775 -0.11988732 -0.15578888 -0.051180083 -0.20246798
-0.12289699 -0.21914776 -0.12272315 -0.2142925 -0.07090687 -0.103609055 -0.17995551 -0.19392815
-0.14724833 -0.109114535 0.10574398 -0.1408523 -0.21583375 -0.17566344 -0.06385285 -0.16567639
-0.04859335 -0.14955549 -0.067452915 -0.0723859 -0.0020346176 -0.026706276 -0.072455265 -0.075895816
0.05132589 -0.048988827 -0.2074618 -0.06164766 -0.10179105 -0.163691 -0.15291883 -0.08074422
-0.07113536 -0.15736847 -0.06466119 -0.093176626 -0.18311536 -0.04650218 -0.074342474 -0.08717833
-0.095588386 -0.1701661 -0.15634084 -0.14092824 0.066822186 0.18476114 0.17631824 0.09638904
0.20129414 0.1327888 -0.1672955 0.06272185 0.044917632 0.00057630264 0.19428733 0.07779478
0.1336863 -0.1487139 -0.072604224 0.08626115 0.13807365 0.09216262 0.16408457 0.2150498
0.086086325 -0.06763676 0.14576106 0.11920328 -0.13436197 0.06949192 -0.092121616 0.10247362
-0.16325799 -0.22834228 -0.075938895 -0.16641814 -0.16646393 -0.22727098 -0.10186264 -0.10167652
-0.16547321 -0.04071693 -0.042629413 -0.1879593 -0.14601868 -0.18851149 -0.08754821 -0.08918258
-0.07277567 -0.099774435 0.042680968 0.07152651 0.05454615 0.06357549 0.22516799 -0.17115681
0.12995596 -0.122796826 -0.13955168 0.11723974 -0.07390466 0.18858491 -0.14187641 -0.0491579
-0.062352847 0.04537899 0.15959683 0.08425658 0.06114205 0.19268024 -0.09926837 0.10435454
0.14791912 -0.11937126 0.082423896 -0.12128241 0.06279702 0.08571444 -0.2270586 -0.11261528
-0.056551326 -0.08537804 -0.0670945 -0.21120915 -0.115516305 -0.14425988 -0.24798316 -0.21207343
-0.13420002 -0.1902943 -0.05897982 -0.104896694 -0.22701864 -0.15119906 -0.06057293 -0.16285999
-0.12433562 -0.20460752 -0.13370138 -0.13208294 -0.17166866 -0.11255959 0.008856945 -0.098924905
-0.21029116 -0.1579852 -0.22536892 -0.13513057 -0.057957936 -0.16649377 -0.09654533 -0.17475772
-0.20429993 -0.034548465 -0.028645236 -0.10520154 -0.049285825 -0.00045905964 -0.03321882 -0.21723574
-0.18754606 -0.082388505 -0.14231782 -0.10459992 -0.20917891 -0.11802401 -0.040682945 -0.1193936
-0.20953289 -0.006401243 -0.076567315 -0.0712602 -0.07592249 -0.08108759 -0.1692989 -0.11576802
-0.1437382 -0.13897417 -0.12161885 -0.22922273 -0.15406235 -0.16932054 -0.21271278 -0.07454193
-0.09321758 -0.21101494 -0.0729955 -0.018727377 -0.09726405 -0.063091345 -0.10956927 -0.19580263
00000000: c052 57bd 4e2d c3bc a403 59be b808 3abe
00000010: 455c 3fbe 6c5b ecbd 350d 70be 73f9 0cbe
00000020: 47f3 58be 2485 03be 079a 47bd 267a 9fbd
00000030: 356c 78be 807c f2bd d7bb ebbd 8b5a b5bd
00000040: 2790 6bbe 45e1 24be f1e9 58be aaa3 bcbd
00000050: 676b 2cbe c44a 55be 44fa 4dbe b275 3fbe
00000060: 27a7 8cbd 2c15 f3bd bdaf 05be 71c1 26bd
00000070: 5900 97bd 2eee 053e 4ef9 1bbe c42d 55be
00000080: 8008 5fbd 4683 47bd 4641 66be 4cd1 8abd
00000090: e753 50be 7672 45be 3f9b fdbd 41e3 abbd
000000a0: e119 2bbe 03c6 a1bd 34f1 32be 2ca4 d5bd
000000b0: 5b90 283e c288 d4bd 66d0 96bd fc9c 2bbe
000000c0: 731a 28be c457 33be b44c c8bd da82 21be
000000d0: 1773 05be 68fc 3dbd 094a 2abe 29c9 0cbe
000000e0: 731b bbbd fe26 ffbd 1049 3abe 50c6 34be
000000f0: 7c87 f5bd 1f87 1fbe 35a2 51bd c453 4fbe
00000100: 6bb1 fbbd 4568 60be 4656 fbbd 7e6f 5bbe
00000110: 9f37 91bd fc30 d4bd 4246 38be 1a95 46be
00000120: 44c8 16be 7177 dfbd 4d90 d83d 963b 10be
00000130: 8603 5dbe 1ee1 33be 48c5 82bd 12a7 29be
00000140: d209 47bd 1325 19be c124 8abd 0f3f 94bd
00000150: 3857 05bb 1fc7 dabc 6d63 94bd 446f 9bbd
00000160: 193b 523d 82a8 48bd de70 54be 4282 7cbd
00000170: d377 d0bd 9d9e 27be c196 1cbe 3a5d a5bd
00000180: 6aaf 91bd 3325 21be 166d 84bd 63d3 bebd
00000190: 9882 3bbe 1279 3ebd de40 98bd 8d8a b2bd
000001a0: d8c3 c3bd 0640 2ebe d017 20be 7e4f 10be
000001b0: 12da 883d 0632 3d3e c58c 343e 9e67 c53d
000001c0: 0d20 4e3e caf9 073e 834f 2bbe 5074 803d
000001d0: 8dfb 373d 0413 173a 42f3 463e df52 9f3d
000001e0: 10e5 083e 7548 18be 86b1 94bd b0a9 b03d
000001f0: 2e63 0d3e c1bf bc3d c905 283e 0436 5c3e
00000200: 074e b03d 2485 8abd 6342 153e d920 f43d
00000210: 2f96 09be c851 8e3d 42aa bcbd b0dd d13d
00000220: 1a2d 27be 8fd2 69be da85 9bbd 8469 2abe
00000230: 8575 2abe b9b9 68be 5c9d d0bd c83b d0bd
00000240: cf71 29be ccc6 26bd 2e9c 2ebd 6778 40be
00000250: ec85 15be 2809 41be 7a4c b3bd 5ba5 b6bd
00000260: 690b 95bd 8a56 ccbd 3dd2 2e3d 7e7c 923d
00000270: c96b 5f3d de33 823d 7092 663e bb43 2fbe
00000280: 2d13 053e e77c fbbd a3e6 0ebe 641b f03d
00000290: 545b 97bd 671c 413e 0d48 11be cb59 49bd
000002a0: b365 7fbd 52df 393d 5a6d 233e b78e ac3d
000002b0: 1670 7a3d f84d 453e 374d cbbd d5b7 d53d
000002c0: 1c78 173e eb78 f4bd dccd a83d ea62 f8bd
000002d0: b99b 803d 0d8b af3d 0d82 68be d7a2 e6bd
000002e0: 5da2 67bd afda aebd d768 89bd 3647 58be
000002f0: d093 ecbd ddb8 13be 4cef 7dbe c729 59be
00000300: bb6b 09be 82dc 42be d394 71bd 14d4 d6bd
00000310: 9377 68be edd3 1abe 521b 78bd c5c4 26be
00000320: aca3 febd a284 51be 04e9 08be c040 07be
00000330: e9c9 2fbe a485 e6bd b81c 113c 2499 cabd
00000340: 9156 57be dfc6 21be 1cc7 66be ab5f 0abe
00000350: 4d65 6dbd 587d 2abe 8fb9 c5bd b0f3 32be
00000360: 0034 51be b182 0dbd 6aa9 eabc e873 d7bd
00000370: efdf 49bd f1ad f0b9 7510 08bd 0c73 5ebe
00000380: 130c 40be 4ebb a8bd c3bb 11be 7c38 d6bd
00000390: ff32 56be 92b6 f1bd 29a3 26bd a284 f4bd
000003a0: ca8f 56be 85c1 d1bb 53cf 9cbd def0 91bd
000003b0: 407d 9bbd 4011 a6bd b15c 2dbe c917 edbd
000003c0: 1b30 13be 3f4f 0ebe 4e13 f9bd 5db9 6abe
000003d0: 85c2 1dbe 5d62 2dbe 61d1 59be 70a9 98bd
000003e0: dce8 bebd 4d14 58be aa7e 95bd 286a 99bc
000003f0: 6032 c7bd 0936 81bd da65 e0bd 7c80 48be

bias f4 [48]
0.12731665 -0.012946784 0.18011948 0.20803818 0.07082312 0.22312988 0.124253675 0.17960462
0.08530433 0.16115646 0.04696455 0.09294773 0.037018657 0.18959816 0.24147622 0.1937524
0.16034381 0.15622929 -0.069085576 0.045352582 0.032638032 0.04698701 0.17909418 0.05542226
0.028030924 0.091725774 0.036764044 0.22074705 0.23759899 0.07415975 0.06138507 0.14076039
0.19710147 0.041064464 0.15501994 0.10235656 0.09337366 0.22507899 0.15819724 0.15193723
0.05335324 0.10465956 0.15356685 0.2332725 0.077539444 0.16304775 -0.08790066 0.05842029
00000000: 4c5f 023e bf1e 54bc 3e71 383e f607 553e
00000010: b60b 913d 297c 643e b678 fe3d 46ea 373e
00000020: 09b4 ae3d 3306 253e e65d 403d 615b be3d
00000030: e0a0 173d 0526 423e 8b45 773e 0767 463e
00000040: 2b31 243e 92fa 1f3e bd7c 8dbd a1c3 393d
00000050: 75af 053d 7375 403d 7764 373e 7402 633d
00000060: 1ca1 e53c b9da bb3d e595 163d 840b 623e
00000070: 264d 733e 11e1 973d e96e 7b3d 7e23 103e
00000080: f8d4 493e 3633 283d 8cbd 1e3e 51a0 d13d
00000090: b13a bf3d 1b7b 663e 75fe 213e 6f95 1b3e
000000a0: ed88 5a3d c057 d63d a140 1d3e fcde 6e3e
000000b0: 00cd 9e3d fdf5 263e 4305 b4bd 1d4a 6f3d

weight f4 [32, 48]
0.089617945 0.2388226 0.07793061 -0.051486056 0.28636804 0.024391904 0.10447557 0.12455502
-0.16136464 -0.13905463 0.059165355 0.17924169 0.060793396 0.19166797 0.045280043 0.2468289
0.12811536 -0.022655956 -0.13900062 -0.03455942 -0.11656252 0.007930384 -0.007108811 -0.00070737104
-0.089580454 0.18477802 0.23135869 0.055360306 0.03853654 0.09691977 -0.029722517 -0.14869653
0.27624002 0.2714793 -0.067411326 -0.060489174 0.0062636496 -0.040697232 0.06522286 0.24324356
0.17645524 0.07426028 0.09423284 0.098677345 -0.08478127 0.15089573 0.21576218 0.021566018
0.07887224 -0.14703865 -0.10118811 -0.0047546597 -0.0054769716 0.01897894 -0.092183866 0.06485225
0.008144119 0.07150784 -0.16933961 0.035033323 -0.022649612 -0.030321233 0.07997305 0.06737373
0.21381678 0.07121261 -0.08817276 0.06190663 0.12073784 -0.16467096 -0.016447123 -0.01434485
-0.04745333 -0.011047449 -0.010587023 -0.034986626 0.13364683 0.031989247 0.018385658 0.098188214
0.27013528 -0.172348 -0.11775317 -0.039111864 -0.083652884 0.10100601 -0.08137832 0.017387567
-0.007115391 0.033409826 0.08976734 0.044425346 0.07030344 0.004960743 -0.04166266 0.27239463
0.005005299 -0.18395312 -0.102252476 -0.07098829 -0.24866453 0.0031677831 -0.26539102 -0.20593329
-0.11044982 0.0015182043 0.009386285 -0.21507715 -0.17158405 -0.09879453 -0.0014576291 -0.21467377
-0.026565123 -0.012763112 -0.035602465 -0.18218209 0.024686458 -0.039747953 -0.09531377 -0.06523966
0.065916315 -0.08492676 -0.069551356 0.049069613 -0.09720872 -0.11535809 -0.06799056 -0.10526026
-0.1666964 -0.24626662 -0.057917833 0.017836906 -0.13053167 -0.07333132 -0.16461945 -0.063130274
-0.15828864 -0.16653228 -0.08966168 -0.05902731 -0.063125126 -0.022080341 -0.03466226 -0.24265318
0.06303562 -0.06735545 0.083290674 -0.06133259 -0.10196638 -0.13170509 0.016210724 -0.06875329
0.14030945 -0.04051591 0.10592694 -0.14329962 -0.2853987 0.1347343 0.070066564 -0.2625739
-0.09816263 -0.013965444 -0.12554096 0.09084178 0.14896901 -0.030231107 0.10215418 -0.017272208
-0.21842559 -0.065312 0.035372455 -0.15285935 -0.09729617 0.0068436856 0.173574 -0.032407608
-0.08744914 -0.05451775 -0.04749394 -0.0043398533 0.10507956 0.11970264 0.09817024 -0.047286667
-0.019372726 -0.034153063 0.07192018 -0.21930356 -0.028384686 -0.06957947 0.13080919 -0.06660511
-0.05581133 0.28747502 -0.036772832 0.02123959 0.16700903 0.18700553 0.22627403 0.21291542
0.04588146 0.059866555 0.21497968 0.26585126 0.13265744 0.20445043 0.10937334 0.19475187
0.007898468 -0.053557046 -0.026188606 0.14030983 0.17096366 -0.047248654 -0.006893942 0.05222124
-0.032854248 0.23298343 0.15803571 0.060619473 0.03280365 0.06781914 0.11184084 0.14071032
0.07164949 0.062096603 -0.06297476 0.03920196 0.22792092 0.11196576 0.17193092 0.1571128
0.001541248 0.12593997 0.15408917 0.24478997 -0.014138253 0.22527824 0.015274679 0.19953714
0.16704044 0.010140112 0.18556412 0.04131666 0.13584349 0.12628166 0.25018504 0.07431557
0.039889798 0.18253806 0.26888114 0.07855652 0.07523668 0.018332148 0.049986307 0.14372434
00000000: 9d89 b73d e98d 743e 159a 9f3d 0be3 52bd
00000010: d59e 923e 88d1 c73c 4af7 d53d b416 ff3d
00000020: c63c 25be 5664 0ebe 5f57 723d 228b 373e
00000030: 7f02 793d 9c44 443e 9177 393d b7c0 7c3e
00000040: ac30 033e fc98 b9bc 2e56 0ebe 2e8e 0dbd
00000050: 55b8 eebd 71ee 013c 07f1 e8bb de6e 39ba
00000060: f575 b7bd 7336 3d3e 4be9 6c3e 7dc1 623d
00000070: 7ed8 1d3d df7d c63d a37c f3bc e743 18be
00000080: 556f 8d3e 56ff 8a3e f30e 8abd 7fc3 77bd
00000090: 4d3f cd3b 24b2 26bd 9093 853d d714 793e
000000a0: afb0 343e c615 983d 26fd c03d 5917 ca3d
000000b0: cda1 adbd 6984 1a3e c3f0 5c3e 38ab b03c
000000c0: c587 a13d 4d91 16be b63b cfbd facc 9bbb
000000d0: 2b78 b3bb b979 9b3c e5ca bcbd 42d1 843d
000000e0: e96e 053c b472 923d 5d67 2dbe 1a7f 0f3d
000000f0: ae8b b9bc 3c64 f8bc e9c8 a33d 3dfb 893d
00000100: c9f2 5a3e ebd7 913d ec93 b4bd ce91 7d3d
00000110: 6745 f73d 819f 28be 1ebc 86bc a906 6bbc
00000120: 6c5e 42bd 5c00 35bc 3175 2dbc 234e 0fbd
00000130: b7da 083e 2807 033d 859d 963c e716 c93d
00000140: 2c4f 8a3e fe7b 30be 9328 f1bd c333 20bd
00000150: 3452 abbd 3ddc ce3d ada9 a6bd 5f70 8e3c
00000160: 3a28 e9bb bed8 083d f0d7 b73d 5af7 353d
00000170: 40fb 8f3d ba8d a23b 77a6 2abd 4f77 8b3e
00000180: 7e03 a43b 355e 3cbe bf69 d1bd 4f62 91bd
00000190: eaa1 7ebe 959a 4f3b 55e1 87be 2de0 52be
000001a0: 8433 e2bd 7cfe c63a efc8 193c 2f3d 5cbe
000001b0: bbb3 2fbe c954 cabd eb0d bfba 71d3 5bbe
000001c0: 1a9f d9bc 5f1c 51bc e4d3 11bd f18d 3abe
000001d0: 413b ca3c c0ce 22bd de33 c3bd 5f9c 85bd
000001e0: 22ff 863d 15ee adbd f170 8ebd 38fd 483d
000001f0: 5e15 c7bd dd40 ecbd a23e 8bbd b192 d7bd
00000200: 76b2 2abe 512d 7cbe 403b 6dbd b41e 923c
00000210: 18aa 05be bb2e 96bd 0092 28be 724a 81bd
00000220: 6b16 22be 7087 2abe 8ba0 b7bd 9fc6 71bd
00000230: bf47 81bd d5e1 b4bc 04fa 0dbd 137a 78be
00000240: d218 813d a7f1 89bd 4d94 aa3d e237 7bbd
00000250: c0d3 d0bd b3dd 06be 5acc 843c 86ce 8cbd
00000260: 48ad 0f3e 03f4 25bd 39f0 d83d 23bd 12be
00000270: c71f 92be caf7 093e 0f7f 8f3d 1670 86be
00000280: 7d09 c9bd 51cf 64bc cf8d 00be 410b ba3d
00000290: 558b 183e 3aa7 f7bc 3636 d13d 727e 8dbc
000002a0: f5aa 5fbe 4cc2 85bd b5e2 103d 2987 1cbe
000002b0: 3743 c7bd ff40 e03b 62bd 313e d7bd 04bd
000002c0: 8918 b3bd 014e 5fbd 0189 42bd 5435 8ebb
000002d0: f433 d73d a826 f53d 7b0d c93d aaaf 41bd
000002e0: 8db3 9ebc 15e4 0bbd e34a 933d 1d91 60be
000002f0: 0087 e8bc ae7f 8ebd d8f2 053e 4368 88bd
00000300: 6c9a 64bd ed2f 933e 1c9f 16bd a6fe ad3c
00000310: 6a04 2b3e 617e 3f3e 61b4 673e 8006 5a3e
00000320: 33ee 3b3d a236 753d a223 5c3e a81d 883e
00000330: 5ad7 073e 745b 513e 21ff df3d 096d 473e
00000340: 9368 013c a25e 5bbd 7d89 d6bc 61ad 0f3e
00000350: 1911 2f3e ce87 41bd 94e6 e1bb f0e5 553d
00000360: 2d92 06bd 3593 6e3e 1dd4 213e 204c 783d
00000370: 1f5d 063d c3e4 8a3d cf0c e53d 5e16 103e
00000380: f8bc 923d 0259 7e3d e9f8 80bd 3c92 203d
00000390: 1a64 693e 4e4e e53d a90e 303e 2ee2 203e
000003a0: b403 ca3a 68f6 003e 8dc9 1d3e 39aa 7a3e
000003b0: 22a4 67bc 57af 663e a642 7a3c 7753 4c3e
000003c0: a60c 2b3e b622 263c 8504 3e3e a83b 293d
000003d0: 8e1a 0b3e fb4f 013e 4118 803e c332 983d
000003e0: 7c63 233d 42eb 3a3e caaa 893e 3ee2 a03d
000003f0: b015 9a3d 4d2d 963c 71be 4c3d 792c 133e

bias f4 [32]
0.03587489 0.1495377 -0.19071546 -0.032170657 0.0659422 0.2608975 0.26291156 -0.029597698
-0.15058516 -0.28289804 0.11401021 0.0612193 -0.15140276 -0.18958275 -0.009694488 -0.19873741
-0.0002130276 -0.117141925 -0.0790975 0.022622662 -0.21884543 -0.20570901 -0.030979201 -0.036938153
-0.18378979 -0.1395432 -0.10316677 -0.01191413 -0.25076458 -0.24563044 -0.039934065 -0.031676564
00000000: 8cf1 123d 6920 193e ea4a 43be 61c5 03bd
00000010: b40c 873d 5b94 853e 589c 863e df76 f2bc
00000020: ff32 1abe 03d8 90be 2f7e e93d 17c1 7a3d
00000030: 5309 1bbe fb21 42be a1d5 1ebc d281 4bbe
00000040: 2960 5fb9 1be8 efbd dffd a1bd 2953 b93c
00000050: 0419 60be 62a5 52be 18c8 fdbc 764c 17bd
00000060: 6433 3cbe 6ae4 0ebe 1949 d3bd 7c33 43bc
00000070: 3764 80be 8c86 7bbe e791 23bd 49bf 01bd
